…
I0419 15:46:36.766798  4352 net.cpp:294] The NetState phase (0) differed from the phase (1) specified by a rule in layer data
I0419 15:46:36.767021  4352 net.cpp:51] Initializing net from parameters: 
state {
  phase: TRAIN
  level: 0
  stage: ""
}
layer {
  name: "data"
  type: "Data"
  top: "data"
  top: "label"
  include {
    phase: TRAIN
  }
  transform_param {
    crop_size: 227
    mean_file: "/home/rui/active_semantic_mapping/Cylinders/dataset_v3/mean.binaryproto"
  }
  data_param {
    source: "/home/rui/active_semantic_mapping/Cylinders/dataset_v3/train_lmdb"
    batch_size: 32
    backend: LMDB
  }
}
layer {
  name: "conv1"
  type: "Convolution"
  bottom: "data"
  top: "conv1"
  convolution_param {
    num_output: 64
    kernel_size: 3
    stride: 2
    weight_filler {
      type: "xavier"
    }
  }
}
layer {
  name: "relu_conv1"
  type: "ReLU"
  bottom: "conv1"
  top: "conv1"
}
layer {
  name: "pool1"
  type: "Pooling"
  bottom: "conv1"
  top: "pool1"
  pooling_param {
    pool: MAX
    kernel_size: 3
    stride: 2
  }
}
layer {
  name: "fire2/squeeze1x1"
  type: "Convolution"
  bottom: "pool1"
  top: "fire2/squeeze1x1"
  convolution_param {
    num_output: 16
    kernel_size: 1
    weight_filler {
      type: "xavier"
    }
  }
}
layer {
  name: "fire2/relu_squeeze1x1"
  type: "ReLU"
  bottom: "fire2/squeeze1x1"
  top: "fire2/squeeze1x1"
}
layer {
  name: "fire2/expand1x1"
  type: "Convolution"
  bottom: "fire2/squeeze1x1"
  top: "fire2/expand1x1"
  convolution_param {
    num_output: 64
    kernel_size: 1
    weight_filler {
      type: "xavier"
    }
  }
}
layer {
  name: "fire2/relu_expand1x1"
  type: "ReLU"
  bottom: "fire2/expand1x1"
  top: "fire2/expand1x1"
}
layer {
  name: "fire2/expand3x3"
  type: "Convolution"
  bottom: "fire2/squeeze1x1"
  top: "fire2/expand3x3"
  convolution_param {
    num_output: 64
    pad: 1
    kernel_size: 3
    weight_filler {
      type: "xavier"
    }
  }
}
layer {
  name: "fire2/relu_expand3x3"
  type: "ReLU"
  bottom: "fire2/expand3x3"
  top: "fire2/expand3x3"
}
layer {
  name: "fire2/concat"
  type: "Concat"
  bottom: "fire2/expand1x1"
  bottom: "fire2/expand3x3"
  top: "fire2/concat"
}
layer {
  name: "fire3/squeeze1x1"
  type: "Convolution"
  bottom: "fire2/concat"
  top: "fire3/squeeze1x1"
  convolution_param {
    num_output: 16
    kernel_size: 1
    weight_filler {
      type: "xavier"
    }
  }
}
layer {
  name: "fire3/relu_squeeze1x1"
  type: "ReLU"
  bottom: "fire3/squeeze1x1"
  top: "fire3/squeeze1x1"
}
layer {
  name: "fire3/expand1x1"
  type: "Convolution"
  bottom: "fire3/squeeze1x1"
  top: "fire3/expand1x1"
  convolution_param {
    num_output: 64
    kernel_size: 1
    weight_filler {
      type: "xavier"
    }
  }
}
layer {
  name: "fire3/relu_expand1x1"
  type: "ReLU"
  bottom: "fire3/expand1x1"
  top: "fire3/expand1x1"
}
layer {
  name: "fire3/expand3x3"
  type: "Convolution"
  bottom: "fire3/squeeze1x1"
  top: "fire3/expand3x3"
  convolution_param {
    num_output: 64
    pad: 1
    kernel_size: 3
    weight_filler {
      type: "xavier"
    }
  }
}
layer {
  name: "fire3/relu_expand3x3"
  type: "ReLU"
  bottom: "fire3/expand3x3"
  top: "fire3/expand3x3"
}
layer {
  name: "fire3/concat"
  type: "Concat"
  bottom: "fire3/expand1x1"
  bottom: "fire3/expand3x3"
  top: "fire3/concat"
}
layer {
  name: "pool3"
  type: "Pooling"
  bottom: "fire3/concat"
  top: "pool3"
  pooling_param {
    pool: MAX
    kernel_size: 3
    stride: 2
  }
}
layer {
  name: "fire4/squeeze1x1"
  type: "Convolution"
  bottom: "pool3"
  top: "fire4/squeeze1x1"
  convolution_param {
    num_output: 32
    kernel_size: 1
    weight_filler {
      type: "xavier"
    }
  }
}
layer {
  name: "fire4/relu_squeeze1x1"
  type: "ReLU"
  bottom: "fire4/squeeze1x1"
  top: "fire4/squeeze1x1"
}
layer {
  name: "fire4/expand1x1"
  type: "Convolution"
  bottom: "fire4/squeeze1x1"
  top: "fire4/expand1x1"
  convolution_param {
    num_output: 128
    kernel_size: 1
    weight_filler {
      type: "xavier"
    }
  }
}
layer {
  name: "fire4/relu_expand1x1"
  type: "ReLU"
  bottom: "fire4/expand1x1"
  top: "fire4/expand1x1"
}
layer {
  name: "fire4/expand3x3"
  type: "Convolution"
  bottom: "fire4/squeeze1x1"
  top: "fire4/expand3x3"
  convolution_param {
    num_output: 128
    pad: 1
    kernel_size: 3
    weight_filler {
      type: "xavier"
    }
  }
}
layer {
  name: "fire4/relu_expand3x3"
  type: "ReLU"
  bottom: "fire4/expand3x3"
  top: "fire4/expand3x3"
}
layer {
  name: "fire4/concat"
  type: "Concat"
  bottom: "fire4/expand1x1"
  bottom: "fire4/expand3x3"
  top: "fire4/concat"
}
layer {
  name: "fire5/squeeze1x1"
  type: "Convolution"
  bottom: "fire4/concat"
  top: "fire5/squeeze1x1"
  convolution_param {
    num_output: 32
    kernel_size: 1
    weight_filler {
      type: "xavier"
    }
  }
}
layer {
  name: "fire5/relu_squeeze1x1"
  type: "ReLU"
  bottom: "fire5/squeeze1x1"
  top: "fire5/squeeze1x1"
}
layer {
  name: "fire5/expand1x1"
  type: "Convolution"
  bottom: "fire5/squeeze1x1"
  top: "fire5/expand1x1"
  convolution_param {
    num_output: 128
    kernel_size: 1
    weight_filler {
      type: "xavier"
    }
  }
}
layer {
  name: "fire5/relu_expand1x1"
  type: "ReLU"
  bottom: "fire5/expand1x1"
  top: "fire5/expand1x1"
}
layer {
  name: "fire5/expand3x3"
  type: "Convolution"
  bottom: "fire5/squeeze1x1"
  top: "fire5/expand3x3"
  convolution_param {
    num_output: 128
    pad: 1
    kernel_size: 3
    weight_filler {
      type: "xavier"
    }
  }
}
layer {
  name: "fire5/relu_expand3x3"
  type: "ReLU"
  bottom: "fire5/expand3x3"
  top: "fire5/expand3x3"
}
layer {
  name: "fire5/concat"
  type: "Concat"
  bottom: "fire5/expand1x1"
  bottom: "fire5/expand3x3"
  top: "fire5/concat"
}
layer {
  name: "pool5"
  type: "Pooling"
  bottom: "fire5/concat"
  top: "pool5"
  pooling_param {
    pool: MAX
    kernel_size: 3
    stride: 2
  }
}
layer {
  name: "fire6/squeeze1x1"
  type: "Convolution"
  bottom: "pool5"
  top: "fire6/squeeze1x1"
  convolution_param {
    num_output: 48
    kernel_size: 1
    weight_filler {
      type: "xavier"
    }
  }
}
layer {
  name: "fire6/relu_squeeze1x1"
  type: "ReLU"
  bottom: "fire6/squeeze1x1"
  top: "fire6/squeeze1x1"
}
layer {
  name: "fire6/expand1x1"
  type: "Convolution"
  bottom: "fire6/squeeze1x1"
  top: "fire6/expand1x1"
  convolution_param {
    num_output: 192
    kernel_size: 1
    weight_filler {
      type: "xavier"
    }
  }
}
layer {
  name: "fire6/relu_expand1x1"
  type: "ReLU"
  bottom: "fire6/expand1x1"
  top: "fire6/expand1x1"
}
layer {
  name: "fire6/expand3x3"
  type: "Convolution"
  bottom: "fire6/squeeze1x1"
  top: "fire6/expand3x3"
  convolution_param {
    num_output: 192
    pad: 1
    kernel_size: 3
    weight_filler {
      type: "xavier"
    }
  }
}
layer {
  name: "fire6/relu_expand3x3"
  type: "ReLU"
  bottom: "fire6/expand3x3"
  top: "fire6/expand3x3"
}
layer {
  name: "fire6/concat"
  type: "Concat"
  bottom: "fire6/expand1x1"
  bottom: "fire6/expand3x3"
  top: "fire6/concat"
}
layer {
  name: "fire7/squeeze1x1"
  type: "Convolution"
  bottom: "fire6/concat"
  top: "fire7/squeeze1x1"
  convolution_param {
    num_output: 48
    kernel_size: 1
    weight_filler {
      type: "xavier"
    }
  }
}
layer {
  name: "fire7/relu_squeeze1x1"
  type: "ReLU"
  bottom: "fire7/squeeze1x1"
  top: "fire7/squeeze1x1"
}
layer {
  name: "fire7/expand1x1"
  type: "Convolution"
  bottom: "fire7/squeeze1x1"
  top: "fire7/expand1x1"
  convolution_param {
    num_output: 192
    kernel_size: 1
    weight_filler {
      type: "xavier"
    }
  }
}
layer {
  name: "fire7/relu_expand1x1"
  type: "ReLU"
  bottom: "fire7/expand1x1"
  top: "fire7/expand1x1"
}
layer {
  name: "fire7/expand3x3"
  type: "Convolution"
  bottom: "fire7/squeeze1x1"
  top: "fire7/expand3x3"
  convolution_param {
    num_output: 192
    pad: 1
    kernel_size: 3
    weight_filler {
      type: "xavier"
    }
  }
}
layer {
  name: "fire7/relu_expand3x3"
  type: "ReLU"
  bottom: "fire7/expand3x3"
  top: "fire7/expand3x3"
}
layer {
  name: "fire7/concat"
  type: "Concat"
  bottom: "fire7/expand1x1"
  bottom: "fire7/expand3x3"
  top: "fire7/concat"
}
layer {
  name: "fire8/squeeze1x1"
  type: "Convolution"
  bottom: "fire7/concat"
  top: "fire8/squeeze1x1"
  convolution_param {
    num_output: 64
    kernel_size: 1
    weight_filler {
      type: "xavier"
    }
  }
}
layer {
  name: "fire8/relu_squeeze1x1"
  type: "ReLU"
  bottom: "fire8/squeeze1x1"
  top: "fire8/squeeze1x1"
}
layer {
  name: "fire8/expand1x1"
  type: "Convolution"
  bottom: "fire8/squeeze1x1"
  top: "fire8/expand1x1"
  convolution_param {
    num_output: 256
    kernel_size: 1
    weight_filler {
      type: "xavier"
    }
  }
}
layer {
  name: "fire8/relu_expand1x1"
  type: "ReLU"
  bottom: "fire8/expand1x1"
  top: "fire8/expand1x1"
}
layer {
  name: "fire8/expand3x3"
  type: "Convolution"
  bottom: "fire8/squeeze1x1"
  top: "fire8/expand3x3"
  convolution_param {
    num_output: 256
    pad: 1
    kernel_size: 3
    weight_filler {
      type: "xavier"
    }
  }
}
layer {
  name: "fire8/relu_expand3x3"
  type: "ReLU"
  bottom: "fire8/expand3x3"
  top: "fire8/expand3x3"
}
layer {
  name: "fire8/concat"
  type: "Concat"
  bottom: "fire8/expand1x1"
  bottom: "fire8/expand3x3"
  top: "fire8/concat"
}
layer {
  name: "fire9/squeeze1x1"
  type: "Convolution"
  bottom: "fire8/concat"
  top: "fire9/squeeze1x1"
  convolution_param {
    num_output: 64
    kernel_size: 1
    weight_filler {
      type: "xavier"
    }
  }
}
layer {
  name: "fire9/relu_squeeze1x1"
  type: "ReLU"
  bottom: "fire9/squeeze1x1"
  top: "fire9/squeeze1x1"
}
layer {
  name: "fire9/expand1x1"
  type: "Convolution"
  bottom: "fire9/squeeze1x1"
  top: "fire9/expand1x1"
  convolution_param {
    num_output: 256
    kernel_size: 1
    weight_filler {
      type: "xavier"
    }
  }
}
layer {
  name: "fire9/relu_expand1x1"
  type: "ReLU"
  bottom: "fire9/expand1x1"
  top: "fire9/expand1x1"
}
layer {
  name: "fire9/expand3x3"
  type: "Convolution"
  bottom: "fire9/squeeze1x1"
  top: "fire9/expand3x3"
  convolution_param {
    num_output: 256
    pad: 1
    kernel_size: 3
    weight_filler {
      type: "xavier"
    }
  }
}
layer {
  name: "fire9/relu_expand3x3"
  type: "ReLU"
  bottom: "fire9/expand3x3"
  top: "fire9/expand3x3"
}
layer {
  name: "fire9/concat"
  type: "Concat"
  bottom: "fire9/expand1x1"
  bottom: "fire9/expand3x3"
  top: "fire9/concat"
}
layer {
  name: "drop9"
  type: "Dropout"
  bottom: "fire9/concat"
  top: "fire9/concat"
  dropout_param {
    dropout_ratio: 0.5
  }
}
layer {
  name: "conv10-cylinders"
  type: "Convolution"
  bottom: "fire9/concat"
  top: "conv10-cylinders"
  convolution_param {
    num_output: 3
    kernel_size: 1
    weight_filler {
      type: "gaussian"
      mean: 0
      std: 0.01
    }
  }
}
layer {
  name: "relu_conv10"
  type: "ReLU"
  bottom: "conv10-cylinders"
  top: "conv10-cylinders"
}
layer {
  name: "pool10"
  type: "Pooling"
  bottom: "conv10-cylinders"
  top: "pool10"
  pooling_param {
    pool: AVE
    global_pooling: true
  }
}
layer {
  name: "loss"
  type: "SoftmaxWithLoss"
  bottom: "pool10"
  bottom: "label"
  top: "loss"
}
layer {
  name: "accuracy"
  type: "Accuracy"
  bottom: "pool10"
  bottom: "label"
  top: "accuracy"
}
layer {
  name: "accuracy_top5"
  type: "Accuracy"
  bottom: "pool10"
  bottom: "label"
  top: "accuracy_top5"
  accuracy_param {
    top_k: 3
  }
}
I0419 15:46:36.767230  4352 layer_factory.hpp:77] Creating layer data
I0419 15:46:36.767309  4352 db_lmdb.cpp:35] Opened lmdb /home/rui/active_semantic_mapping/Cylinders/dataset_v3/train_lmdb
I0419 15:46:36.767335  4352 net.cpp:84] Creating Layer data
I0419 15:46:36.767340  4352 net.cpp:380] data -> data
I0419 15:46:36.767356  4352 net.cpp:380] data -> label
I0419 15:46:36.767364  4352 data_transformer.cpp:25] Loading mean file from: /home/rui/active_semantic_mapping/Cylinders/dataset_v3/mean.binaryproto
I0419 15:46:36.769517  4352 data_layer.cpp:45] output data size: 32,3,227,227
I0419 15:46:36.806423  4352 net.cpp:122] Setting up data
I0419 15:46:36.806443  4352 net.cpp:129] Top shape: 32 3 227 227 (4946784)
I0419 15:46:36.806447  4352 net.cpp:129] Top shape: 32 (32)
I0419 15:46:36.806448  4352 net.cpp:137] Memory required for data: 19787264
I0419 15:46:36.806457  4352 layer_factory.hpp:77] Creating layer label_data_1_split
I0419 15:46:36.806465  4352 net.cpp:84] Creating Layer label_data_1_split
I0419 15:46:36.806469  4352 net.cpp:406] label_data_1_split <- label
I0419 15:46:36.806478  4352 net.cpp:380] label_data_1_split -> label_data_1_split_0
I0419 15:46:36.806486  4352 net.cpp:380] label_data_1_split -> label_data_1_split_1
I0419 15:46:36.806490  4352 net.cpp:380] label_data_1_split -> label_data_1_split_2
I0419 15:46:36.806568  4352 net.cpp:122] Setting up label_data_1_split
I0419 15:46:36.806573  4352 net.cpp:129] Top shape: 32 (32)
I0419 15:46:36.806576  4352 net.cpp:129] Top shape: 32 (32)
I0419 15:46:36.806578  4352 net.cpp:129] Top shape: 32 (32)
I0419 15:46:36.806579  4352 net.cpp:137] Memory required for data: 19787648
I0419 15:46:36.806581  4352 layer_factory.hpp:77] Creating layer conv1
I0419 15:46:36.806592  4352 net.cpp:84] Creating Layer conv1
I0419 15:46:36.806596  4352 net.cpp:406] conv1 <- data
I0419 15:46:36.806598  4352 net.cpp:380] conv1 -> conv1
I0419 15:46:37.468394  4352 net.cpp:122] Setting up conv1
I0419 15:46:37.468415  4352 net.cpp:129] Top shape: 32 64 113 113 (26150912)
I0419 15:46:37.468417  4352 net.cpp:137] Memory required for data: 124391296
I0419 15:46:37.468433  4352 layer_factory.hpp:77] Creating layer relu_conv1
I0419 15:46:37.468441  4352 net.cpp:84] Creating Layer relu_conv1
I0419 15:46:37.468444  4352 net.cpp:406] relu_conv1 <- conv1
I0419 15:46:37.468447  4352 net.cpp:367] relu_conv1 -> conv1 (in-place)
I0419 15:46:37.468576  4352 net.cpp:122] Setting up relu_conv1
I0419 15:46:37.468585  4352 net.cpp:129] Top shape: 32 64 113 113 (26150912)
I0419 15:46:37.468586  4352 net.cpp:137] Memory required for data: 228994944
I0419 15:46:37.468588  4352 layer_factory.hpp:77] Creating layer pool1
I0419 15:46:37.468595  4352 net.cpp:84] Creating Layer pool1
I0419 15:46:37.468597  4352 net.cpp:406] pool1 <- conv1
I0419 15:46:37.468600  4352 net.cpp:380] pool1 -> pool1
I0419 15:46:37.468636  4352 net.cpp:122] Setting up pool1
I0419 15:46:37.468647  4352 net.cpp:129] Top shape: 32 64 56 56 (6422528)
I0419 15:46:37.468649  4352 net.cpp:137] Memory required for data: 254685056
I0419 15:46:37.468650  4352 layer_factory.hpp:77] Creating layer fire2/squeeze1x1
I0419 15:46:37.468658  4352 net.cpp:84] Creating Layer fire2/squeeze1x1
I0419 15:46:37.468662  4352 net.cpp:406] fire2/squeeze1x1 <- pool1
I0419 15:46:37.468664  4352 net.cpp:380] fire2/squeeze1x1 -> fire2/squeeze1x1
I0419 15:46:37.470557  4352 net.cpp:122] Setting up fire2/squeeze1x1
I0419 15:46:37.470587  4352 net.cpp:129] Top shape: 32 16 56 56 (1605632)
I0419 15:46:37.470593  4352 net.cpp:137] Memory required for data: 261107584
I0419 15:46:37.470613  4352 layer_factory.hpp:77] Creating layer fire2/relu_squeeze1x1
I0419 15:46:37.470626  4352 net.cpp:84] Creating Layer fire2/relu_squeeze1x1
I0419 15:46:37.470634  4352 net.cpp:406] fire2/relu_squeeze1x1 <- fire2/squeeze1x1
I0419 15:46:37.470643  4352 net.cpp:367] fire2/relu_squeeze1x1 -> fire2/squeeze1x1 (in-place)
I0419 15:46:37.471007  4352 net.cpp:122] Setting up fire2/relu_squeeze1x1
I0419 15:46:37.471024  4352 net.cpp:129] Top shape: 32 16 56 56 (1605632)
I0419 15:46:37.471030  4352 net.cpp:137] Memory required for data: 267530112
I0419 15:46:37.471035  4352 layer_factory.hpp:77] Creating layer fire2/squeeze1x1_fire2/relu_squeeze1x1_0_split
I0419 15:46:37.471046  4352 net.cpp:84] Creating Layer fire2/squeeze1x1_fire2/relu_squeeze1x1_0_split
I0419 15:46:37.471081  4352 net.cpp:406] fire2/squeeze1x1_fire2/relu_squeeze1x1_0_split <- fire2/squeeze1x1
I0419 15:46:37.471091  4352 net.cpp:380] fire2/squeeze1x1_fire2/relu_squeeze1x1_0_split -> fire2/squeeze1x1_fire2/relu_squeeze1x1_0_split_0
I0419 15:46:37.471109  4352 net.cpp:380] fire2/squeeze1x1_fire2/relu_squeeze1x1_0_split -> fire2/squeeze1x1_fire2/relu_squeeze1x1_0_split_1
I0419 15:46:37.471192  4352 net.cpp:122] Setting up fire2/squeeze1x1_fire2/relu_squeeze1x1_0_split
I0419 15:46:37.471205  4352 net.cpp:129] Top shape: 32 16 56 56 (1605632)
I0419 15:46:37.471215  4352 net.cpp:129] Top shape: 32 16 56 56 (1605632)
I0419 15:46:37.471220  4352 net.cpp:137] Memory required for data: 280375168
I0419 15:46:37.471225  4352 layer_factory.hpp:77] Creating layer fire2/expand1x1
I0419 15:46:37.471243  4352 net.cpp:84] Creating Layer fire2/expand1x1
I0419 15:46:37.471251  4352 net.cpp:406] fire2/expand1x1 <- fire2/squeeze1x1_fire2/relu_squeeze1x1_0_split_0
I0419 15:46:37.471259  4352 net.cpp:380] fire2/expand1x1 -> fire2/expand1x1
I0419 15:46:37.473752  4352 net.cpp:122] Setting up fire2/expand1x1
I0419 15:46:37.473776  4352 net.cpp:129] Top shape: 32 64 56 56 (6422528)
I0419 15:46:37.473784  4352 net.cpp:137] Memory required for data: 306065280
I0419 15:46:37.473803  4352 layer_factory.hpp:77] Creating layer fire2/relu_expand1x1
I0419 15:46:37.473855  4352 net.cpp:84] Creating Layer fire2/relu_expand1x1
I0419 15:46:37.473865  4352 net.cpp:406] fire2/relu_expand1x1 <- fire2/expand1x1
I0419 15:46:37.473875  4352 net.cpp:367] fire2/relu_expand1x1 -> fire2/expand1x1 (in-place)
I0419 15:46:37.475145  4352 net.cpp:122] Setting up fire2/relu_expand1x1
I0419 15:46:37.475167  4352 net.cpp:129] Top shape: 32 64 56 56 (6422528)
I0419 15:46:37.475174  4352 net.cpp:137] Memory required for data: 331755392
I0419 15:46:37.475179  4352 layer_factory.hpp:77] Creating layer fire2/expand3x3
I0419 15:46:37.475194  4352 net.cpp:84] Creating Layer fire2/expand3x3
I0419 15:46:37.475203  4352 net.cpp:406] fire2/expand3x3 <- fire2/squeeze1x1_fire2/relu_squeeze1x1_0_split_1
I0419 15:46:37.475213  4352 net.cpp:380] fire2/expand3x3 -> fire2/expand3x3
I0419 15:46:37.477649  4352 net.cpp:122] Setting up fire2/expand3x3
I0419 15:46:37.477671  4352 net.cpp:129] Top shape: 32 64 56 56 (6422528)
I0419 15:46:37.477676  4352 net.cpp:137] Memory required for data: 357445504
I0419 15:46:37.477687  4352 layer_factory.hpp:77] Creating layer fire2/relu_expand3x3
I0419 15:46:37.477697  4352 net.cpp:84] Creating Layer fire2/relu_expand3x3
I0419 15:46:37.477704  4352 net.cpp:406] fire2/relu_expand3x3 <- fire2/expand3x3
I0419 15:46:37.477711  4352 net.cpp:367] fire2/relu_expand3x3 -> fire2/expand3x3 (in-place)
I0419 15:46:37.478034  4352 net.cpp:122] Setting up fire2/relu_expand3x3
I0419 15:46:37.478050  4352 net.cpp:129] Top shape: 32 64 56 56 (6422528)
I0419 15:46:37.478055  4352 net.cpp:137] Memory required for data: 383135616
I0419 15:46:37.478060  4352 layer_factory.hpp:77] Creating layer fire2/concat
I0419 15:46:37.478077  4352 net.cpp:84] Creating Layer fire2/concat
I0419 15:46:37.478085  4352 net.cpp:406] fire2/concat <- fire2/expand1x1
I0419 15:46:37.478092  4352 net.cpp:406] fire2/concat <- fire2/expand3x3
I0419 15:46:37.478101  4352 net.cpp:380] fire2/concat -> fire2/concat
I0419 15:46:37.478150  4352 net.cpp:122] Setting up fire2/concat
I0419 15:46:37.478160  4352 net.cpp:129] Top shape: 32 128 56 56 (12845056)
I0419 15:46:37.478166  4352 net.cpp:137] Memory required for data: 434515840
I0419 15:46:37.478171  4352 layer_factory.hpp:77] Creating layer fire3/squeeze1x1
I0419 15:46:37.478183  4352 net.cpp:84] Creating Layer fire3/squeeze1x1
I0419 15:46:37.478190  4352 net.cpp:406] fire3/squeeze1x1 <- fire2/concat
I0419 15:46:37.478199  4352 net.cpp:380] fire3/squeeze1x1 -> fire3/squeeze1x1
I0419 15:46:37.480511  4352 net.cpp:122] Setting up fire3/squeeze1x1
I0419 15:46:37.480535  4352 net.cpp:129] Top shape: 32 16 56 56 (1605632)
I0419 15:46:37.480541  4352 net.cpp:137] Memory required for data: 440938368
I0419 15:46:37.480581  4352 layer_factory.hpp:77] Creating layer fire3/relu_squeeze1x1
I0419 15:46:37.480593  4352 net.cpp:84] Creating Layer fire3/relu_squeeze1x1
I0419 15:46:37.480602  4352 net.cpp:406] fire3/relu_squeeze1x1 <- fire3/squeeze1x1
I0419 15:46:37.480612  4352 net.cpp:367] fire3/relu_squeeze1x1 -> fire3/squeeze1x1 (in-place)
I0419 15:46:37.480947  4352 net.cpp:122] Setting up fire3/relu_squeeze1x1
I0419 15:46:37.480962  4352 net.cpp:129] Top shape: 32 16 56 56 (1605632)
I0419 15:46:37.480967  4352 net.cpp:137] Memory required for data: 447360896
I0419 15:46:37.480972  4352 layer_factory.hpp:77] Creating layer fire3/squeeze1x1_fire3/relu_squeeze1x1_0_split
I0419 15:46:37.480983  4352 net.cpp:84] Creating Layer fire3/squeeze1x1_fire3/relu_squeeze1x1_0_split
I0419 15:46:37.480990  4352 net.cpp:406] fire3/squeeze1x1_fire3/relu_squeeze1x1_0_split <- fire3/squeeze1x1
I0419 15:46:37.480999  4352 net.cpp:380] fire3/squeeze1x1_fire3/relu_squeeze1x1_0_split -> fire3/squeeze1x1_fire3/relu_squeeze1x1_0_split_0
I0419 15:46:37.481012  4352 net.cpp:380] fire3/squeeze1x1_fire3/relu_squeeze1x1_0_split -> fire3/squeeze1x1_fire3/relu_squeeze1x1_0_split_1
I0419 15:46:37.481086  4352 net.cpp:122] Setting up fire3/squeeze1x1_fire3/relu_squeeze1x1_0_split
I0419 15:46:37.481097  4352 net.cpp:129] Top shape: 32 16 56 56 (1605632)
I0419 15:46:37.481106  4352 net.cpp:129] Top shape: 32 16 56 56 (1605632)
I0419 15:46:37.481112  4352 net.cpp:137] Memory required for data: 460205952
I0419 15:46:37.481115  4352 layer_factory.hpp:77] Creating layer fire3/expand1x1
I0419 15:46:37.481137  4352 net.cpp:84] Creating Layer fire3/expand1x1
I0419 15:46:37.481145  4352 net.cpp:406] fire3/expand1x1 <- fire3/squeeze1x1_fire3/relu_squeeze1x1_0_split_0
I0419 15:46:37.481154  4352 net.cpp:380] fire3/expand1x1 -> fire3/expand1x1
I0419 15:46:37.483588  4352 net.cpp:122] Setting up fire3/expand1x1
I0419 15:46:37.483615  4352 net.cpp:129] Top shape: 32 64 56 56 (6422528)
I0419 15:46:37.483620  4352 net.cpp:137] Memory required for data: 485896064
I0419 15:46:37.483631  4352 layer_factory.hpp:77] Creating layer fire3/relu_expand1x1
I0419 15:46:37.483642  4352 net.cpp:84] Creating Layer fire3/relu_expand1x1
I0419 15:46:37.483649  4352 net.cpp:406] fire3/relu_expand1x1 <- fire3/expand1x1
I0419 15:46:37.483660  4352 net.cpp:367] fire3/relu_expand1x1 -> fire3/expand1x1 (in-place)
I0419 15:46:37.483989  4352 net.cpp:122] Setting up fire3/relu_expand1x1
I0419 15:46:37.484004  4352 net.cpp:129] Top shape: 32 64 56 56 (6422528)
I0419 15:46:37.484009  4352 net.cpp:137] Memory required for data: 511586176
I0419 15:46:37.484014  4352 layer_factory.hpp:77] Creating layer fire3/expand3x3
I0419 15:46:37.484030  4352 net.cpp:84] Creating Layer fire3/expand3x3
I0419 15:46:37.484035  4352 net.cpp:406] fire3/expand3x3 <- fire3/squeeze1x1_fire3/relu_squeeze1x1_0_split_1
I0419 15:46:37.484050  4352 net.cpp:380] fire3/expand3x3 -> fire3/expand3x3
I0419 15:46:37.486541  4352 net.cpp:122] Setting up fire3/expand3x3
I0419 15:46:37.486564  4352 net.cpp:129] Top shape: 32 64 56 56 (6422528)
I0419 15:46:37.486569  4352 net.cpp:137] Memory required for data: 537276288
I0419 15:46:37.486579  4352 layer_factory.hpp:77] Creating layer fire3/relu_expand3x3
I0419 15:46:37.486591  4352 net.cpp:84] Creating Layer fire3/relu_expand3x3
I0419 15:46:37.486598  4352 net.cpp:406] fire3/relu_expand3x3 <- fire3/expand3x3
I0419 15:46:37.486608  4352 net.cpp:367] fire3/relu_expand3x3 -> fire3/expand3x3 (in-place)
I0419 15:46:37.486938  4352 net.cpp:122] Setting up fire3/relu_expand3x3
I0419 15:46:37.486955  4352 net.cpp:129] Top shape: 32 64 56 56 (6422528)
I0419 15:46:37.486960  4352 net.cpp:137] Memory required for data: 562966400
I0419 15:46:37.486964  4352 layer_factory.hpp:77] Creating layer fire3/concat
I0419 15:46:37.486974  4352 net.cpp:84] Creating Layer fire3/concat
I0419 15:46:37.486979  4352 net.cpp:406] fire3/concat <- fire3/expand1x1
I0419 15:46:37.486985  4352 net.cpp:406] fire3/concat <- fire3/expand3x3
I0419 15:46:37.486994  4352 net.cpp:380] fire3/concat -> fire3/concat
I0419 15:46:37.487066  4352 net.cpp:122] Setting up fire3/concat
I0419 15:46:37.487077  4352 net.cpp:129] Top shape: 32 128 56 56 (12845056)
I0419 15:46:37.487083  4352 net.cpp:137] Memory required for data: 614346624
I0419 15:46:37.487087  4352 layer_factory.hpp:77] Creating layer pool3
I0419 15:46:37.487098  4352 net.cpp:84] Creating Layer pool3
I0419 15:46:37.487105  4352 net.cpp:406] pool3 <- fire3/concat
I0419 15:46:37.487114  4352 net.cpp:380] pool3 -> pool3
I0419 15:46:37.487182  4352 net.cpp:122] Setting up pool3
I0419 15:46:37.487195  4352 net.cpp:129] Top shape: 32 128 28 28 (3211264)
I0419 15:46:37.487200  4352 net.cpp:137] Memory required for data: 627191680
I0419 15:46:37.487205  4352 layer_factory.hpp:77] Creating layer fire4/squeeze1x1
I0419 15:46:37.487218  4352 net.cpp:84] Creating Layer fire4/squeeze1x1
I0419 15:46:37.487226  4352 net.cpp:406] fire4/squeeze1x1 <- pool3
I0419 15:46:37.487236  4352 net.cpp:380] fire4/squeeze1x1 -> fire4/squeeze1x1
I0419 15:46:37.489910  4352 net.cpp:122] Setting up fire4/squeeze1x1
I0419 15:46:37.489923  4352 net.cpp:129] Top shape: 32 32 28 28 (802816)
I0419 15:46:37.489925  4352 net.cpp:137] Memory required for data: 630402944
I0419 15:46:37.489930  4352 layer_factory.hpp:77] Creating layer fire4/relu_squeeze1x1
I0419 15:46:37.489938  4352 net.cpp:84] Creating Layer fire4/relu_squeeze1x1
I0419 15:46:37.489939  4352 net.cpp:406] fire4/relu_squeeze1x1 <- fire4/squeeze1x1
I0419 15:46:37.489945  4352 net.cpp:367] fire4/relu_squeeze1x1 -> fire4/squeeze1x1 (in-place)
I0419 15:46:37.490095  4352 net.cpp:122] Setting up fire4/relu_squeeze1x1
I0419 15:46:37.490103  4352 net.cpp:129] Top shape: 32 32 28 28 (802816)
I0419 15:46:37.490104  4352 net.cpp:137] Memory required for data: 633614208
I0419 15:46:37.490106  4352 layer_factory.hpp:77] Creating layer fire4/squeeze1x1_fire4/relu_squeeze1x1_0_split
I0419 15:46:37.490111  4352 net.cpp:84] Creating Layer fire4/squeeze1x1_fire4/relu_squeeze1x1_0_split
I0419 15:46:37.490114  4352 net.cpp:406] fire4/squeeze1x1_fire4/relu_squeeze1x1_0_split <- fire4/squeeze1x1
I0419 15:46:37.490118  4352 net.cpp:380] fire4/squeeze1x1_fire4/relu_squeeze1x1_0_split -> fire4/squeeze1x1_fire4/relu_squeeze1x1_0_split_0
I0419 15:46:37.490123  4352 net.cpp:380] fire4/squeeze1x1_fire4/relu_squeeze1x1_0_split -> fire4/squeeze1x1_fire4/relu_squeeze1x1_0_split_1
I0419 15:46:37.490156  4352 net.cpp:122] Setting up fire4/squeeze1x1_fire4/relu_squeeze1x1_0_split
I0419 15:46:37.490160  4352 net.cpp:129] Top shape: 32 32 28 28 (802816)
I0419 15:46:37.490164  4352 net.cpp:129] Top shape: 32 32 28 28 (802816)
I0419 15:46:37.490165  4352 net.cpp:137] Memory required for data: 640036736
I0419 15:46:37.490167  4352 layer_factory.hpp:77] Creating layer fire4/expand1x1
I0419 15:46:37.490173  4352 net.cpp:84] Creating Layer fire4/expand1x1
I0419 15:46:37.490176  4352 net.cpp:406] fire4/expand1x1 <- fire4/squeeze1x1_fire4/relu_squeeze1x1_0_split_0
I0419 15:46:37.490181  4352 net.cpp:380] fire4/expand1x1 -> fire4/expand1x1
I0419 15:46:37.491149  4352 net.cpp:122] Setting up fire4/expand1x1
I0419 15:46:37.491160  4352 net.cpp:129] Top shape: 32 128 28 28 (3211264)
I0419 15:46:37.491163  4352 net.cpp:137] Memory required for data: 652881792
I0419 15:46:37.491170  4352 layer_factory.hpp:77] Creating layer fire4/relu_expand1x1
I0419 15:46:37.491178  4352 net.cpp:84] Creating Layer fire4/relu_expand1x1
I0419 15:46:37.491180  4352 net.cpp:406] fire4/relu_expand1x1 <- fire4/expand1x1
I0419 15:46:37.491183  4352 net.cpp:367] fire4/relu_expand1x1 -> fire4/expand1x1 (in-place)
I0419 15:46:37.491688  4352 net.cpp:122] Setting up fire4/relu_expand1x1
I0419 15:46:37.491698  4352 net.cpp:129] Top shape: 32 128 28 28 (3211264)
I0419 15:46:37.491700  4352 net.cpp:137] Memory required for data: 665726848
I0419 15:46:37.491703  4352 layer_factory.hpp:77] Creating layer fire4/expand3x3
I0419 15:46:37.491709  4352 net.cpp:84] Creating Layer fire4/expand3x3
I0419 15:46:37.491713  4352 net.cpp:406] fire4/expand3x3 <- fire4/squeeze1x1_fire4/relu_squeeze1x1_0_split_1
I0419 15:46:37.491716  4352 net.cpp:380] fire4/expand3x3 -> fire4/expand3x3
I0419 15:46:37.493615  4352 net.cpp:122] Setting up fire4/expand3x3
I0419 15:46:37.493626  4352 net.cpp:129] Top shape: 32 128 28 28 (3211264)
I0419 15:46:37.493628  4352 net.cpp:137] Memory required for data: 678571904
I0419 15:46:37.493633  4352 layer_factory.hpp:77] Creating layer fire4/relu_expand3x3
I0419 15:46:37.493638  4352 net.cpp:84] Creating Layer fire4/relu_expand3x3
I0419 15:46:37.493640  4352 net.cpp:406] fire4/relu_expand3x3 <- fire4/expand3x3
I0419 15:46:37.493644  4352 net.cpp:367] fire4/relu_expand3x3 -> fire4/expand3x3 (in-place)
I0419 15:46:37.493777  4352 net.cpp:122] Setting up fire4/relu_expand3x3
I0419 15:46:37.493784  4352 net.cpp:129] Top shape: 32 128 28 28 (3211264)
I0419 15:46:37.493787  4352 net.cpp:137] Memory required for data: 691416960
I0419 15:46:37.493788  4352 layer_factory.hpp:77] Creating layer fire4/concat
I0419 15:46:37.493791  4352 net.cpp:84] Creating Layer fire4/concat
I0419 15:46:37.493793  4352 net.cpp:406] fire4/concat <- fire4/expand1x1
I0419 15:46:37.493796  4352 net.cpp:406] fire4/concat <- fire4/expand3x3
I0419 15:46:37.493800  4352 net.cpp:380] fire4/concat -> fire4/concat
I0419 15:46:37.493835  4352 net.cpp:122] Setting up fire4/concat
I0419 15:46:37.493844  4352 net.cpp:129] Top shape: 32 256 28 28 (6422528)
I0419 15:46:37.493844  4352 net.cpp:137] Memory required for data: 717107072
I0419 15:46:37.493846  4352 layer_factory.hpp:77] Creating layer fire5/squeeze1x1
I0419 15:46:37.493851  4352 net.cpp:84] Creating Layer fire5/squeeze1x1
I0419 15:46:37.493854  4352 net.cpp:406] fire5/squeeze1x1 <- fire4/concat
I0419 15:46:37.493858  4352 net.cpp:380] fire5/squeeze1x1 -> fire5/squeeze1x1
I0419 15:46:37.494848  4352 net.cpp:122] Setting up fire5/squeeze1x1
I0419 15:46:37.494856  4352 net.cpp:129] Top shape: 32 32 28 28 (802816)
I0419 15:46:37.494859  4352 net.cpp:137] Memory required for data: 720318336
I0419 15:46:37.494864  4352 layer_factory.hpp:77] Creating layer fire5/relu_squeeze1x1
I0419 15:46:37.494868  4352 net.cpp:84] Creating Layer fire5/relu_squeeze1x1
I0419 15:46:37.494873  4352 net.cpp:406] fire5/relu_squeeze1x1 <- fire5/squeeze1x1
I0419 15:46:37.494876  4352 net.cpp:367] fire5/relu_squeeze1x1 -> fire5/squeeze1x1 (in-place)
I0419 15:46:37.495005  4352 net.cpp:122] Setting up fire5/relu_squeeze1x1
I0419 15:46:37.495012  4352 net.cpp:129] Top shape: 32 32 28 28 (802816)
I0419 15:46:37.495014  4352 net.cpp:137] Memory required for data: 723529600
I0419 15:46:37.495016  4352 layer_factory.hpp:77] Creating layer fire5/squeeze1x1_fire5/relu_squeeze1x1_0_split
I0419 15:46:37.495025  4352 net.cpp:84] Creating Layer fire5/squeeze1x1_fire5/relu_squeeze1x1_0_split
I0419 15:46:37.495028  4352 net.cpp:406] fire5/squeeze1x1_fire5/relu_squeeze1x1_0_split <- fire5/squeeze1x1
I0419 15:46:37.495033  4352 net.cpp:380] fire5/squeeze1x1_fire5/relu_squeeze1x1_0_split -> fire5/squeeze1x1_fire5/relu_squeeze1x1_0_split_0
I0419 15:46:37.495036  4352 net.cpp:380] fire5/squeeze1x1_fire5/relu_squeeze1x1_0_split -> fire5/squeeze1x1_fire5/relu_squeeze1x1_0_split_1
I0419 15:46:37.495067  4352 net.cpp:122] Setting up fire5/squeeze1x1_fire5/relu_squeeze1x1_0_split
I0419 15:46:37.495072  4352 net.cpp:129] Top shape: 32 32 28 28 (802816)
I0419 15:46:37.495074  4352 net.cpp:129] Top shape: 32 32 28 28 (802816)
I0419 15:46:37.495076  4352 net.cpp:137] Memory required for data: 729952128
I0419 15:46:37.495079  4352 layer_factory.hpp:77] Creating layer fire5/expand1x1
I0419 15:46:37.495085  4352 net.cpp:84] Creating Layer fire5/expand1x1
I0419 15:46:37.495087  4352 net.cpp:406] fire5/expand1x1 <- fire5/squeeze1x1_fire5/relu_squeeze1x1_0_split_0
I0419 15:46:37.495090  4352 net.cpp:380] fire5/expand1x1 -> fire5/expand1x1
I0419 15:46:37.496048  4352 net.cpp:122] Setting up fire5/expand1x1
I0419 15:46:37.496058  4352 net.cpp:129] Top shape: 32 128 28 28 (3211264)
I0419 15:46:37.496060  4352 net.cpp:137] Memory required for data: 742797184
I0419 15:46:37.496064  4352 layer_factory.hpp:77] Creating layer fire5/relu_expand1x1
I0419 15:46:37.496069  4352 net.cpp:84] Creating Layer fire5/relu_expand1x1
I0419 15:46:37.496080  4352 net.cpp:406] fire5/relu_expand1x1 <- fire5/expand1x1
I0419 15:46:37.496084  4352 net.cpp:367] fire5/relu_expand1x1 -> fire5/expand1x1 (in-place)
I0419 15:46:37.496217  4352 net.cpp:122] Setting up fire5/relu_expand1x1
I0419 15:46:37.496225  4352 net.cpp:129] Top shape: 32 128 28 28 (3211264)
I0419 15:46:37.496227  4352 net.cpp:137] Memory required for data: 755642240
I0419 15:46:37.496228  4352 layer_factory.hpp:77] Creating layer fire5/expand3x3
I0419 15:46:37.496235  4352 net.cpp:84] Creating Layer fire5/expand3x3
I0419 15:46:37.496238  4352 net.cpp:406] fire5/expand3x3 <- fire5/squeeze1x1_fire5/relu_squeeze1x1_0_split_1
I0419 15:46:37.496243  4352 net.cpp:380] fire5/expand3x3 -> fire5/expand3x3
I0419 15:46:37.497350  4352 net.cpp:122] Setting up fire5/expand3x3
I0419 15:46:37.497362  4352 net.cpp:129] Top shape: 32 128 28 28 (3211264)
I0419 15:46:37.497364  4352 net.cpp:137] Memory required for data: 768487296
I0419 15:46:37.497369  4352 layer_factory.hpp:77] Creating layer fire5/relu_expand3x3
I0419 15:46:37.497372  4352 net.cpp:84] Creating Layer fire5/relu_expand3x3
I0419 15:46:37.497375  4352 net.cpp:406] fire5/relu_expand3x3 <- fire5/expand3x3
I0419 15:46:37.497377  4352 net.cpp:367] fire5/relu_expand3x3 -> fire5/expand3x3 (in-place)
I0419 15:46:37.497938  4352 net.cpp:122] Setting up fire5/relu_expand3x3
I0419 15:46:37.497948  4352 net.cpp:129] Top shape: 32 128 28 28 (3211264)
I0419 15:46:37.497951  4352 net.cpp:137] Memory required for data: 781332352
I0419 15:46:37.497952  4352 layer_factory.hpp:77] Creating layer fire5/concat
I0419 15:46:37.497956  4352 net.cpp:84] Creating Layer fire5/concat
I0419 15:46:37.497958  4352 net.cpp:406] fire5/concat <- fire5/expand1x1
I0419 15:46:37.497962  4352 net.cpp:406] fire5/concat <- fire5/expand3x3
I0419 15:46:37.497967  4352 net.cpp:380] fire5/concat -> fire5/concat
I0419 15:46:37.497992  4352 net.cpp:122] Setting up fire5/concat
I0419 15:46:37.497997  4352 net.cpp:129] Top shape: 32 256 28 28 (6422528)
I0419 15:46:37.497998  4352 net.cpp:137] Memory required for data: 807022464
I0419 15:46:37.498000  4352 layer_factory.hpp:77] Creating layer pool5
I0419 15:46:37.498005  4352 net.cpp:84] Creating Layer pool5
I0419 15:46:37.498008  4352 net.cpp:406] pool5 <- fire5/concat
I0419 15:46:37.498011  4352 net.cpp:380] pool5 -> pool5
I0419 15:46:37.498049  4352 net.cpp:122] Setting up pool5
I0419 15:46:37.498054  4352 net.cpp:129] Top shape: 32 256 14 14 (1605632)
I0419 15:46:37.498056  4352 net.cpp:137] Memory required for data: 813444992
I0419 15:46:37.498057  4352 layer_factory.hpp:77] Creating layer fire6/squeeze1x1
I0419 15:46:37.498064  4352 net.cpp:84] Creating Layer fire6/squeeze1x1
I0419 15:46:37.498066  4352 net.cpp:406] fire6/squeeze1x1 <- pool5
I0419 15:46:37.498071  4352 net.cpp:380] fire6/squeeze1x1 -> fire6/squeeze1x1
I0419 15:46:37.499433  4352 net.cpp:122] Setting up fire6/squeeze1x1
I0419 15:46:37.499444  4352 net.cpp:129] Top shape: 32 48 14 14 (301056)
I0419 15:46:37.499445  4352 net.cpp:137] Memory required for data: 814649216
I0419 15:46:37.499449  4352 layer_factory.hpp:77] Creating layer fire6/relu_squeeze1x1
I0419 15:46:37.499454  4352 net.cpp:84] Creating Layer fire6/relu_squeeze1x1
I0419 15:46:37.499459  4352 net.cpp:406] fire6/relu_squeeze1x1 <- fire6/squeeze1x1
I0419 15:46:37.499461  4352 net.cpp:367] fire6/relu_squeeze1x1 -> fire6/squeeze1x1 (in-place)
I0419 15:46:37.499598  4352 net.cpp:122] Setting up fire6/relu_squeeze1x1
I0419 15:46:37.499604  4352 net.cpp:129] Top shape: 32 48 14 14 (301056)
I0419 15:46:37.499606  4352 net.cpp:137] Memory required for data: 815853440
I0419 15:46:37.499608  4352 layer_factory.hpp:77] Creating layer fire6/squeeze1x1_fire6/relu_squeeze1x1_0_split
I0419 15:46:37.499613  4352 net.cpp:84] Creating Layer fire6/squeeze1x1_fire6/relu_squeeze1x1_0_split
I0419 15:46:37.499615  4352 net.cpp:406] fire6/squeeze1x1_fire6/relu_squeeze1x1_0_split <- fire6/squeeze1x1
I0419 15:46:37.499619  4352 net.cpp:380] fire6/squeeze1x1_fire6/relu_squeeze1x1_0_split -> fire6/squeeze1x1_fire6/relu_squeeze1x1_0_split_0
I0419 15:46:37.499635  4352 net.cpp:380] fire6/squeeze1x1_fire6/relu_squeeze1x1_0_split -> fire6/squeeze1x1_fire6/relu_squeeze1x1_0_split_1
I0419 15:46:37.499673  4352 net.cpp:122] Setting up fire6/squeeze1x1_fire6/relu_squeeze1x1_0_split
I0419 15:46:37.499678  4352 net.cpp:129] Top shape: 32 48 14 14 (301056)
I0419 15:46:37.499681  4352 net.cpp:129] Top shape: 32 48 14 14 (301056)
I0419 15:46:37.499683  4352 net.cpp:137] Memory required for data: 818261888
I0419 15:46:37.499685  4352 layer_factory.hpp:77] Creating layer fire6/expand1x1
I0419 15:46:37.499691  4352 net.cpp:84] Creating Layer fire6/expand1x1
I0419 15:46:37.499692  4352 net.cpp:406] fire6/expand1x1 <- fire6/squeeze1x1_fire6/relu_squeeze1x1_0_split_0
I0419 15:46:37.499697  4352 net.cpp:380] fire6/expand1x1 -> fire6/expand1x1
I0419 15:46:37.500704  4352 net.cpp:122] Setting up fire6/expand1x1
I0419 15:46:37.500713  4352 net.cpp:129] Top shape: 32 192 14 14 (1204224)
I0419 15:46:37.500716  4352 net.cpp:137] Memory required for data: 823078784
I0419 15:46:37.500721  4352 layer_factory.hpp:77] Creating layer fire6/relu_expand1x1
I0419 15:46:37.500725  4352 net.cpp:84] Creating Layer fire6/relu_expand1x1
I0419 15:46:37.500727  4352 net.cpp:406] fire6/relu_expand1x1 <- fire6/expand1x1
I0419 15:46:37.500730  4352 net.cpp:367] fire6/relu_expand1x1 -> fire6/expand1x1 (in-place)
I0419 15:46:37.501233  4352 net.cpp:122] Setting up fire6/relu_expand1x1
I0419 15:46:37.501245  4352 net.cpp:129] Top shape: 32 192 14 14 (1204224)
I0419 15:46:37.501246  4352 net.cpp:137] Memory required for data: 827895680
I0419 15:46:37.501248  4352 layer_factory.hpp:77] Creating layer fire6/expand3x3
I0419 15:46:37.501255  4352 net.cpp:84] Creating Layer fire6/expand3x3
I0419 15:46:37.501257  4352 net.cpp:406] fire6/expand3x3 <- fire6/squeeze1x1_fire6/relu_squeeze1x1_0_split_1
I0419 15:46:37.501261  4352 net.cpp:380] fire6/expand3x3 -> fire6/expand3x3
I0419 15:46:37.503620  4352 net.cpp:122] Setting up fire6/expand3x3
I0419 15:46:37.503643  4352 net.cpp:129] Top shape: 32 192 14 14 (1204224)
I0419 15:46:37.503648  4352 net.cpp:137] Memory required for data: 832712576
I0419 15:46:37.503659  4352 layer_factory.hpp:77] Creating layer fire6/relu_expand3x3
I0419 15:46:37.503669  4352 net.cpp:84] Creating Layer fire6/relu_expand3x3
I0419 15:46:37.503675  4352 net.cpp:406] fire6/relu_expand3x3 <- fire6/expand3x3
I0419 15:46:37.503685  4352 net.cpp:367] fire6/relu_expand3x3 -> fire6/expand3x3 (in-place)
I0419 15:46:37.504024  4352 net.cpp:122] Setting up fire6/relu_expand3x3
I0419 15:46:37.504041  4352 net.cpp:129] Top shape: 32 192 14 14 (1204224)
I0419 15:46:37.504045  4352 net.cpp:137] Memory required for data: 837529472
I0419 15:46:37.504050  4352 layer_factory.hpp:77] Creating layer fire6/concat
I0419 15:46:37.504057  4352 net.cpp:84] Creating Layer fire6/concat
I0419 15:46:37.504065  4352 net.cpp:406] fire6/concat <- fire6/expand1x1
I0419 15:46:37.504070  4352 net.cpp:406] fire6/concat <- fire6/expand3x3
I0419 15:46:37.504078  4352 net.cpp:380] fire6/concat -> fire6/concat
I0419 15:46:37.504132  4352 net.cpp:122] Setting up fire6/concat
I0419 15:46:37.504142  4352 net.cpp:129] Top shape: 32 384 14 14 (2408448)
I0419 15:46:37.504148  4352 net.cpp:137] Memory required for data: 847163264
I0419 15:46:37.504151  4352 layer_factory.hpp:77] Creating layer fire7/squeeze1x1
I0419 15:46:37.504164  4352 net.cpp:84] Creating Layer fire7/squeeze1x1
I0419 15:46:37.504170  4352 net.cpp:406] fire7/squeeze1x1 <- fire6/concat
I0419 15:46:37.504179  4352 net.cpp:380] fire7/squeeze1x1 -> fire7/squeeze1x1
I0419 15:46:37.506570  4352 net.cpp:122] Setting up fire7/squeeze1x1
I0419 15:46:37.506592  4352 net.cpp:129] Top shape: 32 48 14 14 (301056)
I0419 15:46:37.506598  4352 net.cpp:137] Memory required for data: 848367488
I0419 15:46:37.506618  4352 layer_factory.hpp:77] Creating layer fire7/relu_squeeze1x1
I0419 15:46:37.506630  4352 net.cpp:84] Creating Layer fire7/relu_squeeze1x1
I0419 15:46:37.506638  4352 net.cpp:406] fire7/relu_squeeze1x1 <- fire7/squeeze1x1
I0419 15:46:37.506664  4352 net.cpp:367] fire7/relu_squeeze1x1 -> fire7/squeeze1x1 (in-place)
I0419 15:46:37.506960  4352 net.cpp:122] Setting up fire7/relu_squeeze1x1
I0419 15:46:37.506974  4352 net.cpp:129] Top shape: 32 48 14 14 (301056)
I0419 15:46:37.506979  4352 net.cpp:137] Memory required for data: 849571712
I0419 15:46:37.506984  4352 layer_factory.hpp:77] Creating layer fire7/squeeze1x1_fire7/relu_squeeze1x1_0_split
I0419 15:46:37.506995  4352 net.cpp:84] Creating Layer fire7/squeeze1x1_fire7/relu_squeeze1x1_0_split
I0419 15:46:37.507002  4352 net.cpp:406] fire7/squeeze1x1_fire7/relu_squeeze1x1_0_split <- fire7/squeeze1x1
I0419 15:46:37.507014  4352 net.cpp:380] fire7/squeeze1x1_fire7/relu_squeeze1x1_0_split -> fire7/squeeze1x1_fire7/relu_squeeze1x1_0_split_0
I0419 15:46:37.507026  4352 net.cpp:380] fire7/squeeze1x1_fire7/relu_squeeze1x1_0_split -> fire7/squeeze1x1_fire7/relu_squeeze1x1_0_split_1
I0419 15:46:37.507097  4352 net.cpp:122] Setting up fire7/squeeze1x1_fire7/relu_squeeze1x1_0_split
I0419 15:46:37.507113  4352 net.cpp:129] Top shape: 32 48 14 14 (301056)
I0419 15:46:37.507120  4352 net.cpp:129] Top shape: 32 48 14 14 (301056)
I0419 15:46:37.507125  4352 net.cpp:137] Memory required for data: 851980160
I0419 15:46:37.507129  4352 layer_factory.hpp:77] Creating layer fire7/expand1x1
I0419 15:46:37.507140  4352 net.cpp:84] Creating Layer fire7/expand1x1
I0419 15:46:37.507146  4352 net.cpp:406] fire7/expand1x1 <- fire7/squeeze1x1_fire7/relu_squeeze1x1_0_split_0
I0419 15:46:37.507155  4352 net.cpp:380] fire7/expand1x1 -> fire7/expand1x1
I0419 15:46:37.509394  4352 net.cpp:122] Setting up fire7/expand1x1
I0419 15:46:37.509414  4352 net.cpp:129] Top shape: 32 192 14 14 (1204224)
I0419 15:46:37.509421  4352 net.cpp:137] Memory required for data: 856797056
I0419 15:46:37.509431  4352 layer_factory.hpp:77] Creating layer fire7/relu_expand1x1
I0419 15:46:37.509441  4352 net.cpp:84] Creating Layer fire7/relu_expand1x1
I0419 15:46:37.509449  4352 net.cpp:406] fire7/relu_expand1x1 <- fire7/expand1x1
I0419 15:46:37.509457  4352 net.cpp:367] fire7/relu_expand1x1 -> fire7/expand1x1 (in-place)
I0419 15:46:37.509758  4352 net.cpp:122] Setting up fire7/relu_expand1x1
I0419 15:46:37.509773  4352 net.cpp:129] Top shape: 32 192 14 14 (1204224)
I0419 15:46:37.509778  4352 net.cpp:137] Memory required for data: 861613952
I0419 15:46:37.509783  4352 layer_factory.hpp:77] Creating layer fire7/expand3x3
I0419 15:46:37.509796  4352 net.cpp:84] Creating Layer fire7/expand3x3
I0419 15:46:37.509802  4352 net.cpp:406] fire7/expand3x3 <- fire7/squeeze1x1_fire7/relu_squeeze1x1_0_split_1
I0419 15:46:37.509822  4352 net.cpp:380] fire7/expand3x3 -> fire7/expand3x3
I0419 15:46:37.513604  4352 net.cpp:122] Setting up fire7/expand3x3
I0419 15:46:37.513625  4352 net.cpp:129] Top shape: 32 192 14 14 (1204224)
I0419 15:46:37.513633  4352 net.cpp:137] Memory required for data: 866430848
I0419 15:46:37.513643  4352 layer_factory.hpp:77] Creating layer fire7/relu_expand3x3
I0419 15:46:37.513651  4352 net.cpp:84] Creating Layer fire7/relu_expand3x3
I0419 15:46:37.513658  4352 net.cpp:406] fire7/relu_expand3x3 <- fire7/expand3x3
I0419 15:46:37.513669  4352 net.cpp:367] fire7/relu_expand3x3 -> fire7/expand3x3 (in-place)
I0419 15:46:37.513983  4352 net.cpp:122] Setting up fire7/relu_expand3x3
I0419 15:46:37.513999  4352 net.cpp:129] Top shape: 32 192 14 14 (1204224)
I0419 15:46:37.514004  4352 net.cpp:137] Memory required for data: 871247744
I0419 15:46:37.514010  4352 layer_factory.hpp:77] Creating layer fire7/concat
I0419 15:46:37.514021  4352 net.cpp:84] Creating Layer fire7/concat
I0419 15:46:37.514027  4352 net.cpp:406] fire7/concat <- fire7/expand1x1
I0419 15:46:37.514034  4352 net.cpp:406] fire7/concat <- fire7/expand3x3
I0419 15:46:37.514044  4352 net.cpp:380] fire7/concat -> fire7/concat
I0419 15:46:37.514093  4352 net.cpp:122] Setting up fire7/concat
I0419 15:46:37.514103  4352 net.cpp:129] Top shape: 32 384 14 14 (2408448)
I0419 15:46:37.514108  4352 net.cpp:137] Memory required for data: 880881536
I0419 15:46:37.514112  4352 layer_factory.hpp:77] Creating layer fire8/squeeze1x1
I0419 15:46:37.514145  4352 net.cpp:84] Creating Layer fire8/squeeze1x1
I0419 15:46:37.514152  4352 net.cpp:406] fire8/squeeze1x1 <- fire7/concat
I0419 15:46:37.514161  4352 net.cpp:380] fire8/squeeze1x1 -> fire8/squeeze1x1
I0419 15:46:37.516465  4352 net.cpp:122] Setting up fire8/squeeze1x1
I0419 15:46:37.516485  4352 net.cpp:129] Top shape: 32 64 14 14 (401408)
I0419 15:46:37.516490  4352 net.cpp:137] Memory required for data: 882487168
I0419 15:46:37.516500  4352 layer_factory.hpp:77] Creating layer fire8/relu_squeeze1x1
I0419 15:46:37.516510  4352 net.cpp:84] Creating Layer fire8/relu_squeeze1x1
I0419 15:46:37.516515  4352 net.cpp:406] fire8/relu_squeeze1x1 <- fire8/squeeze1x1
I0419 15:46:37.516526  4352 net.cpp:367] fire8/relu_squeeze1x1 -> fire8/squeeze1x1 (in-place)
I0419 15:46:37.516801  4352 net.cpp:122] Setting up fire8/relu_squeeze1x1
I0419 15:46:37.516815  4352 net.cpp:129] Top shape: 32 64 14 14 (401408)
I0419 15:46:37.516820  4352 net.cpp:137] Memory required for data: 884092800
I0419 15:46:37.516824  4352 layer_factory.hpp:77] Creating layer fire8/squeeze1x1_fire8/relu_squeeze1x1_0_split
I0419 15:46:37.516834  4352 net.cpp:84] Creating Layer fire8/squeeze1x1_fire8/relu_squeeze1x1_0_split
I0419 15:46:37.516840  4352 net.cpp:406] fire8/squeeze1x1_fire8/relu_squeeze1x1_0_split <- fire8/squeeze1x1
I0419 15:46:37.516849  4352 net.cpp:380] fire8/squeeze1x1_fire8/relu_squeeze1x1_0_split -> fire8/squeeze1x1_fire8/relu_squeeze1x1_0_split_0
I0419 15:46:37.516860  4352 net.cpp:380] fire8/squeeze1x1_fire8/relu_squeeze1x1_0_split -> fire8/squeeze1x1_fire8/relu_squeeze1x1_0_split_1
I0419 15:46:37.516928  4352 net.cpp:122] Setting up fire8/squeeze1x1_fire8/relu_squeeze1x1_0_split
I0419 15:46:37.516937  4352 net.cpp:129] Top shape: 32 64 14 14 (401408)
I0419 15:46:37.516944  4352 net.cpp:129] Top shape: 32 64 14 14 (401408)
I0419 15:46:37.516948  4352 net.cpp:137] Memory required for data: 887304064
I0419 15:46:37.516952  4352 layer_factory.hpp:77] Creating layer fire8/expand1x1
I0419 15:46:37.516964  4352 net.cpp:84] Creating Layer fire8/expand1x1
I0419 15:46:37.516969  4352 net.cpp:406] fire8/expand1x1 <- fire8/squeeze1x1_fire8/relu_squeeze1x1_0_split_0
I0419 15:46:37.516979  4352 net.cpp:380] fire8/expand1x1 -> fire8/expand1x1
I0419 15:46:37.519147  4352 net.cpp:122] Setting up fire8/expand1x1
I0419 15:46:37.519166  4352 net.cpp:129] Top shape: 32 256 14 14 (1605632)
I0419 15:46:37.519170  4352 net.cpp:137] Memory required for data: 893726592
I0419 15:46:37.519179  4352 layer_factory.hpp:77] Creating layer fire8/relu_expand1x1
I0419 15:46:37.519187  4352 net.cpp:84] Creating Layer fire8/relu_expand1x1
I0419 15:46:37.519193  4352 net.cpp:406] fire8/relu_expand1x1 <- fire8/expand1x1
I0419 15:46:37.519203  4352 net.cpp:367] fire8/relu_expand1x1 -> fire8/expand1x1 (in-place)
I0419 15:46:37.520241  4352 net.cpp:122] Setting up fire8/relu_expand1x1
I0419 15:46:37.520258  4352 net.cpp:129] Top shape: 32 256 14 14 (1605632)
I0419 15:46:37.520264  4352 net.cpp:137] Memory required for data: 900149120
I0419 15:46:37.520269  4352 layer_factory.hpp:77] Creating layer fire8/expand3x3
I0419 15:46:37.520283  4352 net.cpp:84] Creating Layer fire8/expand3x3
I0419 15:46:37.520289  4352 net.cpp:406] fire8/expand3x3 <- fire8/squeeze1x1_fire8/relu_squeeze1x1_0_split_1
I0419 15:46:37.520301  4352 net.cpp:380] fire8/expand3x3 -> fire8/expand3x3
I0419 15:46:37.524441  4352 net.cpp:122] Setting up fire8/expand3x3
I0419 15:46:37.524461  4352 net.cpp:129] Top shape: 32 256 14 14 (1605632)
I0419 15:46:37.524464  4352 net.cpp:137] Memory required for data: 906571648
I0419 15:46:37.524473  4352 layer_factory.hpp:77] Creating layer fire8/relu_expand3x3
I0419 15:46:37.524483  4352 net.cpp:84] Creating Layer fire8/relu_expand3x3
I0419 15:46:37.524489  4352 net.cpp:406] fire8/relu_expand3x3 <- fire8/expand3x3
I0419 15:46:37.524499  4352 net.cpp:367] fire8/relu_expand3x3 -> fire8/expand3x3 (in-place)
I0419 15:46:37.524798  4352 net.cpp:122] Setting up fire8/relu_expand3x3
I0419 15:46:37.524811  4352 net.cpp:129] Top shape: 32 256 14 14 (1605632)
I0419 15:46:37.524832  4352 net.cpp:137] Memory required for data: 912994176
I0419 15:46:37.524837  4352 layer_factory.hpp:77] Creating layer fire8/concat
I0419 15:46:37.524847  4352 net.cpp:84] Creating Layer fire8/concat
I0419 15:46:37.524852  4352 net.cpp:406] fire8/concat <- fire8/expand1x1
I0419 15:46:37.524858  4352 net.cpp:406] fire8/concat <- fire8/expand3x3
I0419 15:46:37.524868  4352 net.cpp:380] fire8/concat -> fire8/concat
I0419 15:46:37.524919  4352 net.cpp:122] Setting up fire8/concat
I0419 15:46:37.524930  4352 net.cpp:129] Top shape: 32 512 14 14 (3211264)
I0419 15:46:37.524933  4352 net.cpp:137] Memory required for data: 925839232
I0419 15:46:37.524937  4352 layer_factory.hpp:77] Creating layer fire9/squeeze1x1
I0419 15:46:37.524950  4352 net.cpp:84] Creating Layer fire9/squeeze1x1
I0419 15:46:37.524956  4352 net.cpp:406] fire9/squeeze1x1 <- fire8/concat
I0419 15:46:37.524965  4352 net.cpp:380] fire9/squeeze1x1 -> fire9/squeeze1x1
I0419 15:46:37.527309  4352 net.cpp:122] Setting up fire9/squeeze1x1
I0419 15:46:37.527328  4352 net.cpp:129] Top shape: 32 64 14 14 (401408)
I0419 15:46:37.527331  4352 net.cpp:137] Memory required for data: 927444864
I0419 15:46:37.527340  4352 layer_factory.hpp:77] Creating layer fire9/relu_squeeze1x1
I0419 15:46:37.527365  4352 net.cpp:84] Creating Layer fire9/relu_squeeze1x1
I0419 15:46:37.527371  4352 net.cpp:406] fire9/relu_squeeze1x1 <- fire9/squeeze1x1
I0419 15:46:37.527380  4352 net.cpp:367] fire9/relu_squeeze1x1 -> fire9/squeeze1x1 (in-place)
I0419 15:46:37.527642  4352 net.cpp:122] Setting up fire9/relu_squeeze1x1
I0419 15:46:37.527654  4352 net.cpp:129] Top shape: 32 64 14 14 (401408)
I0419 15:46:37.527658  4352 net.cpp:137] Memory required for data: 929050496
I0419 15:46:37.527662  4352 layer_factory.hpp:77] Creating layer fire9/squeeze1x1_fire9/relu_squeeze1x1_0_split
I0419 15:46:37.527669  4352 net.cpp:84] Creating Layer fire9/squeeze1x1_fire9/relu_squeeze1x1_0_split
I0419 15:46:37.527674  4352 net.cpp:406] fire9/squeeze1x1_fire9/relu_squeeze1x1_0_split <- fire9/squeeze1x1
I0419 15:46:37.527683  4352 net.cpp:380] fire9/squeeze1x1_fire9/relu_squeeze1x1_0_split -> fire9/squeeze1x1_fire9/relu_squeeze1x1_0_split_0
I0419 15:46:37.527693  4352 net.cpp:380] fire9/squeeze1x1_fire9/relu_squeeze1x1_0_split -> fire9/squeeze1x1_fire9/relu_squeeze1x1_0_split_1
I0419 15:46:37.527758  4352 net.cpp:122] Setting up fire9/squeeze1x1_fire9/relu_squeeze1x1_0_split
I0419 15:46:37.527767  4352 net.cpp:129] Top shape: 32 64 14 14 (401408)
I0419 15:46:37.527773  4352 net.cpp:129] Top shape: 32 64 14 14 (401408)
I0419 15:46:37.527777  4352 net.cpp:137] Memory required for data: 932261760
I0419 15:46:37.527781  4352 layer_factory.hpp:77] Creating layer fire9/expand1x1
I0419 15:46:37.527793  4352 net.cpp:84] Creating Layer fire9/expand1x1
I0419 15:46:37.527798  4352 net.cpp:406] fire9/expand1x1 <- fire9/squeeze1x1_fire9/relu_squeeze1x1_0_split_0
I0419 15:46:37.527806  4352 net.cpp:380] fire9/expand1x1 -> fire9/expand1x1
I0419 15:46:37.529927  4352 net.cpp:122] Setting up fire9/expand1x1
I0419 15:46:37.529947  4352 net.cpp:129] Top shape: 32 256 14 14 (1605632)
I0419 15:46:37.529950  4352 net.cpp:137] Memory required for data: 938684288
I0419 15:46:37.529959  4352 layer_factory.hpp:77] Creating layer fire9/relu_expand1x1
I0419 15:46:37.529968  4352 net.cpp:84] Creating Layer fire9/relu_expand1x1
I0419 15:46:37.529974  4352 net.cpp:406] fire9/relu_expand1x1 <- fire9/expand1x1
I0419 15:46:37.529983  4352 net.cpp:367] fire9/relu_expand1x1 -> fire9/expand1x1 (in-place)
I0419 15:46:37.530257  4352 net.cpp:122] Setting up fire9/relu_expand1x1
I0419 15:46:37.530269  4352 net.cpp:129] Top shape: 32 256 14 14 (1605632)
I0419 15:46:37.530273  4352 net.cpp:137] Memory required for data: 945106816
I0419 15:46:37.530277  4352 layer_factory.hpp:77] Creating layer fire9/expand3x3
I0419 15:46:37.530289  4352 net.cpp:84] Creating Layer fire9/expand3x3
I0419 15:46:37.530295  4352 net.cpp:406] fire9/expand3x3 <- fire9/squeeze1x1_fire9/relu_squeeze1x1_0_split_1
I0419 15:46:37.530319  4352 net.cpp:380] fire9/expand3x3 -> fire9/expand3x3
I0419 15:46:37.535378  4352 net.cpp:122] Setting up fire9/expand3x3
I0419 15:46:37.535399  4352 net.cpp:129] Top shape: 32 256 14 14 (1605632)
I0419 15:46:37.535403  4352 net.cpp:137] Memory required for data: 951529344
I0419 15:46:37.535413  4352 layer_factory.hpp:77] Creating layer fire9/relu_expand3x3
I0419 15:46:37.535420  4352 net.cpp:84] Creating Layer fire9/relu_expand3x3
I0419 15:46:37.535425  4352 net.cpp:406] fire9/relu_expand3x3 <- fire9/expand3x3
I0419 15:46:37.535434  4352 net.cpp:367] fire9/relu_expand3x3 -> fire9/expand3x3 (in-place)
I0419 15:46:37.535712  4352 net.cpp:122] Setting up fire9/relu_expand3x3
I0419 15:46:37.535724  4352 net.cpp:129] Top shape: 32 256 14 14 (1605632)
I0419 15:46:37.535728  4352 net.cpp:137] Memory required for data: 957951872
I0419 15:46:37.535732  4352 layer_factory.hpp:77] Creating layer fire9/concat
I0419 15:46:37.535738  4352 net.cpp:84] Creating Layer fire9/concat
I0419 15:46:37.535742  4352 net.cpp:406] fire9/concat <- fire9/expand1x1
I0419 15:46:37.535748  4352 net.cpp:406] fire9/concat <- fire9/expand3x3
I0419 15:46:37.535755  4352 net.cpp:380] fire9/concat -> fire9/concat
I0419 15:46:37.535800  4352 net.cpp:122] Setting up fire9/concat
I0419 15:46:37.535809  4352 net.cpp:129] Top shape: 32 512 14 14 (3211264)
I0419 15:46:37.535814  4352 net.cpp:137] Memory required for data: 970796928
I0419 15:46:37.535817  4352 layer_factory.hpp:77] Creating layer drop9
I0419 15:46:37.535826  4352 net.cpp:84] Creating Layer drop9
I0419 15:46:37.535831  4352 net.cpp:406] drop9 <- fire9/concat
I0419 15:46:37.535837  4352 net.cpp:367] drop9 -> fire9/concat (in-place)
I0419 15:46:37.535878  4352 net.cpp:122] Setting up drop9
I0419 15:46:37.535887  4352 net.cpp:129] Top shape: 32 512 14 14 (3211264)
I0419 15:46:37.535892  4352 net.cpp:137] Memory required for data: 983641984
I0419 15:46:37.535895  4352 layer_factory.hpp:77] Creating layer conv10-cylinders
I0419 15:46:37.535907  4352 net.cpp:84] Creating Layer conv10-cylinders
I0419 15:46:37.535912  4352 net.cpp:406] conv10-cylinders <- fire9/concat
I0419 15:46:37.535922  4352 net.cpp:380] conv10-cylinders -> conv10-cylinders
I0419 15:46:37.537920  4352 net.cpp:122] Setting up conv10-cylinders
I0419 15:46:37.537938  4352 net.cpp:129] Top shape: 32 3 14 14 (18816)
I0419 15:46:37.537943  4352 net.cpp:137] Memory required for data: 983717248
I0419 15:46:37.537952  4352 layer_factory.hpp:77] Creating layer relu_conv10
I0419 15:46:37.537963  4352 net.cpp:84] Creating Layer relu_conv10
I0419 15:46:37.537969  4352 net.cpp:406] relu_conv10 <- conv10-cylinders
I0419 15:46:37.537976  4352 net.cpp:367] relu_conv10 -> conv10-cylinders (in-place)
I0419 15:46:37.538244  4352 net.cpp:122] Setting up relu_conv10
I0419 15:46:37.538267  4352 net.cpp:129] Top shape: 32 3 14 14 (18816)
I0419 15:46:37.538272  4352 net.cpp:137] Memory required for data: 983792512
I0419 15:46:37.538275  4352 layer_factory.hpp:77] Creating layer pool10
I0419 15:46:37.538285  4352 net.cpp:84] Creating Layer pool10
I0419 15:46:37.538290  4352 net.cpp:406] pool10 <- conv10-cylinders
I0419 15:46:37.538298  4352 net.cpp:380] pool10 -> pool10
I0419 15:46:37.539271  4352 net.cpp:122] Setting up pool10
I0419 15:46:37.539288  4352 net.cpp:129] Top shape: 32 3 1 1 (96)
I0419 15:46:37.539293  4352 net.cpp:137] Memory required for data: 983792896
I0419 15:46:37.539296  4352 layer_factory.hpp:77] Creating layer pool10_pool10_0_split
I0419 15:46:37.539305  4352 net.cpp:84] Creating Layer pool10_pool10_0_split
I0419 15:46:37.539311  4352 net.cpp:406] pool10_pool10_0_split <- pool10
I0419 15:46:37.539322  4352 net.cpp:380] pool10_pool10_0_split -> pool10_pool10_0_split_0
I0419 15:46:37.539333  4352 net.cpp:380] pool10_pool10_0_split -> pool10_pool10_0_split_1
I0419 15:46:37.539343  4352 net.cpp:380] pool10_pool10_0_split -> pool10_pool10_0_split_2
I0419 15:46:37.539422  4352 net.cpp:122] Setting up pool10_pool10_0_split
I0419 15:46:37.539429  4352 net.cpp:129] Top shape: 32 3 1 1 (96)
I0419 15:46:37.539434  4352 net.cpp:129] Top shape: 32 3 1 1 (96)
I0419 15:46:37.539455  4352 net.cpp:129] Top shape: 32 3 1 1 (96)
I0419 15:46:37.539460  4352 net.cpp:137] Memory required for data: 983794048
I0419 15:46:37.539464  4352 layer_factory.hpp:77] Creating layer loss
I0419 15:46:37.539471  4352 net.cpp:84] Creating Layer loss
I0419 15:46:37.539476  4352 net.cpp:406] loss <- pool10_pool10_0_split_0
I0419 15:46:37.539482  4352 net.cpp:406] loss <- label_data_1_split_0
I0419 15:46:37.539491  4352 net.cpp:380] loss -> loss
…
I0419 15:46:37.541332  4352 net.cpp:294] The NetState phase (1) differed from the phase (0) specified by a rule in layer data
I0419 15:46:37.541762  4352 net.cpp:51] Initializing net from parameters: 
state {
  phase: TEST
}
layer {
  name: "data"
  type: "Data"
  top: "data"
  top: "label"
  include {
    phase: TEST
  }
  transform_param {
    crop_size: 227
    mean_file: "/home/rui/active_semantic_mapping/Cylinders/dataset_v3/mean.binaryproto"
  }
  data_param {
    source: "/home/rui/active_semantic_mapping/Cylinders/dataset_v3/validation_lmdb"
    batch_size: 25
    backend: LMDB
  }
}
layer {
  name: "conv1"
  type: "Convolution"
  bottom: "data"
  top: "conv1"
  convolution_param {
    num_output: 64
    kernel_size: 3
    stride: 2
    weight_filler {
      type: "xavier"
    }
  }
}
layer {
  name: "relu_conv1"
  type: "ReLU"
  bottom: "conv1"
  top: "conv1"
}
layer {
  name: "pool1"
  type: "Pooling"
  bottom: "conv1"
  top: "pool1"
  pooling_param {
    pool: MAX
    kernel_size: 3
    stride: 2
  }
}
layer {
  name: "fire2/squeeze1x1"
  type: "Convolution"
  bottom: "pool1"
  top: "fire2/squeeze1x1"
  convolution_param {
    num_output: 16
    kernel_size: 1
    weight_filler {
      type: "xavier"
    }
  }
}
layer {
  name: "fire2/relu_squeeze1x1"
  type: "ReLU"
  bottom: "fire2/squeeze1x1"
  top: "fire2/squeeze1x1"
}
layer {
  name: "fire2/expand1x1"
  type: "Convolution"
  bottom: "fire2/squeeze1x1"
  top: "fire2/expand1x1"
  convolution_param {
    num_output: 64
    kernel_size: 1
    weight_filler {
      type: "xavier"
    }
  }
}
layer {
  name: "fire2/relu_expand1x1"
  type: "ReLU"
  bottom: "fire2/expand1x1"
  top: "fire2/expand1x1"
}
layer {
  name: "fire2/expand3x3"
  type: "Convolution"
  bottom: "fire2/squeeze1x1"
  top: "fire2/expand3x3"
  convolution_param {
    num_output: 64
    pad: 1
    kernel_size: 3
    weight_filler {
      type: "xavier"
    }
  }
}
layer {
  name: "fire2/relu_expand3x3"
  type: "ReLU"
  bottom: "fire2/expand3x3"
  top: "fire2/expand3x3"
}
layer {
  name: "fire2/concat"
  type: "Concat"
  bottom: "fire2/expand1x1"
  bottom: "fire2/expand3x3"
  top: "fire2/concat"
}
layer {
  name: "fire3/squeeze1x1"
  type: "Convolution"
  bottom: "fire2/concat"
  top: "fire3/squeeze1x1"
  convolution_param {
    num_output: 16
    kernel_size: 1
    weight_filler {
      type: "xavier"
    }
  }
}
layer {
  name: "fire3/relu_squeeze1x1"
  type: "ReLU"
  bottom: "fire3/squeeze1x1"
  top: "fire3/squeeze1x1"
}
layer {
  name: "fire3/expand1x1"
  type: "Convolution"
  bottom: "fire3/squeeze1x1"
  top: "fire3/expand1x1"
  convolution_param {
    num_output: 64
    kernel_size: 1
    weight_filler {
      type: "xavier"
    }
  }
}
layer {
  name: "fire3/relu_expand1x1"
  type: "ReLU"
  bottom: "fire3/expand1x1"
  top: "fire3/expand1x1"
}
layer {
  name: "fire3/expand3x3"
  type: "Convolution"
  bottom: "fire3/squeeze1x1"
  top: "fire3/expand3x3"
  convolution_param {
    num_output: 64
    pad: 1
    kernel_size: 3
    weight_filler {
      type: "xavier"
    }
  }
}
layer {
  name: "fire3/relu_expand3x3"
  type: "ReLU"
  bottom: "fire3/expand3x3"
  top: "fire3/expand3x3"
}
layer {
  name: "fire3/concat"
  type: "Concat"
  bottom: "fire3/expand1x1"
  bottom: "fire3/expand3x3"
  top: "fire3/concat"
}
layer {
  name: "pool3"
  type: "Pooling"
  bottom: "fire3/concat"
  top: "pool3"
  pooling_param {
    pool: MAX
    kernel_size: 3
    stride: 2
  }
}
layer {
  name: "fire4/squeeze1x1"
  type: "Convolution"
  bottom: "pool3"
  top: "fire4/squeeze1x1"
  convolution_param {
    num_output: 32
    kernel_size: 1
    weight_filler {
      type: "xavier"
    }
  }
}
layer {
  name: "fire4/relu_squeeze1x1"
  type: "ReLU"
  bottom: "fire4/squeeze1x1"
  top: "fire4/squeeze1x1"
}
layer {
  name: "fire4/expand1x1"
  type: "Convolution"
  bottom: "fire4/squeeze1x1"
  top: "fire4/expand1x1"
  convolution_param {
    num_output: 128
    kernel_size: 1
    weight_filler {
      type: "xavier"
    }
  }
}
layer {
  name: "fire4/relu_expand1x1"
  type: "ReLU"
  bottom: "fire4/expand1x1"
  top: "fire4/expand1x1"
}
layer {
  name: "fire4/expand3x3"
  type: "Convolution"
  bottom: "fire4/squeeze1x1"
  top: "fire4/expand3x3"
  convolution_param {
    num_output: 128
    pad: 1
    kernel_size: 3
    weight_filler {
      type: "xavier"
    }
  }
}
layer {
  name: "fire4/relu_expand3x3"
  type: "ReLU"
  bottom: "fire4/expand3x3"
  top: "fire4/expand3x3"
}
layer {
  name: "fire4/concat"
  type: "Concat"
  bottom: "fire4/expand1x1"
  bottom: "fire4/expand3x3"
  top: "fire4/concat"
}
layer {
  name: "fire5/squeeze1x1"
  type: "Convolution"
  bottom: "fire4/concat"
  top: "fire5/squeeze1x1"
  convolution_param {
    num_output: 32
    kernel_size: 1
    weight_filler {
      type: "xavier"
    }
  }
}
layer {
  name: "fire5/relu_squeeze1x1"
  type: "ReLU"
  bottom: "fire5/squeeze1x1"
  top: "fire5/squeeze1x1"
}
layer {
  name: "fire5/expand1x1"
  type: "Convolution"
  bottom: "fire5/squeeze1x1"
  top: "fire5/expand1x1"
  convolution_param {
    num_output: 128
    kernel_size: 1
    weight_filler {
      type: "xavier"
    }
  }
}
layer {
  name: "fire5/relu_expand1x1"
  type: "ReLU"
  bottom: "fire5/expand1x1"
  top: "fire5/expand1x1"
}
layer {
  name: "fire5/expand3x3"
  type: "Convolution"
  bottom: "fire5/squeeze1x1"
  top: "fire5/expand3x3"
  convolution_param {
    num_output: 128
    pad: 1
    kernel_size: 3
    weight_filler {
      type: "xavier"
    }
  }
}
layer {
  name: "fire5/relu_expand3x3"
  type: "ReLU"
  bottom: "fire5/expand3x3"
  top: "fire5/expand3x3"
}
layer {
  name: "fire5/concat"
  type: "Concat"
  bottom: "fire5/expand1x1"
  bottom: "fire5/expand3x3"
  top: "fire5/concat"
}
layer {
  name: "pool5"
  type: "Pooling"
  bottom: "fire5/concat"
  top: "pool5"
  pooling_param {
    pool: MAX
    kernel_size: 3
    stride: 2
  }
}
layer {
  name: "fire6/squeeze1x1"
  type: "Convolution"
  bottom: "pool5"
  top: "fire6/squeeze1x1"
  convolution_param {
    num_output: 48
    kernel_size: 1
    weight_filler {
      type: "xavier"
    }
  }
}
layer {
  name: "fire6/relu_squeeze1x1"
  type: "ReLU"
  bottom: "fire6/squeeze1x1"
  top: "fire6/squeeze1x1"
}
layer {
  name: "fire6/expand1x1"
  type: "Convolution"
  bottom: "fire6/squeeze1x1"
  top: "fire6/expand1x1"
  convolution_param {
    num_output: 192
    kernel_size: 1
    weight_filler {
      type: "xavier"
    }
  }
}
layer {
  name: "fire6/relu_expand1x1"
  type: "ReLU"
  bottom: "fire6/expand1x1"
  top: "fire6/expand1x1"
}
layer {
  name: "fire6/expand3x3"
  type: "Convolution"
  bottom: "fire6/squeeze1x1"
  top: "fire6/expand3x3"
  convolution_param {
    num_output: 192
    pad: 1
    kernel_size: 3
    weight_filler {
      type: "xavier"
    }
  }
}
layer {
  name: "fire6/relu_expand3x3"
  type: "ReLU"
  bottom: "fire6/expand3x3"
  top: "fire6/expand3x3"
}
layer {
  name: "fire6/concat"
  type: "Concat"
  bottom: "fire6/expand1x1"
  bottom: "fire6/expand3x3"
  top: "fire6/concat"
}
layer {
  name: "fire7/squeeze1x1"
  type: "Convolution"
  bottom: "fire6/concat"
  top: "fire7/squeeze1x1"
  convolution_param {
    num_output: 48
    kernel_size: 1
    weight_filler {
      type: "xavier"
    }
  }
}
layer {
  name: "fire7/relu_squeeze1x1"
  type: "ReLU"
  bottom: "fire7/squeeze1x1"
  top: "fire7/squeeze1x1"
}
layer {
  name: "fire7/expand1x1"
  type: "Convolution"
  bottom: "fire7/squeeze1x1"
  top: "fire7/expand1x1"
  convolution_param {
    num_output: 192
    kernel_size: 1
    weight_filler {
      type: "xavier"
    }
  }
}
layer {
  name: "fire7/relu_expand1x1"
  type: "ReLU"
  bottom: "fire7/expand1x1"
  top: "fire7/expand1x1"
}
layer {
  name: "fire7/expand3x3"
  type: "Convolution"
  bottom: "fire7/squeeze1x1"
  top: "fire7/expand3x3"
  convolution_param {
    num_output: 192
    pad: 1
    kernel_size: 3
    weight_filler {
      type: "xavier"
    }
  }
}
layer {
  name: "fire7/relu_expand3x3"
  type: "ReLU"
  bottom: "fire7/expand3x3"
  top: "fire7/expand3x3"
}
layer {
  name: "fire7/concat"
  type: "Concat"
  bottom: "fire7/expand1x1"
  bottom: "fire7/expand3x3"
  top: "fire7/concat"
}
layer {
  name: "fire8/squeeze1x1"
  type: "Convolution"
  bottom: "fire7/concat"
  top: "fire8/squeeze1x1"
  convolution_param {
    num_output: 64
    kernel_size: 1
    weight_filler {
      type: "xavier"
    }
  }
}
layer {
  name: "fire8/relu_squeeze1x1"
  type: "ReLU"
  bottom: "fire8/squeeze1x1"
  top: "fire8/squeeze1x1"
}
layer {
  name: "fire8/expand1x1"
  type: "Convolution"
  bottom: "fire8/squeeze1x1"
  top: "fire8/expand1x1"
  convolution_param {
    num_output: 256
    kernel_size: 1
    weight_filler {
      type: "xavier"
    }
  }
}
layer {
  name: "fire8/relu_expand1x1"
  type: "ReLU"
  bottom: "fire8/expand1x1"
  top: "fire8/expand1x1"
}
layer {
  name: "fire8/expand3x3"
  type: "Convolution"
  bottom: "fire8/squeeze1x1"
  top: "fire8/expand3x3"
  convolution_param {
    num_output: 256
    pad: 1
    kernel_size: 3
    weight_filler {
      type: "xavier"
    }
  }
}
layer {
  name: "fire8/relu_expand3x3"
  type: "ReLU"
  bottom: "fire8/expand3x3"
  top: "fire8/expand3x3"
}
layer {
  name: "fire8/concat"
  type: "Concat"
  bottom: "fire8/expand1x1"
  bottom: "fire8/expand3x3"
  top: "fire8/concat"
}
layer {
  name: "fire9/squeeze1x1"
  type: "Convolution"
  bottom: "fire8/concat"
  top: "fire9/squeeze1x1"
  convolution_param {
    num_output: 64
    kernel_size: 1
    weight_filler {
      type: "xavier"
    }
  }
}
layer {
  name: "fire9/relu_squeeze1x1"
  type: "ReLU"
  bottom: "fire9/squeeze1x1"
  top: "fire9/squeeze1x1"
}
layer {
  name: "fire9/expand1x1"
  type: "Convolution"
  bottom: "fire9/squeeze1x1"
  top: "fire9/expand1x1"
  convolution_param {
    num_output: 256
    kernel_size: 1
    weight_filler {
      type: "xavier"
    }
  }
}
layer {
  name: "fire9/relu_expand1x1"
  type: "ReLU"
  bottom: "fire9/expand1x1"
  top: "fire9/expand1x1"
}
layer {
  name: "fire9/expand3x3"
  type: "Convolution"
  bottom: "fire9/squeeze1x1"
  top: "fire9/expand3x3"
  convolution_param {
    num_output: 256
    pad: 1
    kernel_size: 3
    weight_filler {
      type: "xavier"
    }
  }
}
layer {
  name: "fire9/relu_expand3x3"
  type: "ReLU"
  bottom: "fire9/expand3x3"
  top: "fire9/expand3x3"
}
layer {
  name: "fire9/concat"
  type: "Concat"
  bottom: "fire9/expand1x1"
  bottom: "fire9/expand3x3"
  top: "fire9/concat"
}
layer {
  name: "drop9"
  type: "Dropout"
  bottom: "fire9/concat"
  top: "fire9/concat"
  dropout_param {
    dropout_ratio: 0.5
  }
}
layer {
  name: "conv10-cylinders"
  type: "Convolution"
  bottom: "fire9/concat"
  top: "conv10-cylinders"
  convolution_param {
    num_output: 3
    kernel_size: 1
    weight_filler {
      type: "gaussian"
      mean: 0
      std: 0.01
    }
  }
}
layer {
  name: "relu_conv10"
  type: "ReLU"
  bottom: "conv10-cylinders"
  top: "conv10-cylinders"
}
layer {
  name: "pool10"
  type: "Pooling"
  bottom: "conv10-cylinders"
  top: "pool10"
  pooling_param {
    pool: AVE
    global_pooling: true
  }
}
layer {
  name: "loss"
  type: "SoftmaxWithLoss"
  bottom: "pool10"
  bottom: "label"
  top: "loss"
}
layer {
  name: "accuracy"
  type: "Accuracy"
  bottom: "pool10"
  bottom: "label"
  top: "accuracy"
}
layer {
  name: "accuracy_top5"
  type: "Accuracy"
  bottom: "pool10"
  bottom: "label"
  top: "accuracy_top5"
  accuracy_param {
    top_k: 3
  }
}
I0419 15:46:37.542134  4352 layer_factory.hpp:77] Creating layer data
I0419 15:46:37.542206  4352 db_lmdb.cpp:35] Opened lmdb /home/rui/active_semantic_mapping/Cylinders/dataset_v3/validation_lmdb
I0419 15:46:37.542222  4352 net.cpp:84] Creating Layer data
I0419 15:46:37.542230  4352 net.cpp:380] data -> data
I0419 15:46:37.542240  4352 net.cpp:380] data -> label
I0419 15:46:37.542248  4352 data_transformer.cpp:25] Loading mean file from: /home/rui/active_semantic_mapping/Cylinders/dataset_v3/mean.binaryproto
I0419 15:46:37.544137  4352 data_layer.cpp:45] output data size: 25,3,227,227
I0419 15:46:37.582937  4352 net.cpp:122] Setting up data
I0419 15:46:37.582965  4352 net.cpp:129] Top shape: 25 3 227 227 (3864675)
I0419 15:46:37.582970  4352 net.cpp:129] Top shape: 25 (25)
I0419 15:46:37.582973  4352 net.cpp:137] Memory required for data: 15458800
I0419 15:46:37.582979  4352 layer_factory.hpp:77] Creating layer label_data_1_split
I0419 15:46:37.582991  4352 net.cpp:84] Creating Layer label_data_1_split
I0419 15:46:37.582994  4352 net.cpp:406] label_data_1_split <- label
I0419 15:46:37.583003  4352 net.cpp:380] label_data_1_split -> label_data_1_split_0
I0419 15:46:37.583012  4352 net.cpp:380] label_data_1_split -> label_data_1_split_1
I0419 15:46:37.583021  4352 net.cpp:380] label_data_1_split -> label_data_1_split_2
I0419 15:46:37.583108  4352 net.cpp:122] Setting up label_data_1_split
I0419 15:46:37.583117  4352 net.cpp:129] Top shape: 25 (25)
I0419 15:46:37.583119  4352 net.cpp:129] Top shape: 25 (25)
I0419 15:46:37.583123  4352 net.cpp:129] Top shape: 25 (25)
I0419 15:46:37.583125  4352 net.cpp:137] Memory required for data: 15459100
I0419 15:46:37.583129  4352 layer_factory.hpp:77] Creating layer conv1
I0419 15:46:37.583140  4352 net.cpp:84] Creating Layer conv1
I0419 15:46:37.583145  4352 net.cpp:406] conv1 <- data
I0419 15:46:37.583151  4352 net.cpp:380] conv1 -> conv1
I0419 15:46:37.587328  4352 net.cpp:122] Setting up conv1
I0419 15:46:37.587347  4352 net.cpp:129] Top shape: 25 64 113 113 (20430400)
I0419 15:46:37.587350  4352 net.cpp:137] Memory required for data: 97180700
I0419 15:46:37.587363  4352 layer_factory.hpp:77] Creating layer relu_conv1
I0419 15:46:37.587369  4352 net.cpp:84] Creating Layer relu_conv1
I0419 15:46:37.587373  4352 net.cpp:406] relu_conv1 <- conv1
I0419 15:46:37.587378  4352 net.cpp:367] relu_conv1 -> conv1 (in-place)
I0419 15:46:37.587589  4352 net.cpp:122] Setting up relu_conv1
I0419 15:46:37.587599  4352 net.cpp:129] Top shape: 25 64 113 113 (20430400)
I0419 15:46:37.587602  4352 net.cpp:137] Memory required for data: 178902300
I0419 15:46:37.587604  4352 layer_factory.hpp:77] Creating layer pool1
I0419 15:46:37.587613  4352 net.cpp:84] Creating Layer pool1
I0419 15:46:37.587617  4352 net.cpp:406] pool1 <- conv1
I0419 15:46:37.587622  4352 net.cpp:380] pool1 -> pool1
I0419 15:46:37.587676  4352 net.cpp:122] Setting up pool1
I0419 15:46:37.587682  4352 net.cpp:129] Top shape: 25 64 56 56 (5017600)
I0419 15:46:37.587687  4352 net.cpp:137] Memory required for data: 198972700
I0419 15:46:37.587689  4352 layer_factory.hpp:77] Creating layer fire2/squeeze1x1
I0419 15:46:37.587697  4352 net.cpp:84] Creating Layer fire2/squeeze1x1
I0419 15:46:37.587702  4352 net.cpp:406] fire2/squeeze1x1 <- pool1
I0419 15:46:37.587707  4352 net.cpp:380] fire2/squeeze1x1 -> fire2/squeeze1x1
I0419 15:46:37.589804  4352 net.cpp:122] Setting up fire2/squeeze1x1
I0419 15:46:37.589845  4352 net.cpp:129] Top shape: 25 16 56 56 (1254400)
I0419 15:46:37.589850  4352 net.cpp:137] Memory required for data: 203990300
I0419 15:46:37.589860  4352 layer_factory.hpp:77] Creating layer fire2/relu_squeeze1x1
I0419 15:46:37.589869  4352 net.cpp:84] Creating Layer fire2/relu_squeeze1x1
I0419 15:46:37.589890  4352 net.cpp:406] fire2/relu_squeeze1x1 <- fire2/squeeze1x1
I0419 15:46:37.589896  4352 net.cpp:367] fire2/relu_squeeze1x1 -> fire2/squeeze1x1 (in-place)
I0419 15:46:37.590117  4352 net.cpp:122] Setting up fire2/relu_squeeze1x1
I0419 15:46:37.590127  4352 net.cpp:129] Top shape: 25 16 56 56 (1254400)
I0419 15:46:37.590131  4352 net.cpp:137] Memory required for data: 209007900
I0419 15:46:37.590134  4352 layer_factory.hpp:77] Creating layer fire2/squeeze1x1_fire2/relu_squeeze1x1_0_split
I0419 15:46:37.590140  4352 net.cpp:84] Creating Layer fire2/squeeze1x1_fire2/relu_squeeze1x1_0_split
I0419 15:46:37.590144  4352 net.cpp:406] fire2/squeeze1x1_fire2/relu_squeeze1x1_0_split <- fire2/squeeze1x1
I0419 15:46:37.590149  4352 net.cpp:380] fire2/squeeze1x1_fire2/relu_squeeze1x1_0_split -> fire2/squeeze1x1_fire2/relu_squeeze1x1_0_split_0
I0419 15:46:37.590159  4352 net.cpp:380] fire2/squeeze1x1_fire2/relu_squeeze1x1_0_split -> fire2/squeeze1x1_fire2/relu_squeeze1x1_0_split_1
I0419 15:46:37.590214  4352 net.cpp:122] Setting up fire2/squeeze1x1_fire2/relu_squeeze1x1_0_split
I0419 15:46:37.590220  4352 net.cpp:129] Top shape: 25 16 56 56 (1254400)
I0419 15:46:37.590225  4352 net.cpp:129] Top shape: 25 16 56 56 (1254400)
I0419 15:46:37.590229  4352 net.cpp:137] Memory required for data: 219043100
I0419 15:46:37.590232  4352 layer_factory.hpp:77] Creating layer fire2/expand1x1
I0419 15:46:37.590242  4352 net.cpp:84] Creating Layer fire2/expand1x1
I0419 15:46:37.590246  4352 net.cpp:406] fire2/expand1x1 <- fire2/squeeze1x1_fire2/relu_squeeze1x1_0_split_0
I0419 15:46:37.590251  4352 net.cpp:380] fire2/expand1x1 -> fire2/expand1x1
I0419 15:46:37.591797  4352 net.cpp:122] Setting up fire2/expand1x1
I0419 15:46:37.591814  4352 net.cpp:129] Top shape: 25 64 56 56 (5017600)
I0419 15:46:37.591817  4352 net.cpp:137] Memory required for data: 239113500
I0419 15:46:37.591828  4352 layer_factory.hpp:77] Creating layer fire2/relu_expand1x1
I0419 15:46:37.591836  4352 net.cpp:84] Creating Layer fire2/relu_expand1x1
I0419 15:46:37.591840  4352 net.cpp:406] fire2/relu_expand1x1 <- fire2/expand1x1
I0419 15:46:37.591846  4352 net.cpp:367] fire2/relu_expand1x1 -> fire2/expand1x1 (in-place)
I0419 15:46:37.592671  4352 net.cpp:122] Setting up fire2/relu_expand1x1
I0419 15:46:37.592685  4352 net.cpp:129] Top shape: 25 64 56 56 (5017600)
I0419 15:46:37.592689  4352 net.cpp:137] Memory required for data: 259183900
I0419 15:46:37.592692  4352 layer_factory.hpp:77] Creating layer fire2/expand3x3
I0419 15:46:37.592703  4352 net.cpp:84] Creating Layer fire2/expand3x3
I0419 15:46:37.592707  4352 net.cpp:406] fire2/expand3x3 <- fire2/squeeze1x1_fire2/relu_squeeze1x1_0_split_1
I0419 15:46:37.592715  4352 net.cpp:380] fire2/expand3x3 -> fire2/expand3x3
I0419 15:46:37.593715  4352 net.cpp:122] Setting up fire2/expand3x3
I0419 15:46:37.593727  4352 net.cpp:129] Top shape: 25 64 56 56 (5017600)
I0419 15:46:37.593731  4352 net.cpp:137] Memory required for data: 279254300
I0419 15:46:37.593739  4352 layer_factory.hpp:77] Creating layer fire2/relu_expand3x3
I0419 15:46:37.593744  4352 net.cpp:84] Creating Layer fire2/relu_expand3x3
I0419 15:46:37.593750  4352 net.cpp:406] fire2/relu_expand3x3 <- fire2/expand3x3
I0419 15:46:37.593755  4352 net.cpp:367] fire2/relu_expand3x3 -> fire2/expand3x3 (in-place)
I0419 15:46:37.597681  4352 net.cpp:122] Setting up fire2/relu_expand3x3
I0419 15:46:37.597697  4352 net.cpp:129] Top shape: 25 64 56 56 (5017600)
I0419 15:46:37.597702  4352 net.cpp:137] Memory required for data: 299324700
I0419 15:46:37.597704  4352 layer_factory.hpp:77] Creating layer fire2/concat
I0419 15:46:37.597712  4352 net.cpp:84] Creating Layer fire2/concat
I0419 15:46:37.597717  4352 net.cpp:406] fire2/concat <- fire2/expand1x1
I0419 15:46:37.597723  4352 net.cpp:406] fire2/concat <- fire2/expand3x3
I0419 15:46:37.597728  4352 net.cpp:380] fire2/concat -> fire2/concat
I0419 15:46:37.597766  4352 net.cpp:122] Setting up fire2/concat
I0419 15:46:37.597774  4352 net.cpp:129] Top shape: 25 128 56 56 (10035200)
I0419 15:46:37.597777  4352 net.cpp:137] Memory required for data: 339465500
I0419 15:46:37.597795  4352 layer_factory.hpp:77] Creating layer fire3/squeeze1x1
I0419 15:46:37.597805  4352 net.cpp:84] Creating Layer fire3/squeeze1x1
I0419 15:46:37.597810  4352 net.cpp:406] fire3/squeeze1x1 <- fire2/concat
I0419 15:46:37.597838  4352 net.cpp:380] fire3/squeeze1x1 -> fire3/squeeze1x1
I0419 15:46:37.599364  4352 net.cpp:122] Setting up fire3/squeeze1x1
I0419 15:46:37.599380  4352 net.cpp:129] Top shape: 25 16 56 56 (1254400)
I0419 15:46:37.599383  4352 net.cpp:137] Memory required for data: 344483100
I0419 15:46:37.599395  4352 layer_factory.hpp:77] Creating layer fire3/relu_squeeze1x1
I0419 15:46:37.599401  4352 net.cpp:84] Creating Layer fire3/relu_squeeze1x1
I0419 15:46:37.599406  4352 net.cpp:406] fire3/relu_squeeze1x1 <- fire3/squeeze1x1
I0419 15:46:37.599411  4352 net.cpp:367] fire3/relu_squeeze1x1 -> fire3/squeeze1x1 (in-place)
I0419 15:46:37.599606  4352 net.cpp:122] Setting up fire3/relu_squeeze1x1
I0419 15:46:37.599616  4352 net.cpp:129] Top shape: 25 16 56 56 (1254400)
I0419 15:46:37.599618  4352 net.cpp:137] Memory required for data: 349500700
I0419 15:46:37.599622  4352 layer_factory.hpp:77] Creating layer fire3/squeeze1x1_fire3/relu_squeeze1x1_0_split
I0419 15:46:37.599627  4352 net.cpp:84] Creating Layer fire3/squeeze1x1_fire3/relu_squeeze1x1_0_split
I0419 15:46:37.599629  4352 net.cpp:406] fire3/squeeze1x1_fire3/relu_squeeze1x1_0_split <- fire3/squeeze1x1
I0419 15:46:37.599635  4352 net.cpp:380] fire3/squeeze1x1_fire3/relu_squeeze1x1_0_split -> fire3/squeeze1x1_fire3/relu_squeeze1x1_0_split_0
I0419 15:46:37.599642  4352 net.cpp:380] fire3/squeeze1x1_fire3/relu_squeeze1x1_0_split -> fire3/squeeze1x1_fire3/relu_squeeze1x1_0_split_1
I0419 15:46:37.599689  4352 net.cpp:122] Setting up fire3/squeeze1x1_fire3/relu_squeeze1x1_0_split
I0419 15:46:37.599694  4352 net.cpp:129] Top shape: 25 16 56 56 (1254400)
I0419 15:46:37.599699  4352 net.cpp:129] Top shape: 25 16 56 56 (1254400)
I0419 15:46:37.599701  4352 net.cpp:137] Memory required for data: 359535900
I0419 15:46:37.599704  4352 layer_factory.hpp:77] Creating layer fire3/expand1x1
I0419 15:46:37.599715  4352 net.cpp:84] Creating Layer fire3/expand1x1
I0419 15:46:37.599719  4352 net.cpp:406] fire3/expand1x1 <- fire3/squeeze1x1_fire3/relu_squeeze1x1_0_split_0
I0419 15:46:37.599723  4352 net.cpp:380] fire3/expand1x1 -> fire3/expand1x1
I0419 15:46:37.601192  4352 net.cpp:122] Setting up fire3/expand1x1
I0419 15:46:37.601207  4352 net.cpp:129] Top shape: 25 64 56 56 (5017600)
I0419 15:46:37.601210  4352 net.cpp:137] Memory required for data: 379606300
I0419 15:46:37.601217  4352 layer_factory.hpp:77] Creating layer fire3/relu_expand1x1
I0419 15:46:37.601223  4352 net.cpp:84] Creating Layer fire3/relu_expand1x1
I0419 15:46:37.601227  4352 net.cpp:406] fire3/relu_expand1x1 <- fire3/expand1x1
I0419 15:46:37.601231  4352 net.cpp:367] fire3/relu_expand1x1 -> fire3/expand1x1 (in-place)
I0419 15:46:37.601428  4352 net.cpp:122] Setting up fire3/relu_expand1x1
I0419 15:46:37.601436  4352 net.cpp:129] Top shape: 25 64 56 56 (5017600)
I0419 15:46:37.601439  4352 net.cpp:137] Memory required for data: 399676700
I0419 15:46:37.601441  4352 layer_factory.hpp:77] Creating layer fire3/expand3x3
I0419 15:46:37.601450  4352 net.cpp:84] Creating Layer fire3/expand3x3
I0419 15:46:37.601454  4352 net.cpp:406] fire3/expand3x3 <- fire3/squeeze1x1_fire3/relu_squeeze1x1_0_split_1
I0419 15:46:37.601459  4352 net.cpp:380] fire3/expand3x3 -> fire3/expand3x3
I0419 15:46:37.604512  4352 net.cpp:122] Setting up fire3/expand3x3
I0419 15:46:37.604526  4352 net.cpp:129] Top shape: 25 64 56 56 (5017600)
I0419 15:46:37.604529  4352 net.cpp:137] Memory required for data: 419747100
I0419 15:46:37.604535  4352 layer_factory.hpp:77] Creating layer fire3/relu_expand3x3
I0419 15:46:37.604542  4352 net.cpp:84] Creating Layer fire3/relu_expand3x3
I0419 15:46:37.604544  4352 net.cpp:406] fire3/relu_expand3x3 <- fire3/expand3x3
I0419 15:46:37.604549  4352 net.cpp:367] fire3/relu_expand3x3 -> fire3/expand3x3 (in-place)
I0419 15:46:37.607102  4352 net.cpp:122] Setting up fire3/relu_expand3x3
I0419 15:46:37.607133  4352 net.cpp:129] Top shape: 25 64 56 56 (5017600)
I0419 15:46:37.607136  4352 net.cpp:137] Memory required for data: 439817500
I0419 15:46:37.607141  4352 layer_factory.hpp:77] Creating layer fire3/concat
I0419 15:46:37.607147  4352 net.cpp:84] Creating Layer fire3/concat
I0419 15:46:37.607151  4352 net.cpp:406] fire3/concat <- fire3/expand1x1
I0419 15:46:37.607156  4352 net.cpp:406] fire3/concat <- fire3/expand3x3
I0419 15:46:37.607161  4352 net.cpp:380] fire3/concat -> fire3/concat
I0419 15:46:37.607197  4352 net.cpp:122] Setting up fire3/concat
I0419 15:46:37.607203  4352 net.cpp:129] Top shape: 25 128 56 56 (10035200)
I0419 15:46:37.607206  4352 net.cpp:137] Memory required for data: 479958300
I0419 15:46:37.607208  4352 layer_factory.hpp:77] Creating layer pool3
I0419 15:46:37.607214  4352 net.cpp:84] Creating Layer pool3
I0419 15:46:37.607218  4352 net.cpp:406] pool3 <- fire3/concat
I0419 15:46:37.607223  4352 net.cpp:380] pool3 -> pool3
I0419 15:46:37.607265  4352 net.cpp:122] Setting up pool3
I0419 15:46:37.607272  4352 net.cpp:129] Top shape: 25 128 28 28 (2508800)
I0419 15:46:37.607275  4352 net.cpp:137] Memory required for data: 489993500
I0419 15:46:37.607278  4352 layer_factory.hpp:77] Creating layer fire4/squeeze1x1
I0419 15:46:37.607285  4352 net.cpp:84] Creating Layer fire4/squeeze1x1
I0419 15:46:37.607288  4352 net.cpp:406] fire4/squeeze1x1 <- pool3
I0419 15:46:37.607293  4352 net.cpp:380] fire4/squeeze1x1 -> fire4/squeeze1x1
I0419 15:46:37.608769  4352 net.cpp:122] Setting up fire4/squeeze1x1
I0419 15:46:37.608785  4352 net.cpp:129] Top shape: 25 32 28 28 (627200)
I0419 15:46:37.608788  4352 net.cpp:137] Memory required for data: 492502300
I0419 15:46:37.608795  4352 layer_factory.hpp:77] Creating layer fire4/relu_squeeze1x1
I0419 15:46:37.608803  4352 net.cpp:84] Creating Layer fire4/relu_squeeze1x1
I0419 15:46:37.608805  4352 net.cpp:406] fire4/relu_squeeze1x1 <- fire4/squeeze1x1
I0419 15:46:37.608810  4352 net.cpp:367] fire4/relu_squeeze1x1 -> fire4/squeeze1x1 (in-place)
I0419 15:46:37.609011  4352 net.cpp:122] Setting up fire4/relu_squeeze1x1
I0419 15:46:37.609025  4352 net.cpp:129] Top shape: 25 32 28 28 (627200)
I0419 15:46:37.609028  4352 net.cpp:137] Memory required for data: 495011100
I0419 15:46:37.609031  4352 layer_factory.hpp:77] Creating layer fire4/squeeze1x1_fire4/relu_squeeze1x1_0_split
I0419 15:46:37.609038  4352 net.cpp:84] Creating Layer fire4/squeeze1x1_fire4/relu_squeeze1x1_0_split
I0419 15:46:37.609042  4352 net.cpp:406] fire4/squeeze1x1_fire4/relu_squeeze1x1_0_split <- fire4/squeeze1x1
I0419 15:46:37.609047  4352 net.cpp:380] fire4/squeeze1x1_fire4/relu_squeeze1x1_0_split -> fire4/squeeze1x1_fire4/relu_squeeze1x1_0_split_0
I0419 15:46:37.609055  4352 net.cpp:380] fire4/squeeze1x1_fire4/relu_squeeze1x1_0_split -> fire4/squeeze1x1_fire4/relu_squeeze1x1_0_split_1
I0419 15:46:37.609104  4352 net.cpp:122] Setting up fire4/squeeze1x1_fire4/relu_squeeze1x1_0_split
I0419 15:46:37.609112  4352 net.cpp:129] Top shape: 25 32 28 28 (627200)
I0419 15:46:37.609115  4352 net.cpp:129] Top shape: 25 32 28 28 (627200)
I0419 15:46:37.609117  4352 net.cpp:137] Memory required for data: 500028700
I0419 15:46:37.609120  4352 layer_factory.hpp:77] Creating layer fire4/expand1x1
I0419 15:46:37.609128  4352 net.cpp:84] Creating Layer fire4/expand1x1
I0419 15:46:37.609132  4352 net.cpp:406] fire4/expand1x1 <- fire4/squeeze1x1_fire4/relu_squeeze1x1_0_split_0
I0419 15:46:37.609138  4352 net.cpp:380] fire4/expand1x1 -> fire4/expand1x1
I0419 15:46:37.610712  4352 net.cpp:122] Setting up fire4/expand1x1
I0419 15:46:37.610728  4352 net.cpp:129] Top shape: 25 128 28 28 (2508800)
I0419 15:46:37.610731  4352 net.cpp:137] Memory required for data: 510063900
I0419 15:46:37.610743  4352 layer_factory.hpp:77] Creating layer fire4/relu_expand1x1
I0419 15:46:37.610750  4352 net.cpp:84] Creating Layer fire4/relu_expand1x1
I0419 15:46:37.610755  4352 net.cpp:406] fire4/relu_expand1x1 <- fire4/expand1x1
I0419 15:46:37.610760  4352 net.cpp:367] fire4/relu_expand1x1 -> fire4/expand1x1 (in-place)
I0419 15:46:37.611552  4352 net.cpp:122] Setting up fire4/relu_expand1x1
I0419 15:46:37.611565  4352 net.cpp:129] Top shape: 25 128 28 28 (2508800)
I0419 15:46:37.611568  4352 net.cpp:137] Memory required for data: 520099100
I0419 15:46:37.611572  4352 layer_factory.hpp:77] Creating layer fire4/expand3x3
I0419 15:46:37.611580  4352 net.cpp:84] Creating Layer fire4/expand3x3
I0419 15:46:37.611584  4352 net.cpp:406] fire4/expand3x3 <- fire4/squeeze1x1_fire4/relu_squeeze1x1_0_split_1
I0419 15:46:37.611590  4352 net.cpp:380] fire4/expand3x3 -> fire4/expand3x3
I0419 15:46:37.612751  4352 net.cpp:122] Setting up fire4/expand3x3
I0419 15:46:37.612767  4352 net.cpp:129] Top shape: 25 128 28 28 (2508800)
I0419 15:46:37.612771  4352 net.cpp:137] Memory required for data: 530134300
I0419 15:46:37.612776  4352 layer_factory.hpp:77] Creating layer fire4/relu_expand3x3
I0419 15:46:37.612782  4352 net.cpp:84] Creating Layer fire4/relu_expand3x3
I0419 15:46:37.612784  4352 net.cpp:406] fire4/relu_expand3x3 <- fire4/expand3x3
I0419 15:46:37.612797  4352 net.cpp:367] fire4/relu_expand3x3 -> fire4/expand3x3 (in-place)
I0419 15:46:37.616582  4352 net.cpp:122] Setting up fire4/relu_expand3x3
I0419 15:46:37.616601  4352 net.cpp:129] Top shape: 25 128 28 28 (2508800)
I0419 15:46:37.616605  4352 net.cpp:137] Memory required for data: 540169500
I0419 15:46:37.616608  4352 layer_factory.hpp:77] Creating layer fire4/concat
I0419 15:46:37.616614  4352 net.cpp:84] Creating Layer fire4/concat
I0419 15:46:37.616618  4352 net.cpp:406] fire4/concat <- fire4/expand1x1
I0419 15:46:37.616622  4352 net.cpp:406] fire4/concat <- fire4/expand3x3
I0419 15:46:37.616628  4352 net.cpp:380] fire4/concat -> fire4/concat
I0419 15:46:37.616672  4352 net.cpp:122] Setting up fire4/concat
I0419 15:46:37.616678  4352 net.cpp:129] Top shape: 25 256 28 28 (5017600)
I0419 15:46:37.616680  4352 net.cpp:137] Memory required for data: 560239900
I0419 15:46:37.616683  4352 layer_factory.hpp:77] Creating layer fire5/squeeze1x1
I0419 15:46:37.616693  4352 net.cpp:84] Creating Layer fire5/squeeze1x1
I0419 15:46:37.616696  4352 net.cpp:406] fire5/squeeze1x1 <- fire4/concat
I0419 15:46:37.616703  4352 net.cpp:380] fire5/squeeze1x1 -> fire5/squeeze1x1
I0419 15:46:37.618320  4352 net.cpp:122] Setting up fire5/squeeze1x1
I0419 15:46:37.618338  4352 net.cpp:129] Top shape: 25 32 28 28 (627200)
I0419 15:46:37.618341  4352 net.cpp:137] Memory required for data: 562748700
I0419 15:46:37.618348  4352 layer_factory.hpp:77] Creating layer fire5/relu_squeeze1x1
I0419 15:46:37.618357  4352 net.cpp:84] Creating Layer fire5/relu_squeeze1x1
I0419 15:46:37.618361  4352 net.cpp:406] fire5/relu_squeeze1x1 <- fire5/squeeze1x1
I0419 15:46:37.618367  4352 net.cpp:367] fire5/relu_squeeze1x1 -> fire5/squeeze1x1 (in-place)
I0419 15:46:37.618574  4352 net.cpp:122] Setting up fire5/relu_squeeze1x1
I0419 15:46:37.618583  4352 net.cpp:129] Top shape: 25 32 28 28 (627200)
I0419 15:46:37.618587  4352 net.cpp:137] Memory required for data: 565257500
I0419 15:46:37.618589  4352 layer_factory.hpp:77] Creating layer fire5/squeeze1x1_fire5/relu_squeeze1x1_0_split
I0419 15:46:37.618604  4352 net.cpp:84] Creating Layer fire5/squeeze1x1_fire5/relu_squeeze1x1_0_split
I0419 15:46:37.618608  4352 net.cpp:406] fire5/squeeze1x1_fire5/relu_squeeze1x1_0_split <- fire5/squeeze1x1
I0419 15:46:37.618614  4352 net.cpp:380] fire5/squeeze1x1_fire5/relu_squeeze1x1_0_split -> fire5/squeeze1x1_fire5/relu_squeeze1x1_0_split_0
I0419 15:46:37.618620  4352 net.cpp:380] fire5/squeeze1x1_fire5/relu_squeeze1x1_0_split -> fire5/squeeze1x1_fire5/relu_squeeze1x1_0_split_1
I0419 15:46:37.618671  4352 net.cpp:122] Setting up fire5/squeeze1x1_fire5/relu_squeeze1x1_0_split
I0419 15:46:37.618679  4352 net.cpp:129] Top shape: 25 32 28 28 (627200)
I0419 15:46:37.618681  4352 net.cpp:129] Top shape: 25 32 28 28 (627200)
I0419 15:46:37.618685  4352 net.cpp:137] Memory required for data: 570275100
I0419 15:46:37.618686  4352 layer_factory.hpp:77] Creating layer fire5/expand1x1
I0419 15:46:37.618697  4352 net.cpp:84] Creating Layer fire5/expand1x1
I0419 15:46:37.618716  4352 net.cpp:406] fire5/expand1x1 <- fire5/squeeze1x1_fire5/relu_squeeze1x1_0_split_0
I0419 15:46:37.618721  4352 net.cpp:380] fire5/expand1x1 -> fire5/expand1x1
I0419 15:46:37.620221  4352 net.cpp:122] Setting up fire5/expand1x1
I0419 15:46:37.620236  4352 net.cpp:129] Top shape: 25 128 28 28 (2508800)
I0419 15:46:37.620240  4352 net.cpp:137] Memory required for data: 580310300
I0419 15:46:37.620247  4352 layer_factory.hpp:77] Creating layer fire5/relu_expand1x1
I0419 15:46:37.620254  4352 net.cpp:84] Creating Layer fire5/relu_expand1x1
I0419 15:46:37.620259  4352 net.cpp:406] fire5/relu_expand1x1 <- fire5/expand1x1
I0419 15:46:37.620266  4352 net.cpp:367] fire5/relu_expand1x1 -> fire5/expand1x1 (in-place)
I0419 15:46:37.620476  4352 net.cpp:122] Setting up fire5/relu_expand1x1
I0419 15:46:37.620484  4352 net.cpp:129] Top shape: 25 128 28 28 (2508800)
I0419 15:46:37.620488  4352 net.cpp:137] Memory required for data: 590345500
I0419 15:46:37.620491  4352 layer_factory.hpp:77] Creating layer fire5/expand3x3
I0419 15:46:37.620501  4352 net.cpp:84] Creating Layer fire5/expand3x3
I0419 15:46:37.620506  4352 net.cpp:406] fire5/expand3x3 <- fire5/squeeze1x1_fire5/relu_squeeze1x1_0_split_1
I0419 15:46:37.620512  4352 net.cpp:380] fire5/expand3x3 -> fire5/expand3x3
I0419 15:46:37.623277  4352 net.cpp:122] Setting up fire5/expand3x3
I0419 15:46:37.623291  4352 net.cpp:129] Top shape: 25 128 28 28 (2508800)
I0419 15:46:37.623294  4352 net.cpp:137] Memory required for data: 600380700
I0419 15:46:37.623301  4352 layer_factory.hpp:77] Creating layer fire5/relu_expand3x3
I0419 15:46:37.623307  4352 net.cpp:84] Creating Layer fire5/relu_expand3x3
I0419 15:46:37.623311  4352 net.cpp:406] fire5/relu_expand3x3 <- fire5/expand3x3
I0419 15:46:37.623314  4352 net.cpp:367] fire5/relu_expand3x3 -> fire5/expand3x3 (in-place)
I0419 15:46:37.623507  4352 net.cpp:122] Setting up fire5/relu_expand3x3
I0419 15:46:37.623517  4352 net.cpp:129] Top shape: 25 128 28 28 (2508800)
I0419 15:46:37.623520  4352 net.cpp:137] Memory required for data: 610415900
I0419 15:46:37.623522  4352 layer_factory.hpp:77] Creating layer fire5/concat
I0419 15:46:37.623528  4352 net.cpp:84] Creating Layer fire5/concat
I0419 15:46:37.623531  4352 net.cpp:406] fire5/concat <- fire5/expand1x1
I0419 15:46:37.623535  4352 net.cpp:406] fire5/concat <- fire5/expand3x3
I0419 15:46:37.623540  4352 net.cpp:380] fire5/concat -> fire5/concat
I0419 15:46:37.623575  4352 net.cpp:122] Setting up fire5/concat
I0419 15:46:37.623581  4352 net.cpp:129] Top shape: 25 256 28 28 (5017600)
I0419 15:46:37.623585  4352 net.cpp:137] Memory required for data: 630486300
I0419 15:46:37.623587  4352 layer_factory.hpp:77] Creating layer pool5
I0419 15:46:37.623594  4352 net.cpp:84] Creating Layer pool5
I0419 15:46:37.623598  4352 net.cpp:406] pool5 <- fire5/concat
I0419 15:46:37.623602  4352 net.cpp:380] pool5 -> pool5
I0419 15:46:37.623653  4352 net.cpp:122] Setting up pool5
I0419 15:46:37.623661  4352 net.cpp:129] Top shape: 25 256 14 14 (1254400)
I0419 15:46:37.623664  4352 net.cpp:137] Memory required for data: 635503900
I0419 15:46:37.623667  4352 layer_factory.hpp:77] Creating layer fire6/squeeze1x1
I0419 15:46:37.623674  4352 net.cpp:84] Creating Layer fire6/squeeze1x1
I0419 15:46:37.623678  4352 net.cpp:406] fire6/squeeze1x1 <- pool5
I0419 15:46:37.623683  4352 net.cpp:380] fire6/squeeze1x1 -> fire6/squeeze1x1
I0419 15:46:37.625154  4352 net.cpp:122] Setting up fire6/squeeze1x1
I0419 15:46:37.625167  4352 net.cpp:129] Top shape: 25 48 14 14 (235200)
I0419 15:46:37.625170  4352 net.cpp:137] Memory required for data: 636444700
I0419 15:46:37.625176  4352 layer_factory.hpp:77] Creating layer fire6/relu_squeeze1x1
I0419 15:46:37.625182  4352 net.cpp:84] Creating Layer fire6/relu_squeeze1x1
I0419 15:46:37.625186  4352 net.cpp:406] fire6/relu_squeeze1x1 <- fire6/squeeze1x1
I0419 15:46:37.625192  4352 net.cpp:367] fire6/relu_squeeze1x1 -> fire6/squeeze1x1 (in-place)
I0419 15:46:37.625383  4352 net.cpp:122] Setting up fire6/relu_squeeze1x1
I0419 15:46:37.625404  4352 net.cpp:129] Top shape: 25 48 14 14 (235200)
I0419 15:46:37.625406  4352 net.cpp:137] Memory required for data: 637385500
I0419 15:46:37.625409  4352 layer_factory.hpp:77] Creating layer fire6/squeeze1x1_fire6/relu_squeeze1x1_0_split
I0419 15:46:37.625416  4352 net.cpp:84] Creating Layer fire6/squeeze1x1_fire6/relu_squeeze1x1_0_split
I0419 15:46:37.625421  4352 net.cpp:406] fire6/squeeze1x1_fire6/relu_squeeze1x1_0_split <- fire6/squeeze1x1
I0419 15:46:37.625425  4352 net.cpp:380] fire6/squeeze1x1_fire6/relu_squeeze1x1_0_split -> fire6/squeeze1x1_fire6/relu_squeeze1x1_0_split_0
I0419 15:46:37.625434  4352 net.cpp:380] fire6/squeeze1x1_fire6/relu_squeeze1x1_0_split -> fire6/squeeze1x1_fire6/relu_squeeze1x1_0_split_1
I0419 15:46:37.625489  4352 net.cpp:122] Setting up fire6/squeeze1x1_fire6/relu_squeeze1x1_0_split
I0419 15:46:37.625495  4352 net.cpp:129] Top shape: 25 48 14 14 (235200)
I0419 15:46:37.625499  4352 net.cpp:129] Top shape: 25 48 14 14 (235200)
I0419 15:46:37.625502  4352 net.cpp:137] Memory required for data: 639267100
I0419 15:46:37.625505  4352 layer_factory.hpp:77] Creating layer fire6/expand1x1
I0419 15:46:37.625514  4352 net.cpp:84] Creating Layer fire6/expand1x1
I0419 15:46:37.625517  4352 net.cpp:406] fire6/expand1x1 <- fire6/squeeze1x1_fire6/relu_squeeze1x1_0_split_0
I0419 15:46:37.625522  4352 net.cpp:380] fire6/expand1x1 -> fire6/expand1x1
I0419 15:46:37.626971  4352 net.cpp:122] Setting up fire6/expand1x1
I0419 15:46:37.626984  4352 net.cpp:129] Top shape: 25 192 14 14 (940800)
I0419 15:46:37.626986  4352 net.cpp:137] Memory required for data: 643030300
I0419 15:46:37.626992  4352 layer_factory.hpp:77] Creating layer fire6/relu_expand1x1
I0419 15:46:37.626998  4352 net.cpp:84] Creating Layer fire6/relu_expand1x1
I0419 15:46:37.627002  4352 net.cpp:406] fire6/relu_expand1x1 <- fire6/expand1x1
I0419 15:46:37.627007  4352 net.cpp:367] fire6/relu_expand1x1 -> fire6/expand1x1 (in-place)
I0419 15:46:37.627764  4352 net.cpp:122] Setting up fire6/relu_expand1x1
I0419 15:46:37.627777  4352 net.cpp:129] Top shape: 25 192 14 14 (940800)
I0419 15:46:37.627779  4352 net.cpp:137] Memory required for data: 646793500
I0419 15:46:37.627782  4352 layer_factory.hpp:77] Creating layer fire6/expand3x3
I0419 15:46:37.627794  4352 net.cpp:84] Creating Layer fire6/expand3x3
I0419 15:46:37.627800  4352 net.cpp:406] fire6/expand3x3 <- fire6/squeeze1x1_fire6/relu_squeeze1x1_0_split_1
I0419 15:46:37.627807  4352 net.cpp:380] fire6/expand3x3 -> fire6/expand3x3
I0419 15:46:37.630220  4352 net.cpp:122] Setting up fire6/expand3x3
I0419 15:46:37.630234  4352 net.cpp:129] Top shape: 25 192 14 14 (940800)
I0419 15:46:37.630236  4352 net.cpp:137] Memory required for data: 650556700
I0419 15:46:37.630244  4352 layer_factory.hpp:77] Creating layer fire6/relu_expand3x3
I0419 15:46:37.630249  4352 net.cpp:84] Creating Layer fire6/relu_expand3x3
I0419 15:46:37.630254  4352 net.cpp:406] fire6/relu_expand3x3 <- fire6/expand3x3
I0419 15:46:37.630259  4352 net.cpp:367] fire6/relu_expand3x3 -> fire6/expand3x3 (in-place)
I0419 15:46:37.630964  4352 net.cpp:122] Setting up fire6/relu_expand3x3
I0419 15:46:37.630976  4352 net.cpp:129] Top shape: 25 192 14 14 (940800)
I0419 15:46:37.630980  4352 net.cpp:137] Memory required for data: 654319900
I0419 15:46:37.630982  4352 layer_factory.hpp:77] Creating layer fire6/concat
I0419 15:46:37.630987  4352 net.cpp:84] Creating Layer fire6/concat
I0419 15:46:37.630990  4352 net.cpp:406] fire6/concat <- fire6/expand1x1
I0419 15:46:37.630995  4352 net.cpp:406] fire6/concat <- fire6/expand3x3
I0419 15:46:37.631000  4352 net.cpp:380] fire6/concat -> fire6/concat
I0419 15:46:37.631033  4352 net.cpp:122] Setting up fire6/concat
I0419 15:46:37.631041  4352 net.cpp:129] Top shape: 25 384 14 14 (1881600)
I0419 15:46:37.631042  4352 net.cpp:137] Memory required for data: 661846300
I0419 15:46:37.631044  4352 layer_factory.hpp:77] Creating layer fire7/squeeze1x1
I0419 15:46:37.631053  4352 net.cpp:84] Creating Layer fire7/squeeze1x1
I0419 15:46:37.631057  4352 net.cpp:406] fire7/squeeze1x1 <- fire6/concat
I0419 15:46:37.631075  4352 net.cpp:380] fire7/squeeze1x1 -> fire7/squeeze1x1
I0419 15:46:37.632614  4352 net.cpp:122] Setting up fire7/squeeze1x1
I0419 15:46:37.632627  4352 net.cpp:129] Top shape: 25 48 14 14 (235200)
I0419 15:46:37.632630  4352 net.cpp:137] Memory required for data: 662787100
I0419 15:46:37.632643  4352 layer_factory.hpp:77] Creating layer fire7/relu_squeeze1x1
I0419 15:46:37.632649  4352 net.cpp:84] Creating Layer fire7/relu_squeeze1x1
I0419 15:46:37.632652  4352 net.cpp:406] fire7/relu_squeeze1x1 <- fire7/squeeze1x1
I0419 15:46:37.632658  4352 net.cpp:367] fire7/relu_squeeze1x1 -> fire7/squeeze1x1 (in-place)
I0419 15:46:37.632846  4352 net.cpp:122] Setting up fire7/relu_squeeze1x1
I0419 15:46:37.632855  4352 net.cpp:129] Top shape: 25 48 14 14 (235200)
I0419 15:46:37.632858  4352 net.cpp:137] Memory required for data: 663727900
I0419 15:46:37.632861  4352 layer_factory.hpp:77] Creating layer fire7/squeeze1x1_fire7/relu_squeeze1x1_0_split
I0419 15:46:37.632866  4352 net.cpp:84] Creating Layer fire7/squeeze1x1_fire7/relu_squeeze1x1_0_split
I0419 15:46:37.632870  4352 net.cpp:406] fire7/squeeze1x1_fire7/relu_squeeze1x1_0_split <- fire7/squeeze1x1
I0419 15:46:37.632876  4352 net.cpp:380] fire7/squeeze1x1_fire7/relu_squeeze1x1_0_split -> fire7/squeeze1x1_fire7/relu_squeeze1x1_0_split_0
I0419 15:46:37.632884  4352 net.cpp:380] fire7/squeeze1x1_fire7/relu_squeeze1x1_0_split -> fire7/squeeze1x1_fire7/relu_squeeze1x1_0_split_1
I0419 15:46:37.632935  4352 net.cpp:122] Setting up fire7/squeeze1x1_fire7/relu_squeeze1x1_0_split
I0419 15:46:37.632941  4352 net.cpp:129] Top shape: 25 48 14 14 (235200)
I0419 15:46:37.632946  4352 net.cpp:129] Top shape: 25 48 14 14 (235200)
I0419 15:46:37.632947  4352 net.cpp:137] Memory required for data: 665609500
I0419 15:46:37.632949  4352 layer_factory.hpp:77] Creating layer fire7/expand1x1
I0419 15:46:37.632959  4352 net.cpp:84] Creating Layer fire7/expand1x1
I0419 15:46:37.632963  4352 net.cpp:406] fire7/expand1x1 <- fire7/squeeze1x1_fire7/relu_squeeze1x1_0_split_0
I0419 15:46:37.632968  4352 net.cpp:380] fire7/expand1x1 -> fire7/expand1x1
I0419 15:46:37.634405  4352 net.cpp:122] Setting up fire7/expand1x1
I0419 15:46:37.634418  4352 net.cpp:129] Top shape: 25 192 14 14 (940800)
I0419 15:46:37.634420  4352 net.cpp:137] Memory required for data: 669372700
I0419 15:46:37.634426  4352 layer_factory.hpp:77] Creating layer fire7/relu_expand1x1
I0419 15:46:37.634433  4352 net.cpp:84] Creating Layer fire7/relu_expand1x1
I0419 15:46:37.634438  4352 net.cpp:406] fire7/relu_expand1x1 <- fire7/expand1x1
I0419 15:46:37.634443  4352 net.cpp:367] fire7/relu_expand1x1 -> fire7/expand1x1 (in-place)
I0419 15:46:37.634637  4352 net.cpp:122] Setting up fire7/relu_expand1x1
I0419 15:46:37.634649  4352 net.cpp:129] Top shape: 25 192 14 14 (940800)
I0419 15:46:37.634651  4352 net.cpp:137] Memory required for data: 673135900
I0419 15:46:37.634654  4352 layer_factory.hpp:77] Creating layer fire7/expand3x3
I0419 15:46:37.634661  4352 net.cpp:84] Creating Layer fire7/expand3x3
I0419 15:46:37.634665  4352 net.cpp:406] fire7/expand3x3 <- fire7/squeeze1x1_fire7/relu_squeeze1x1_0_split_1
I0419 15:46:37.634672  4352 net.cpp:380] fire7/expand3x3 -> fire7/expand3x3
I0419 15:46:37.636991  4352 net.cpp:122] Setting up fire7/expand3x3
I0419 15:46:37.637006  4352 net.cpp:129] Top shape: 25 192 14 14 (940800)
I0419 15:46:37.637008  4352 net.cpp:137] Memory required for data: 676899100
I0419 15:46:37.637014  4352 layer_factory.hpp:77] Creating layer fire7/relu_expand3x3
I0419 15:46:37.637019  4352 net.cpp:84] Creating Layer fire7/relu_expand3x3
I0419 15:46:37.637022  4352 net.cpp:406] fire7/relu_expand3x3 <- fire7/expand3x3
I0419 15:46:37.637027  4352 net.cpp:367] fire7/relu_expand3x3 -> fire7/expand3x3 (in-place)
I0419 15:46:37.637223  4352 net.cpp:122] Setting up fire7/relu_expand3x3
I0419 15:46:37.637233  4352 net.cpp:129] Top shape: 25 192 14 14 (940800)
I0419 15:46:37.637236  4352 net.cpp:137] Memory required for data: 680662300
I0419 15:46:37.637238  4352 layer_factory.hpp:77] Creating layer fire7/concat
I0419 15:46:37.637255  4352 net.cpp:84] Creating Layer fire7/concat
I0419 15:46:37.637259  4352 net.cpp:406] fire7/concat <- fire7/expand1x1
I0419 15:46:37.637262  4352 net.cpp:406] fire7/concat <- fire7/expand3x3
I0419 15:46:37.637270  4352 net.cpp:380] fire7/concat -> fire7/concat
I0419 15:46:37.637303  4352 net.cpp:122] Setting up fire7/concat
I0419 15:46:37.637310  4352 net.cpp:129] Top shape: 25 384 14 14 (1881600)
I0419 15:46:37.637313  4352 net.cpp:137] Memory required for data: 688188700
I0419 15:46:37.637315  4352 layer_factory.hpp:77] Creating layer fire8/squeeze1x1
I0419 15:46:37.637323  4352 net.cpp:84] Creating Layer fire8/squeeze1x1
I0419 15:46:37.637327  4352 net.cpp:406] fire8/squeeze1x1 <- fire7/concat
I0419 15:46:37.637332  4352 net.cpp:380] fire8/squeeze1x1 -> fire8/squeeze1x1
I0419 15:46:37.638847  4352 net.cpp:122] Setting up fire8/squeeze1x1
I0419 15:46:37.638860  4352 net.cpp:129] Top shape: 25 64 14 14 (313600)
I0419 15:46:37.638864  4352 net.cpp:137] Memory required for data: 689443100
I0419 15:46:37.638870  4352 layer_factory.hpp:77] Creating layer fire8/relu_squeeze1x1
I0419 15:46:37.638877  4352 net.cpp:84] Creating Layer fire8/relu_squeeze1x1
I0419 15:46:37.638881  4352 net.cpp:406] fire8/relu_squeeze1x1 <- fire8/squeeze1x1
I0419 15:46:37.638886  4352 net.cpp:367] fire8/relu_squeeze1x1 -> fire8/squeeze1x1 (in-place)
I0419 15:46:37.639072  4352 net.cpp:122] Setting up fire8/relu_squeeze1x1
I0419 15:46:37.639081  4352 net.cpp:129] Top shape: 25 64 14 14 (313600)
I0419 15:46:37.639084  4352 net.cpp:137] Memory required for data: 690697500
I0419 15:46:37.639086  4352 layer_factory.hpp:77] Creating layer fire8/squeeze1x1_fire8/relu_squeeze1x1_0_split
I0419 15:46:37.639092  4352 net.cpp:84] Creating Layer fire8/squeeze1x1_fire8/relu_squeeze1x1_0_split
I0419 15:46:37.639096  4352 net.cpp:406] fire8/squeeze1x1_fire8/relu_squeeze1x1_0_split <- fire8/squeeze1x1
I0419 15:46:37.639102  4352 net.cpp:380] fire8/squeeze1x1_fire8/relu_squeeze1x1_0_split -> fire8/squeeze1x1_fire8/relu_squeeze1x1_0_split_0
I0419 15:46:37.639109  4352 net.cpp:380] fire8/squeeze1x1_fire8/relu_squeeze1x1_0_split -> fire8/squeeze1x1_fire8/relu_squeeze1x1_0_split_1
I0419 15:46:37.639158  4352 net.cpp:122] Setting up fire8/squeeze1x1_fire8/relu_squeeze1x1_0_split
I0419 15:46:37.639163  4352 net.cpp:129] Top shape: 25 64 14 14 (313600)
I0419 15:46:37.639168  4352 net.cpp:129] Top shape: 25 64 14 14 (313600)
I0419 15:46:37.639169  4352 net.cpp:137] Memory required for data: 693206300
I0419 15:46:37.639171  4352 layer_factory.hpp:77] Creating layer fire8/expand1x1
I0419 15:46:37.639179  4352 net.cpp:84] Creating Layer fire8/expand1x1
I0419 15:46:37.639183  4352 net.cpp:406] fire8/expand1x1 <- fire8/squeeze1x1_fire8/relu_squeeze1x1_0_split_0
I0419 15:46:37.639188  4352 net.cpp:380] fire8/expand1x1 -> fire8/expand1x1
I0419 15:46:37.640607  4352 net.cpp:122] Setting up fire8/expand1x1
I0419 15:46:37.640621  4352 net.cpp:129] Top shape: 25 256 14 14 (1254400)
I0419 15:46:37.640625  4352 net.cpp:137] Memory required for data: 698223900
I0419 15:46:37.640630  4352 layer_factory.hpp:77] Creating layer fire8/relu_expand1x1
I0419 15:46:37.640636  4352 net.cpp:84] Creating Layer fire8/relu_expand1x1
I0419 15:46:37.640640  4352 net.cpp:406] fire8/relu_expand1x1 <- fire8/expand1x1
I0419 15:46:37.640645  4352 net.cpp:367] fire8/relu_expand1x1 -> fire8/expand1x1 (in-place)
I0419 15:46:37.641327  4352 net.cpp:122] Setting up fire8/relu_expand1x1
I0419 15:46:37.641340  4352 net.cpp:129] Top shape: 25 256 14 14 (1254400)
I0419 15:46:37.641343  4352 net.cpp:137] Memory required for data: 703241500
I0419 15:46:37.641346  4352 layer_factory.hpp:77] Creating layer fire8/expand3x3
I0419 15:46:37.641355  4352 net.cpp:84] Creating Layer fire8/expand3x3
I0419 15:46:37.641358  4352 net.cpp:406] fire8/expand3x3 <- fire8/squeeze1x1_fire8/relu_squeeze1x1_0_split_1
I0419 15:46:37.641365  4352 net.cpp:380] fire8/expand3x3 -> fire8/expand3x3
I0419 15:46:37.644377  4352 net.cpp:122] Setting up fire8/expand3x3
I0419 15:46:37.644392  4352 net.cpp:129] Top shape: 25 256 14 14 (1254400)
I0419 15:46:37.644405  4352 net.cpp:137] Memory required for data: 708259100
I0419 15:46:37.644412  4352 layer_factory.hpp:77] Creating layer fire8/relu_expand3x3
I0419 15:46:37.644418  4352 net.cpp:84] Creating Layer fire8/relu_expand3x3
I0419 15:46:37.644423  4352 net.cpp:406] fire8/relu_expand3x3 <- fire8/expand3x3
I0419 15:46:37.644428  4352 net.cpp:367] fire8/relu_expand3x3 -> fire8/expand3x3 (in-place)
I0419 15:46:37.645113  4352 net.cpp:122] Setting up fire8/relu_expand3x3
I0419 15:46:37.645126  4352 net.cpp:129] Top shape: 25 256 14 14 (1254400)
I0419 15:46:37.645129  4352 net.cpp:137] Memory required for data: 713276700
I0419 15:46:37.645133  4352 layer_factory.hpp:77] Creating layer fire8/concat
I0419 15:46:37.645136  4352 net.cpp:84] Creating Layer fire8/concat
I0419 15:46:37.645143  4352 net.cpp:406] fire8/concat <- fire8/expand1x1
I0419 15:46:37.645146  4352 net.cpp:406] fire8/concat <- fire8/expand3x3
I0419 15:46:37.645151  4352 net.cpp:380] fire8/concat -> fire8/concat
I0419 15:46:37.645187  4352 net.cpp:122] Setting up fire8/concat
I0419 15:46:37.645195  4352 net.cpp:129] Top shape: 25 512 14 14 (2508800)
I0419 15:46:37.645197  4352 net.cpp:137] Memory required for data: 723311900
I0419 15:46:37.645200  4352 layer_factory.hpp:77] Creating layer fire9/squeeze1x1
I0419 15:46:37.645207  4352 net.cpp:84] Creating Layer fire9/squeeze1x1
I0419 15:46:37.645211  4352 net.cpp:406] fire9/squeeze1x1 <- fire8/concat
I0419 15:46:37.645215  4352 net.cpp:380] fire9/squeeze1x1 -> fire9/squeeze1x1
I0419 15:46:37.646831  4352 net.cpp:122] Setting up fire9/squeeze1x1
I0419 15:46:37.646845  4352 net.cpp:129] Top shape: 25 64 14 14 (313600)
I0419 15:46:37.646848  4352 net.cpp:137] Memory required for data: 724566300
I0419 15:46:37.646854  4352 layer_factory.hpp:77] Creating layer fire9/relu_squeeze1x1
I0419 15:46:37.646872  4352 net.cpp:84] Creating Layer fire9/relu_squeeze1x1
I0419 15:46:37.646877  4352 net.cpp:406] fire9/relu_squeeze1x1 <- fire9/squeeze1x1
I0419 15:46:37.646881  4352 net.cpp:367] fire9/relu_squeeze1x1 -> fire9/squeeze1x1 (in-place)
I0419 15:46:37.647063  4352 net.cpp:122] Setting up fire9/relu_squeeze1x1
I0419 15:46:37.647073  4352 net.cpp:129] Top shape: 25 64 14 14 (313600)
I0419 15:46:37.647074  4352 net.cpp:137] Memory required for data: 725820700
I0419 15:46:37.647078  4352 layer_factory.hpp:77] Creating layer fire9/squeeze1x1_fire9/relu_squeeze1x1_0_split
I0419 15:46:37.647083  4352 net.cpp:84] Creating Layer fire9/squeeze1x1_fire9/relu_squeeze1x1_0_split
I0419 15:46:37.647086  4352 net.cpp:406] fire9/squeeze1x1_fire9/relu_squeeze1x1_0_split <- fire9/squeeze1x1
I0419 15:46:37.647091  4352 net.cpp:380] fire9/squeeze1x1_fire9/relu_squeeze1x1_0_split -> fire9/squeeze1x1_fire9/relu_squeeze1x1_0_split_0
I0419 15:46:37.647097  4352 net.cpp:380] fire9/squeeze1x1_fire9/relu_squeeze1x1_0_split -> fire9/squeeze1x1_fire9/relu_squeeze1x1_0_split_1
I0419 15:46:37.647142  4352 net.cpp:122] Setting up fire9/squeeze1x1_fire9/relu_squeeze1x1_0_split
I0419 15:46:37.647156  4352 net.cpp:129] Top shape: 25 64 14 14 (313600)
I0419 15:46:37.647159  4352 net.cpp:129] Top shape: 25 64 14 14 (313600)
I0419 15:46:37.647161  4352 net.cpp:137] Memory required for data: 728329500
I0419 15:46:37.647163  4352 layer_factory.hpp:77] Creating layer fire9/expand1x1
I0419 15:46:37.647171  4352 net.cpp:84] Creating Layer fire9/expand1x1
I0419 15:46:37.647173  4352 net.cpp:406] fire9/expand1x1 <- fire9/squeeze1x1_fire9/relu_squeeze1x1_0_split_0
I0419 15:46:37.647178  4352 net.cpp:380] fire9/expand1x1 -> fire9/expand1x1
I0419 15:46:37.648582  4352 net.cpp:122] Setting up fire9/expand1x1
I0419 15:46:37.648596  4352 net.cpp:129] Top shape: 25 256 14 14 (1254400)
I0419 15:46:37.648598  4352 net.cpp:137] Memory required for data: 733347100
I0419 15:46:37.648603  4352 layer_factory.hpp:77] Creating layer fire9/relu_expand1x1
I0419 15:46:37.648608  4352 net.cpp:84] Creating Layer fire9/relu_expand1x1
I0419 15:46:37.648612  4352 net.cpp:406] fire9/relu_expand1x1 <- fire9/expand1x1
I0419 15:46:37.648615  4352 net.cpp:367] fire9/relu_expand1x1 -> fire9/expand1x1 (in-place)
I0419 15:46:37.648811  4352 net.cpp:122] Setting up fire9/relu_expand1x1
I0419 15:46:37.648821  4352 net.cpp:129] Top shape: 25 256 14 14 (1254400)
I0419 15:46:37.648824  4352 net.cpp:137] Memory required for data: 738364700
I0419 15:46:37.648826  4352 layer_factory.hpp:77] Creating layer fire9/expand3x3
I0419 15:46:37.648834  4352 net.cpp:84] Creating Layer fire9/expand3x3
I0419 15:46:37.648838  4352 net.cpp:406] fire9/expand3x3 <- fire9/squeeze1x1_fire9/relu_squeeze1x1_0_split_1
I0419 15:46:37.648844  4352 net.cpp:380] fire9/expand3x3 -> fire9/expand3x3
I0419 15:46:37.651465  4352 net.cpp:122] Setting up fire9/expand3x3
I0419 15:46:37.651477  4352 net.cpp:129] Top shape: 25 256 14 14 (1254400)
I0419 15:46:37.651480  4352 net.cpp:137] Memory required for data: 743382300
I0419 15:46:37.651486  4352 layer_factory.hpp:77] Creating layer fire9/relu_expand3x3
I0419 15:46:37.651490  4352 net.cpp:84] Creating Layer fire9/relu_expand3x3
I0419 15:46:37.651494  4352 net.cpp:406] fire9/relu_expand3x3 <- fire9/expand3x3
I0419 15:46:37.651499  4352 net.cpp:367] fire9/relu_expand3x3 -> fire9/expand3x3 (in-place)
I0419 15:46:37.651690  4352 net.cpp:122] Setting up fire9/relu_expand3x3
I0419 15:46:37.651700  4352 net.cpp:129] Top shape: 25 256 14 14 (1254400)
I0419 15:46:37.651702  4352 net.cpp:137] Memory required for data: 748399900
I0419 15:46:37.651705  4352 layer_factory.hpp:77] Creating layer fire9/concat
I0419 15:46:37.651710  4352 net.cpp:84] Creating Layer fire9/concat
I0419 15:46:37.651712  4352 net.cpp:406] fire9/concat <- fire9/expand1x1
I0419 15:46:37.651716  4352 net.cpp:406] fire9/concat <- fire9/expand3x3
I0419 15:46:37.651721  4352 net.cpp:380] fire9/concat -> fire9/concat
I0419 15:46:37.651753  4352 net.cpp:122] Setting up fire9/concat
I0419 15:46:37.651759  4352 net.cpp:129] Top shape: 25 512 14 14 (2508800)
I0419 15:46:37.651762  4352 net.cpp:137] Memory required for data: 758435100
I0419 15:46:37.651764  4352 layer_factory.hpp:77] Creating layer drop9
I0419 15:46:37.651769  4352 net.cpp:84] Creating Layer drop9
I0419 15:46:37.651772  4352 net.cpp:406] drop9 <- fire9/concat
I0419 15:46:37.651777  4352 net.cpp:367] drop9 -> fire9/concat (in-place)
I0419 15:46:37.651803  4352 net.cpp:122] Setting up drop9
I0419 15:46:37.651809  4352 net.cpp:129] Top shape: 25 512 14 14 (2508800)
I0419 15:46:37.651811  4352 net.cpp:137] Memory required for data: 768470300
I0419 15:46:37.651813  4352 layer_factory.hpp:77] Creating layer conv10-cylinders
I0419 15:46:37.651819  4352 net.cpp:84] Creating Layer conv10-cylinders
I0419 15:46:37.651823  4352 net.cpp:406] conv10-cylinders <- fire9/concat
I0419 15:46:37.651829  4352 net.cpp:380] conv10-cylinders -> conv10-cylinders
I0419 15:46:37.653170  4352 net.cpp:122] Setting up conv10-cylinders
I0419 15:46:37.653182  4352 net.cpp:129] Top shape: 25 3 14 14 (14700)
I0419 15:46:37.653184  4352 net.cpp:137] Memory required for data: 768529100
I0419 15:46:37.653190  4352 layer_factory.hpp:77] Creating layer relu_conv10
I0419 15:46:37.653195  4352 net.cpp:84] Creating Layer relu_conv10
I0419 15:46:37.653198  4352 net.cpp:406] relu_conv10 <- conv10-cylinders
I0419 15:46:37.653203  4352 net.cpp:367] relu_conv10 -> conv10-cylinders (in-place)
I0419 15:46:37.653383  4352 net.cpp:122] Setting up relu_conv10
I0419 15:46:37.653391  4352 net.cpp:129] Top shape: 25 3 14 14 (14700)
I0419 15:46:37.653393  4352 net.cpp:137] Memory required for data: 768587900
I0419 15:46:37.653395  4352 layer_factory.hpp:77] Creating layer pool10
I0419 15:46:37.653401  4352 net.cpp:84] Creating Layer pool10
I0419 15:46:37.653405  4352 net.cpp:406] pool10 <- conv10-cylinders
I0419 15:46:37.653411  4352 net.cpp:380] pool10 -> pool10
I0419 15:46:37.654114  4352 net.cpp:122] Setting up pool10
I0419 15:46:37.654125  4352 net.cpp:129] Top shape: 25 3 1 1 (75)
I0419 15:46:37.654127  4352 net.cpp:137] Memory required for data: 768588200
I0419 15:46:37.654130  4352 layer_factory.hpp:77] Creating layer pool10_pool10_0_split
I0419 15:46:37.654136  4352 net.cpp:84] Creating Layer pool10_pool10_0_split
I0419 15:46:37.654150  4352 net.cpp:406] pool10_pool10_0_split <- pool10
I0419 15:46:37.654155  4352 net.cpp:380] pool10_pool10_0_split -> pool10_pool10_0_split_0
I0419 15:46:37.654162  4352 net.cpp:380] pool10_pool10_0_split -> pool10_pool10_0_split_1
I0419 15:46:37.654167  4352 net.cpp:380] pool10_pool10_0_split -> pool10_pool10_0_split_2
I0419 15:46:37.654224  4352 net.cpp:122] Setting up pool10_pool10_0_split
I0419 15:46:37.654232  4352 net.cpp:129] Top shape: 25 3 1 1 (75)
I0419 15:46:37.654233  4352 net.cpp:129] Top shape: 25 3 1 1 (75)
I0419 15:46:37.654237  4352 net.cpp:129] Top shape: 25 3 1 1 (75)
I0419 15:46:37.654238  4352 net.cpp:137] Memory required for data: 768589100
I0419 15:46:37.654240  4352 layer_factory.hpp:77] Creating layer loss
I0419 15:46:37.654247  4352 net.cpp:84] Creating Layer loss
I0419 15:46:37.654249  4352 net.cpp:406] loss <- pool10_pool10_0_split_0
I0419 15:46:37.654253  4352 net.cpp:406] loss <- label_data_1_split_0
I0419 15:46:37.654256  4352 net.cpp:380] loss -> loss
…
