…
I0418 17:00:13.016890 31445 net.cpp:322] The NetState phase (0) differed from the phase (1) specified by a rule in layer data
I0418 17:00:13.017244 31445 net.cpp:58] Initializing net from parameters: 
state {
  phase: TRAIN
  level: 0
  stage: ""
}
layer {
  name: "data"
  type: "Data"
  top: "data"
  top: "label"
  include {
    phase: TRAIN
  }
  transform_param {
    crop_size: 227
    mean_file: "/home/rui/Cylinders/dataset_v3/mean.binaryproto"
  }
  data_param {
    source: "/home/rui/Cylinders/dataset_v3/train_lmdb"
    batch_size: 32
    backend: LMDB
  }
}
layer {
  name: "conv1"
  type: "Convolution"
  bottom: "data"
  top: "conv1"
  convolution_param {
    num_output: 64
    kernel_size: 3
    stride: 2
    weight_filler {
      type: "xavier"
    }
  }
}
layer {
  name: "relu_conv1"
  type: "ReLU"
  bottom: "conv1"
  top: "conv1"
}
layer {
  name: "pool1"
  type: "Pooling"
  bottom: "conv1"
  top: "pool1"
  pooling_param {
    pool: MAX
    kernel_size: 3
    stride: 2
  }
}
layer {
  name: "fire2/squeeze1x1"
  type: "Convolution"
  bottom: "pool1"
  top: "fire2/squeeze1x1"
  convolution_param {
    num_output: 16
    kernel_size: 1
    weight_filler {
      type: "xavier"
    }
  }
}
layer {
  name: "fire2/relu_squeeze1x1"
  type: "ReLU"
  bottom: "fire2/squeeze1x1"
  top: "fire2/squeeze1x1"
}
layer {
  name: "fire2/expand1x1"
  type: "Convolution"
  bottom: "fire2/squeeze1x1"
  top: "fire2/expand1x1"
  convolution_param {
    num_output: 64
    kernel_size: 1
    weight_filler {
      type: "xavier"
    }
  }
}
layer {
  name: "fire2/relu_expand1x1"
  type: "ReLU"
  bottom: "fire2/expand1x1"
  top: "fire2/expand1x1"
}
layer {
  name: "fire2/expand3x3"
  type: "Convolution"
  bottom: "fire2/squeeze1x1"
  top: "fire2/expand3x3"
  convolution_param {
    num_output: 64
    pad: 1
    kernel_size: 3
    weight_filler {
      type: "xavier"
    }
  }
}
layer {
  name: "fire2/relu_expand3x3"
  type: "ReLU"
  bottom: "fire2/expand3x3"
  top: "fire2/expand3x3"
}
layer {
  name: "fire2/concat"
  type: "Concat"
  bottom: "fire2/expand1x1"
  bottom: "fire2/expand3x3"
  top: "fire2/concat"
}
layer {
  name: "fire3/squeeze1x1"
  type: "Convolution"
  bottom: "fire2/concat"
  top: "fire3/squeeze1x1"
  convolution_param {
    num_output: 16
    kernel_size: 1
    weight_filler {
      type: "xavier"
    }
  }
}
layer {
  name: "fire3/relu_squeeze1x1"
  type: "ReLU"
  bottom: "fire3/squeeze1x1"
  top: "fire3/squeeze1x1"
}
layer {
  name: "fire3/expand1x1"
  type: "Convolution"
  bottom: "fire3/squeeze1x1"
  top: "fire3/expand1x1"
  convolution_param {
    num_output: 64
    kernel_size: 1
    weight_filler {
      type: "xavier"
    }
  }
}
layer {
  name: "fire3/relu_expand1x1"
  type: "ReLU"
  bottom: "fire3/expand1x1"
  top: "fire3/expand1x1"
}
layer {
  name: "fire3/expand3x3"
  type: "Convolution"
  bottom: "fire3/squeeze1x1"
  top: "fire3/expand3x3"
  convolution_param {
    num_output: 64
    pad: 1
    kernel_size: 3
    weight_filler {
      type: "xavier"
    }
  }
}
layer {
  name: "fire3/relu_expand3x3"
  type: "ReLU"
  bottom: "fire3/expand3x3"
  top: "fire3/expand3x3"
}
layer {
  name: "fire3/concat"
  type: "Concat"
  bottom: "fire3/expand1x1"
  bottom: "fire3/expand3x3"
  top: "fire3/concat"
}
layer {
  name: "pool3"
  type: "Pooling"
  bottom: "fire3/concat"
  top: "pool3"
  pooling_param {
    pool: MAX
    kernel_size: 3
    stride: 2
  }
}
layer {
  name: "fire4/squeeze1x1"
  type: "Convolution"
  bottom: "pool3"
  top: "fire4/squeeze1x1"
  convolution_param {
    num_output: 32
    kernel_size: 1
    weight_filler {
      type: "xavier"
    }
  }
}
layer {
  name: "fire4/relu_squeeze1x1"
  type: "ReLU"
  bottom: "fire4/squeeze1x1"
  top: "fire4/squeeze1x1"
}
layer {
  name: "fire4/expand1x1"
  type: "Convolution"
  bottom: "fire4/squeeze1x1"
  top: "fire4/expand1x1"
  convolution_param {
    num_output: 128
    kernel_size: 1
    weight_filler {
      type: "xavier"
    }
  }
}
layer {
  name: "fire4/relu_expand1x1"
  type: "ReLU"
  bottom: "fire4/expand1x1"
  top: "fire4/expand1x1"
}
layer {
  name: "fire4/expand3x3"
  type: "Convolution"
  bottom: "fire4/squeeze1x1"
  top: "fire4/expand3x3"
  convolution_param {
    num_output: 128
    pad: 1
    kernel_size: 3
    weight_filler {
      type: "xavier"
    }
  }
}
layer {
  name: "fire4/relu_expand3x3"
  type: "ReLU"
  bottom: "fire4/expand3x3"
  top: "fire4/expand3x3"
}
layer {
  name: "fire4/concat"
  type: "Concat"
  bottom: "fire4/expand1x1"
  bottom: "fire4/expand3x3"
  top: "fire4/concat"
}
layer {
  name: "fire5/squeeze1x1"
  type: "Convolution"
  bottom: "fire4/concat"
  top: "fire5/squeeze1x1"
  convolution_param {
    num_output: 32
    kernel_size: 1
    weight_filler {
      type: "xavier"
    }
  }
}
layer {
  name: "fire5/relu_squeeze1x1"
  type: "ReLU"
  bottom: "fire5/squeeze1x1"
  top: "fire5/squeeze1x1"
}
layer {
  name: "fire5/expand1x1"
  type: "Convolution"
  bottom: "fire5/squeeze1x1"
  top: "fire5/expand1x1"
  convolution_param {
    num_output: 128
    kernel_size: 1
    weight_filler {
      type: "xavier"
    }
  }
}
layer {
  name: "fire5/relu_expand1x1"
  type: "ReLU"
  bottom: "fire5/expand1x1"
  top: "fire5/expand1x1"
}
layer {
  name: "fire5/expand3x3"
  type: "Convolution"
  bottom: "fire5/squeeze1x1"
  top: "fire5/expand3x3"
  convolution_param {
    num_output: 128
    pad: 1
    kernel_size: 3
    weight_filler {
      type: "xavier"
    }
  }
}
layer {
  name: "fire5/relu_expand3x3"
  type: "ReLU"
  bottom: "fire5/expand3x3"
  top: "fire5/expand3x3"
}
layer {
  name: "fire5/concat"
  type: "Concat"
  bottom: "fire5/expand1x1"
  bottom: "fire5/expand3x3"
  top: "fire5/concat"
}
layer {
  name: "pool5"
  type: "Pooling"
  bottom: "fire5/concat"
  top: "pool5"
  pooling_param {
    pool: MAX
    kernel_size: 3
    stride: 2
  }
}
layer {
  name: "fire6/squeeze1x1"
  type: "Convolution"
  bottom: "pool5"
  top: "fire6/squeeze1x1"
  convolution_param {
    num_output: 48
    kernel_size: 1
    weight_filler {
      type: "xavier"
    }
  }
}
layer {
  name: "fire6/relu_squeeze1x1"
  type: "ReLU"
  bottom: "fire6/squeeze1x1"
  top: "fire6/squeeze1x1"
}
layer {
  name: "fire6/expand1x1"
  type: "Convolution"
  bottom: "fire6/squeeze1x1"
  top: "fire6/expand1x1"
  convolution_param {
    num_output: 192
    kernel_size: 1
    weight_filler {
      type: "xavier"
    }
  }
}
layer {
  name: "fire6/relu_expand1x1"
  type: "ReLU"
  bottom: "fire6/expand1x1"
  top: "fire6/expand1x1"
}
layer {
  name: "fire6/expand3x3"
  type: "Convolution"
  bottom: "fire6/squeeze1x1"
  top: "fire6/expand3x3"
  convolution_param {
    num_output: 192
    pad: 1
    kernel_size: 3
    weight_filler {
      type: "xavier"
    }
  }
}
layer {
  name: "fire6/relu_expand3x3"
  type: "ReLU"
  bottom: "fire6/expand3x3"
  top: "fire6/expand3x3"
}
layer {
  name: "fire6/concat"
  type: "Concat"
  bottom: "fire6/expand1x1"
  bottom: "fire6/expand3x3"
  top: "fire6/concat"
}
layer {
  name: "fire7/squeeze1x1"
  type: "Convolution"
  bottom: "fire6/concat"
  top: "fire7/squeeze1x1"
  convolution_param {
    num_output: 48
    kernel_size: 1
    weight_filler {
      type: "xavier"
    }
  }
}
layer {
  name: "fire7/relu_squeeze1x1"
  type: "ReLU"
  bottom: "fire7/squeeze1x1"
  top: "fire7/squeeze1x1"
}
layer {
  name: "fire7/expand1x1"
  type: "Convolution"
  bottom: "fire7/squeeze1x1"
  top: "fire7/expand1x1"
  convolution_param {
    num_output: 192
    kernel_size: 1
    weight_filler {
      type: "xavier"
    }
  }
}
layer {
  name: "fire7/relu_expand1x1"
  type: "ReLU"
  bottom: "fire7/expand1x1"
  top: "fire7/expand1x1"
}
layer {
  name: "fire7/expand3x3"
  type: "Convolution"
  bottom: "fire7/squeeze1x1"
  top: "fire7/expand3x3"
  convolution_param {
    num_output: 192
    pad: 1
    kernel_size: 3
    weight_filler {
      type: "xavier"
    }
  }
}
layer {
  name: "fire7/relu_expand3x3"
  type: "ReLU"
  bottom: "fire7/expand3x3"
  top: "fire7/expand3x3"
}
layer {
  name: "fire7/concat"
  type: "Concat"
  bottom: "fire7/expand1x1"
  bottom: "fire7/expand3x3"
  top: "fire7/concat"
}
layer {
  name: "fire8/squeeze1x1"
  type: "Convolution"
  bottom: "fire7/concat"
  top: "fire8/squeeze1x1"
  convolution_param {
    num_output: 64
    kernel_size: 1
    weight_filler {
      type: "xavier"
    }
  }
}
layer {
  name: "fire8/relu_squeeze1x1"
  type: "ReLU"
  bottom: "fire8/squeeze1x1"
  top: "fire8/squeeze1x1"
}
layer {
  name: "fire8/expand1x1"
  type: "Convolution"
  bottom: "fire8/squeeze1x1"
  top: "fire8/expand1x1"
  convolution_param {
    num_output: 256
    kernel_size: 1
    weight_filler {
      type: "xavier"
    }
  }
}
layer {
  name: "fire8/relu_expand1x1"
  type: "ReLU"
  bottom: "fire8/expand1x1"
  top: "fire8/expand1x1"
}
layer {
  name: "fire8/expand3x3"
  type: "Convolution"
  bottom: "fire8/squeeze1x1"
  top: "fire8/expand3x3"
  convolution_param {
    num_output: 256
    pad: 1
    kernel_size: 3
    weight_filler {
      type: "xavier"
    }
  }
}
layer {
  name: "fire8/relu_expand3x3"
  type: "ReLU"
  bottom: "fire8/expand3x3"
  top: "fire8/expand3x3"
}
layer {
  name: "fire8/concat"
  type: "Concat"
  bottom: "fire8/expand1x1"
  bottom: "fire8/expand3x3"
  top: "fire8/concat"
}
layer {
  name: "fire9/squeeze1x1"
  type: "Convolution"
  bottom: "fire8/concat"
  top: "fire9/squeeze1x1"
  convolution_param {
    num_output: 64
    kernel_size: 1
    weight_filler {
      type: "xavier"
    }
  }
}
layer {
  name: "fire9/relu_squeeze1x1"
  type: "ReLU"
  bottom: "fire9/squeeze1x1"
  top: "fire9/squeeze1x1"
}
layer {
  name: "fire9/expand1x1"
  type: "Convolution"
  bottom: "fire9/squeeze1x1"
  top: "fire9/expand1x1"
  convolution_param {
    num_output: 256
    kernel_size: 1
    weight_filler {
      type: "xavier"
    }
  }
}
layer {
  name: "fire9/relu_expand1x1"
  type: "ReLU"
  bottom: "fire9/expand1x1"
  top: "fire9/expand1x1"
}
layer {
  name: "fire9/expand3x3"
  type: "Convolution"
  bottom: "fire9/squeeze1x1"
  top: "fire9/expand3x3"
  convolution_param {
    num_output: 256
    pad: 1
    kernel_size: 3
    weight_filler {
      type: "xavier"
    }
  }
}
layer {
  name: "fire9/relu_expand3x3"
  type: "ReLU"
  bottom: "fire9/expand3x3"
  top: "fire9/expand3x3"
}
layer {
  name: "fire9/concat"
  type: "Concat"
  bottom: "fire9/expand1x1"
  bottom: "fire9/expand3x3"
  top: "fire9/concat"
}
layer {
  name: "drop9"
  type: "Dropout"
  bottom: "fire9/concat"
  top: "fire9/concat"
  dropout_param {
    dropout_ratio: 0.5
  }
}
layer {
  name: "conv10-cylinders"
  type: "Convolution"
  bottom: "fire9/concat"
  top: "conv10-cylinders"
  convolution_param {
    num_output: 3
    kernel_size: 1
    weight_filler {
      type: "gaussian"
      mean: 0
      std: 0.01
    }
  }
}
layer {
  name: "relu_conv10"
  type: "ReLU"
  bottom: "conv10-cylinders"
  top: "conv10-cylinders"
}
layer {
  name: "pool10"
  type: "Pooling"
  bottom: "conv10-cylinders"
  top: "pool10"
  pooling_param {
    pool: AVE
    global_pooling: true
  }
}
layer {
  name: "loss"
  type: "SoftmaxWithLoss"
  bottom: "pool10"
  bottom: "label"
  top: "loss"
}
layer {
  name: "accuracy"
  type: "Accuracy"
  bottom: "pool10"
  bottom: "label"
  top: "accuracy"
}
layer {
  name: "accuracy_top5"
  type: "Accuracy"
  bottom: "pool10"
  bottom: "label"
  top: "accuracy_top5"
  accuracy_param {
    top_k: 3
  }
}
I0418 17:00:13.017591 31445 layer_factory.hpp:77] Creating layer data
I0418 17:00:13.017722 31445 net.cpp:100] Creating Layer data
I0418 17:00:13.017738 31445 net.cpp:408] data -> data
I0418 17:00:13.017779 31445 net.cpp:408] data -> label
I0418 17:00:13.017810 31445 data_transformer.cpp:25] Loading mean file from: /home/rui/Cylinders/dataset_v3/mean.binaryproto
I0418 17:00:13.018478 31450 db_lmdb.cpp:35] Opened lmdb /home/rui/Cylinders/dataset_v3/train_lmdb
I0418 17:00:13.035025 31445 data_layer.cpp:41] output data size: 32,3,227,227
I0418 17:00:13.069911 31445 net.cpp:150] Setting up data
I0418 17:00:13.069949 31445 net.cpp:157] Top shape: 32 3 227 227 (4946784)
I0418 17:00:13.069955 31445 net.cpp:157] Top shape: 32 (32)
I0418 17:00:13.069960 31445 net.cpp:165] Memory required for data: 19787264
I0418 17:00:13.069977 31445 layer_factory.hpp:77] Creating layer label_data_1_split
I0418 17:00:13.069994 31445 net.cpp:100] Creating Layer label_data_1_split
I0418 17:00:13.070001 31445 net.cpp:434] label_data_1_split <- label
I0418 17:00:13.070019 31445 net.cpp:408] label_data_1_split -> label_data_1_split_0
I0418 17:00:13.070034 31445 net.cpp:408] label_data_1_split -> label_data_1_split_1
I0418 17:00:13.070040 31445 net.cpp:408] label_data_1_split -> label_data_1_split_2
I0418 17:00:13.070107 31445 net.cpp:150] Setting up label_data_1_split
I0418 17:00:13.070116 31445 net.cpp:157] Top shape: 32 (32)
I0418 17:00:13.070122 31445 net.cpp:157] Top shape: 32 (32)
I0418 17:00:13.070125 31445 net.cpp:157] Top shape: 32 (32)
I0418 17:00:13.070128 31445 net.cpp:165] Memory required for data: 19787648
I0418 17:00:13.070132 31445 layer_factory.hpp:77] Creating layer conv1
I0418 17:00:13.070152 31445 net.cpp:100] Creating Layer conv1
I0418 17:00:13.070158 31445 net.cpp:434] conv1 <- data
I0418 17:00:13.070164 31445 net.cpp:408] conv1 -> conv1
I0418 17:00:13.287398 31445 net.cpp:150] Setting up conv1
I0418 17:00:13.287433 31445 net.cpp:157] Top shape: 32 64 113 113 (26150912)
I0418 17:00:13.287438 31445 net.cpp:165] Memory required for data: 124391296
I0418 17:00:13.287467 31445 layer_factory.hpp:77] Creating layer relu_conv1
I0418 17:00:13.287482 31445 net.cpp:100] Creating Layer relu_conv1
I0418 17:00:13.287487 31445 net.cpp:434] relu_conv1 <- conv1
I0418 17:00:13.287498 31445 net.cpp:395] relu_conv1 -> conv1 (in-place)
I0418 17:00:13.287693 31445 net.cpp:150] Setting up relu_conv1
I0418 17:00:13.287705 31445 net.cpp:157] Top shape: 32 64 113 113 (26150912)
I0418 17:00:13.287708 31445 net.cpp:165] Memory required for data: 228994944
I0418 17:00:13.287713 31445 layer_factory.hpp:77] Creating layer pool1
I0418 17:00:13.287722 31445 net.cpp:100] Creating Layer pool1
I0418 17:00:13.287726 31445 net.cpp:434] pool1 <- conv1
I0418 17:00:13.287735 31445 net.cpp:408] pool1 -> pool1
I0418 17:00:13.287791 31445 net.cpp:150] Setting up pool1
I0418 17:00:13.287801 31445 net.cpp:157] Top shape: 32 64 56 56 (6422528)
I0418 17:00:13.287803 31445 net.cpp:165] Memory required for data: 254685056
I0418 17:00:13.287809 31445 layer_factory.hpp:77] Creating layer fire2/squeeze1x1
I0418 17:00:13.287823 31445 net.cpp:100] Creating Layer fire2/squeeze1x1
I0418 17:00:13.287829 31445 net.cpp:434] fire2/squeeze1x1 <- pool1
I0418 17:00:13.287837 31445 net.cpp:408] fire2/squeeze1x1 -> fire2/squeeze1x1
I0418 17:00:13.289444 31445 net.cpp:150] Setting up fire2/squeeze1x1
I0418 17:00:13.289458 31445 net.cpp:157] Top shape: 32 16 56 56 (1605632)
I0418 17:00:13.289463 31445 net.cpp:165] Memory required for data: 261107584
I0418 17:00:13.289474 31445 layer_factory.hpp:77] Creating layer fire2/relu_squeeze1x1
I0418 17:00:13.289480 31445 net.cpp:100] Creating Layer fire2/relu_squeeze1x1
I0418 17:00:13.289484 31445 net.cpp:434] fire2/relu_squeeze1x1 <- fire2/squeeze1x1
I0418 17:00:13.289490 31445 net.cpp:395] fire2/relu_squeeze1x1 -> fire2/squeeze1x1 (in-place)
I0418 17:00:13.289860 31445 net.cpp:150] Setting up fire2/relu_squeeze1x1
I0418 17:00:13.289873 31445 net.cpp:157] Top shape: 32 16 56 56 (1605632)
I0418 17:00:13.289876 31445 net.cpp:165] Memory required for data: 267530112
I0418 17:00:13.289880 31445 layer_factory.hpp:77] Creating layer fire2/squeeze1x1_fire2/relu_squeeze1x1_0_split
I0418 17:00:13.289888 31445 net.cpp:100] Creating Layer fire2/squeeze1x1_fire2/relu_squeeze1x1_0_split
I0418 17:00:13.289913 31445 net.cpp:434] fire2/squeeze1x1_fire2/relu_squeeze1x1_0_split <- fire2/squeeze1x1
I0418 17:00:13.289921 31445 net.cpp:408] fire2/squeeze1x1_fire2/relu_squeeze1x1_0_split -> fire2/squeeze1x1_fire2/relu_squeeze1x1_0_split_0
I0418 17:00:13.289932 31445 net.cpp:408] fire2/squeeze1x1_fire2/relu_squeeze1x1_0_split -> fire2/squeeze1x1_fire2/relu_squeeze1x1_0_split_1
I0418 17:00:13.289976 31445 net.cpp:150] Setting up fire2/squeeze1x1_fire2/relu_squeeze1x1_0_split
I0418 17:00:13.289985 31445 net.cpp:157] Top shape: 32 16 56 56 (1605632)
I0418 17:00:13.289990 31445 net.cpp:157] Top shape: 32 16 56 56 (1605632)
I0418 17:00:13.289994 31445 net.cpp:165] Memory required for data: 280375168
I0418 17:00:13.289997 31445 layer_factory.hpp:77] Creating layer fire2/expand1x1
I0418 17:00:13.290007 31445 net.cpp:100] Creating Layer fire2/expand1x1
I0418 17:00:13.290012 31445 net.cpp:434] fire2/expand1x1 <- fire2/squeeze1x1_fire2/relu_squeeze1x1_0_split_0
I0418 17:00:13.290019 31445 net.cpp:408] fire2/expand1x1 -> fire2/expand1x1
I0418 17:00:13.290982 31445 net.cpp:150] Setting up fire2/expand1x1
I0418 17:00:13.290997 31445 net.cpp:157] Top shape: 32 64 56 56 (6422528)
I0418 17:00:13.291000 31445 net.cpp:165] Memory required for data: 306065280
I0418 17:00:13.291010 31445 layer_factory.hpp:77] Creating layer fire2/relu_expand1x1
I0418 17:00:13.291018 31445 net.cpp:100] Creating Layer fire2/relu_expand1x1
I0418 17:00:13.291021 31445 net.cpp:434] fire2/relu_expand1x1 <- fire2/expand1x1
I0418 17:00:13.291028 31445 net.cpp:395] fire2/relu_expand1x1 -> fire2/expand1x1 (in-place)
I0418 17:00:13.291398 31445 net.cpp:150] Setting up fire2/relu_expand1x1
I0418 17:00:13.291410 31445 net.cpp:157] Top shape: 32 64 56 56 (6422528)
I0418 17:00:13.291414 31445 net.cpp:165] Memory required for data: 331755392
I0418 17:00:13.291417 31445 layer_factory.hpp:77] Creating layer fire2/expand3x3
I0418 17:00:13.291426 31445 net.cpp:100] Creating Layer fire2/expand3x3
I0418 17:00:13.291430 31445 net.cpp:434] fire2/expand3x3 <- fire2/squeeze1x1_fire2/relu_squeeze1x1_0_split_1
I0418 17:00:13.291437 31445 net.cpp:408] fire2/expand3x3 -> fire2/expand3x3
I0418 17:00:13.292857 31445 net.cpp:150] Setting up fire2/expand3x3
I0418 17:00:13.292871 31445 net.cpp:157] Top shape: 32 64 56 56 (6422528)
I0418 17:00:13.292876 31445 net.cpp:165] Memory required for data: 357445504
I0418 17:00:13.292883 31445 layer_factory.hpp:77] Creating layer fire2/relu_expand3x3
I0418 17:00:13.292889 31445 net.cpp:100] Creating Layer fire2/relu_expand3x3
I0418 17:00:13.292893 31445 net.cpp:434] fire2/relu_expand3x3 <- fire2/expand3x3
I0418 17:00:13.292899 31445 net.cpp:395] fire2/relu_expand3x3 -> fire2/expand3x3 (in-place)
I0418 17:00:13.293077 31445 net.cpp:150] Setting up fire2/relu_expand3x3
I0418 17:00:13.293088 31445 net.cpp:157] Top shape: 32 64 56 56 (6422528)
I0418 17:00:13.293092 31445 net.cpp:165] Memory required for data: 383135616
I0418 17:00:13.293095 31445 layer_factory.hpp:77] Creating layer fire2/concat
I0418 17:00:13.293102 31445 net.cpp:100] Creating Layer fire2/concat
I0418 17:00:13.293107 31445 net.cpp:434] fire2/concat <- fire2/expand1x1
I0418 17:00:13.293112 31445 net.cpp:434] fire2/concat <- fire2/expand3x3
I0418 17:00:13.293118 31445 net.cpp:408] fire2/concat -> fire2/concat
I0418 17:00:13.293148 31445 net.cpp:150] Setting up fire2/concat
I0418 17:00:13.293156 31445 net.cpp:157] Top shape: 32 128 56 56 (12845056)
I0418 17:00:13.293159 31445 net.cpp:165] Memory required for data: 434515840
I0418 17:00:13.293162 31445 layer_factory.hpp:77] Creating layer fire3/squeeze1x1
I0418 17:00:13.293170 31445 net.cpp:100] Creating Layer fire3/squeeze1x1
I0418 17:00:13.293174 31445 net.cpp:434] fire3/squeeze1x1 <- fire2/concat
I0418 17:00:13.293181 31445 net.cpp:408] fire3/squeeze1x1 -> fire3/squeeze1x1
I0418 17:00:13.294350 31445 net.cpp:150] Setting up fire3/squeeze1x1
I0418 17:00:13.294363 31445 net.cpp:157] Top shape: 32 16 56 56 (1605632)
I0418 17:00:13.294368 31445 net.cpp:165] Memory required for data: 440938368
I0418 17:00:13.294378 31445 layer_factory.hpp:77] Creating layer fire3/relu_squeeze1x1
I0418 17:00:13.294397 31445 net.cpp:100] Creating Layer fire3/relu_squeeze1x1
I0418 17:00:13.294402 31445 net.cpp:434] fire3/relu_squeeze1x1 <- fire3/squeeze1x1
I0418 17:00:13.294409 31445 net.cpp:395] fire3/relu_squeeze1x1 -> fire3/squeeze1x1 (in-place)
I0418 17:00:13.294790 31445 net.cpp:150] Setting up fire3/relu_squeeze1x1
I0418 17:00:13.294803 31445 net.cpp:157] Top shape: 32 16 56 56 (1605632)
I0418 17:00:13.294807 31445 net.cpp:165] Memory required for data: 447360896
I0418 17:00:13.294811 31445 layer_factory.hpp:77] Creating layer fire3/squeeze1x1_fire3/relu_squeeze1x1_0_split
I0418 17:00:13.294818 31445 net.cpp:100] Creating Layer fire3/squeeze1x1_fire3/relu_squeeze1x1_0_split
I0418 17:00:13.294821 31445 net.cpp:434] fire3/squeeze1x1_fire3/relu_squeeze1x1_0_split <- fire3/squeeze1x1
I0418 17:00:13.294828 31445 net.cpp:408] fire3/squeeze1x1_fire3/relu_squeeze1x1_0_split -> fire3/squeeze1x1_fire3/relu_squeeze1x1_0_split_0
I0418 17:00:13.294836 31445 net.cpp:408] fire3/squeeze1x1_fire3/relu_squeeze1x1_0_split -> fire3/squeeze1x1_fire3/relu_squeeze1x1_0_split_1
I0418 17:00:13.294878 31445 net.cpp:150] Setting up fire3/squeeze1x1_fire3/relu_squeeze1x1_0_split
I0418 17:00:13.294886 31445 net.cpp:157] Top shape: 32 16 56 56 (1605632)
I0418 17:00:13.294891 31445 net.cpp:157] Top shape: 32 16 56 56 (1605632)
I0418 17:00:13.294894 31445 net.cpp:165] Memory required for data: 460205952
I0418 17:00:13.294898 31445 layer_factory.hpp:77] Creating layer fire3/expand1x1
I0418 17:00:13.294909 31445 net.cpp:100] Creating Layer fire3/expand1x1
I0418 17:00:13.294914 31445 net.cpp:434] fire3/expand1x1 <- fire3/squeeze1x1_fire3/relu_squeeze1x1_0_split_0
I0418 17:00:13.294919 31445 net.cpp:408] fire3/expand1x1 -> fire3/expand1x1
I0418 17:00:13.296078 31445 net.cpp:150] Setting up fire3/expand1x1
I0418 17:00:13.296092 31445 net.cpp:157] Top shape: 32 64 56 56 (6422528)
I0418 17:00:13.296097 31445 net.cpp:165] Memory required for data: 485896064
I0418 17:00:13.296103 31445 layer_factory.hpp:77] Creating layer fire3/relu_expand1x1
I0418 17:00:13.296110 31445 net.cpp:100] Creating Layer fire3/relu_expand1x1
I0418 17:00:13.296114 31445 net.cpp:434] fire3/relu_expand1x1 <- fire3/expand1x1
I0418 17:00:13.296120 31445 net.cpp:395] fire3/relu_expand1x1 -> fire3/expand1x1 (in-place)
I0418 17:00:13.296499 31445 net.cpp:150] Setting up fire3/relu_expand1x1
I0418 17:00:13.296510 31445 net.cpp:157] Top shape: 32 64 56 56 (6422528)
I0418 17:00:13.296514 31445 net.cpp:165] Memory required for data: 511586176
I0418 17:00:13.296519 31445 layer_factory.hpp:77] Creating layer fire3/expand3x3
I0418 17:00:13.296528 31445 net.cpp:100] Creating Layer fire3/expand3x3
I0418 17:00:13.296535 31445 net.cpp:434] fire3/expand3x3 <- fire3/squeeze1x1_fire3/relu_squeeze1x1_0_split_1
I0418 17:00:13.296545 31445 net.cpp:408] fire3/expand3x3 -> fire3/expand3x3
I0418 17:00:13.297842 31445 net.cpp:150] Setting up fire3/expand3x3
I0418 17:00:13.297857 31445 net.cpp:157] Top shape: 32 64 56 56 (6422528)
I0418 17:00:13.297860 31445 net.cpp:165] Memory required for data: 537276288
I0418 17:00:13.297868 31445 layer_factory.hpp:77] Creating layer fire3/relu_expand3x3
I0418 17:00:13.297874 31445 net.cpp:100] Creating Layer fire3/relu_expand3x3
I0418 17:00:13.297878 31445 net.cpp:434] fire3/relu_expand3x3 <- fire3/expand3x3
I0418 17:00:13.297884 31445 net.cpp:395] fire3/relu_expand3x3 -> fire3/expand3x3 (in-place)
I0418 17:00:13.298074 31445 net.cpp:150] Setting up fire3/relu_expand3x3
I0418 17:00:13.298084 31445 net.cpp:157] Top shape: 32 64 56 56 (6422528)
I0418 17:00:13.298089 31445 net.cpp:165] Memory required for data: 562966400
I0418 17:00:13.298091 31445 layer_factory.hpp:77] Creating layer fire3/concat
I0418 17:00:13.298099 31445 net.cpp:100] Creating Layer fire3/concat
I0418 17:00:13.298101 31445 net.cpp:434] fire3/concat <- fire3/expand1x1
I0418 17:00:13.298106 31445 net.cpp:434] fire3/concat <- fire3/expand3x3
I0418 17:00:13.298113 31445 net.cpp:408] fire3/concat -> fire3/concat
I0418 17:00:13.298148 31445 net.cpp:150] Setting up fire3/concat
I0418 17:00:13.298171 31445 net.cpp:157] Top shape: 32 128 56 56 (12845056)
I0418 17:00:13.298177 31445 net.cpp:165] Memory required for data: 614346624
I0418 17:00:13.298180 31445 layer_factory.hpp:77] Creating layer pool3
I0418 17:00:13.298187 31445 net.cpp:100] Creating Layer pool3
I0418 17:00:13.298192 31445 net.cpp:434] pool3 <- fire3/concat
I0418 17:00:13.298197 31445 net.cpp:408] pool3 -> pool3
I0418 17:00:13.298245 31445 net.cpp:150] Setting up pool3
I0418 17:00:13.298254 31445 net.cpp:157] Top shape: 32 128 28 28 (3211264)
I0418 17:00:13.298259 31445 net.cpp:165] Memory required for data: 627191680
I0418 17:00:13.298262 31445 layer_factory.hpp:77] Creating layer fire4/squeeze1x1
I0418 17:00:13.298272 31445 net.cpp:100] Creating Layer fire4/squeeze1x1
I0418 17:00:13.298277 31445 net.cpp:434] fire4/squeeze1x1 <- pool3
I0418 17:00:13.298286 31445 net.cpp:408] fire4/squeeze1x1 -> fire4/squeeze1x1
I0418 17:00:13.299571 31445 net.cpp:150] Setting up fire4/squeeze1x1
I0418 17:00:13.299585 31445 net.cpp:157] Top shape: 32 32 28 28 (802816)
I0418 17:00:13.299590 31445 net.cpp:165] Memory required for data: 630402944
I0418 17:00:13.299598 31445 layer_factory.hpp:77] Creating layer fire4/relu_squeeze1x1
I0418 17:00:13.299607 31445 net.cpp:100] Creating Layer fire4/relu_squeeze1x1
I0418 17:00:13.299612 31445 net.cpp:434] fire4/relu_squeeze1x1 <- fire4/squeeze1x1
I0418 17:00:13.299619 31445 net.cpp:395] fire4/relu_squeeze1x1 -> fire4/squeeze1x1 (in-place)
I0418 17:00:13.300010 31445 net.cpp:150] Setting up fire4/relu_squeeze1x1
I0418 17:00:13.300026 31445 net.cpp:157] Top shape: 32 32 28 28 (802816)
I0418 17:00:13.300030 31445 net.cpp:165] Memory required for data: 633614208
I0418 17:00:13.300034 31445 layer_factory.hpp:77] Creating layer fire4/squeeze1x1_fire4/relu_squeeze1x1_0_split
I0418 17:00:13.300042 31445 net.cpp:100] Creating Layer fire4/squeeze1x1_fire4/relu_squeeze1x1_0_split
I0418 17:00:13.300048 31445 net.cpp:434] fire4/squeeze1x1_fire4/relu_squeeze1x1_0_split <- fire4/squeeze1x1
I0418 17:00:13.300055 31445 net.cpp:408] fire4/squeeze1x1_fire4/relu_squeeze1x1_0_split -> fire4/squeeze1x1_fire4/relu_squeeze1x1_0_split_0
I0418 17:00:13.300066 31445 net.cpp:408] fire4/squeeze1x1_fire4/relu_squeeze1x1_0_split -> fire4/squeeze1x1_fire4/relu_squeeze1x1_0_split_1
I0418 17:00:13.300114 31445 net.cpp:150] Setting up fire4/squeeze1x1_fire4/relu_squeeze1x1_0_split
I0418 17:00:13.300123 31445 net.cpp:157] Top shape: 32 32 28 28 (802816)
I0418 17:00:13.300128 31445 net.cpp:157] Top shape: 32 32 28 28 (802816)
I0418 17:00:13.300132 31445 net.cpp:165] Memory required for data: 640036736
I0418 17:00:13.300135 31445 layer_factory.hpp:77] Creating layer fire4/expand1x1
I0418 17:00:13.300145 31445 net.cpp:100] Creating Layer fire4/expand1x1
I0418 17:00:13.300150 31445 net.cpp:434] fire4/expand1x1 <- fire4/squeeze1x1_fire4/relu_squeeze1x1_0_split_0
I0418 17:00:13.300158 31445 net.cpp:408] fire4/expand1x1 -> fire4/expand1x1
I0418 17:00:13.301230 31445 net.cpp:150] Setting up fire4/expand1x1
I0418 17:00:13.301244 31445 net.cpp:157] Top shape: 32 128 28 28 (3211264)
I0418 17:00:13.301247 31445 net.cpp:165] Memory required for data: 652881792
I0418 17:00:13.301261 31445 layer_factory.hpp:77] Creating layer fire4/relu_expand1x1
I0418 17:00:13.301270 31445 net.cpp:100] Creating Layer fire4/relu_expand1x1
I0418 17:00:13.301275 31445 net.cpp:434] fire4/relu_expand1x1 <- fire4/expand1x1
I0418 17:00:13.301280 31445 net.cpp:395] fire4/relu_expand1x1 -> fire4/expand1x1 (in-place)
I0418 17:00:13.301674 31445 net.cpp:150] Setting up fire4/relu_expand1x1
I0418 17:00:13.301687 31445 net.cpp:157] Top shape: 32 128 28 28 (3211264)
I0418 17:00:13.301690 31445 net.cpp:165] Memory required for data: 665726848
I0418 17:00:13.301694 31445 layer_factory.hpp:77] Creating layer fire4/expand3x3
I0418 17:00:13.301704 31445 net.cpp:100] Creating Layer fire4/expand3x3
I0418 17:00:13.301709 31445 net.cpp:434] fire4/expand3x3 <- fire4/squeeze1x1_fire4/relu_squeeze1x1_0_split_1
I0418 17:00:13.301717 31445 net.cpp:408] fire4/expand3x3 -> fire4/expand3x3
I0418 17:00:13.303900 31445 net.cpp:150] Setting up fire4/expand3x3
I0418 17:00:13.303915 31445 net.cpp:157] Top shape: 32 128 28 28 (3211264)
I0418 17:00:13.303918 31445 net.cpp:165] Memory required for data: 678571904
I0418 17:00:13.303926 31445 layer_factory.hpp:77] Creating layer fire4/relu_expand3x3
I0418 17:00:13.303933 31445 net.cpp:100] Creating Layer fire4/relu_expand3x3
I0418 17:00:13.303938 31445 net.cpp:434] fire4/relu_expand3x3 <- fire4/expand3x3
I0418 17:00:13.303946 31445 net.cpp:395] fire4/relu_expand3x3 -> fire4/expand3x3 (in-place)
I0418 17:00:13.304142 31445 net.cpp:150] Setting up fire4/relu_expand3x3
I0418 17:00:13.304154 31445 net.cpp:157] Top shape: 32 128 28 28 (3211264)
I0418 17:00:13.304157 31445 net.cpp:165] Memory required for data: 691416960
I0418 17:00:13.304162 31445 layer_factory.hpp:77] Creating layer fire4/concat
I0418 17:00:13.304169 31445 net.cpp:100] Creating Layer fire4/concat
I0418 17:00:13.304173 31445 net.cpp:434] fire4/concat <- fire4/expand1x1
I0418 17:00:13.304179 31445 net.cpp:434] fire4/concat <- fire4/expand3x3
I0418 17:00:13.304186 31445 net.cpp:408] fire4/concat -> fire4/concat
I0418 17:00:13.304221 31445 net.cpp:150] Setting up fire4/concat
I0418 17:00:13.304230 31445 net.cpp:157] Top shape: 32 256 28 28 (6422528)
I0418 17:00:13.304234 31445 net.cpp:165] Memory required for data: 717107072
I0418 17:00:13.304239 31445 layer_factory.hpp:77] Creating layer fire5/squeeze1x1
I0418 17:00:13.304250 31445 net.cpp:100] Creating Layer fire5/squeeze1x1
I0418 17:00:13.304255 31445 net.cpp:434] fire5/squeeze1x1 <- fire4/concat
I0418 17:00:13.304261 31445 net.cpp:408] fire5/squeeze1x1 -> fire5/squeeze1x1
I0418 17:00:13.305585 31445 net.cpp:150] Setting up fire5/squeeze1x1
I0418 17:00:13.305600 31445 net.cpp:157] Top shape: 32 32 28 28 (802816)
I0418 17:00:13.305603 31445 net.cpp:165] Memory required for data: 720318336
I0418 17:00:13.305611 31445 layer_factory.hpp:77] Creating layer fire5/relu_squeeze1x1
I0418 17:00:13.305619 31445 net.cpp:100] Creating Layer fire5/relu_squeeze1x1
I0418 17:00:13.305622 31445 net.cpp:434] fire5/relu_squeeze1x1 <- fire5/squeeze1x1
I0418 17:00:13.305627 31445 net.cpp:395] fire5/relu_squeeze1x1 -> fire5/squeeze1x1 (in-place)
I0418 17:00:13.306025 31445 net.cpp:150] Setting up fire5/relu_squeeze1x1
I0418 17:00:13.306037 31445 net.cpp:157] Top shape: 32 32 28 28 (802816)
I0418 17:00:13.306041 31445 net.cpp:165] Memory required for data: 723529600
I0418 17:00:13.306046 31445 layer_factory.hpp:77] Creating layer fire5/squeeze1x1_fire5/relu_squeeze1x1_0_split
I0418 17:00:13.306061 31445 net.cpp:100] Creating Layer fire5/squeeze1x1_fire5/relu_squeeze1x1_0_split
I0418 17:00:13.306066 31445 net.cpp:434] fire5/squeeze1x1_fire5/relu_squeeze1x1_0_split <- fire5/squeeze1x1
I0418 17:00:13.306072 31445 net.cpp:408] fire5/squeeze1x1_fire5/relu_squeeze1x1_0_split -> fire5/squeeze1x1_fire5/relu_squeeze1x1_0_split_0
I0418 17:00:13.306082 31445 net.cpp:408] fire5/squeeze1x1_fire5/relu_squeeze1x1_0_split -> fire5/squeeze1x1_fire5/relu_squeeze1x1_0_split_1
I0418 17:00:13.306131 31445 net.cpp:150] Setting up fire5/squeeze1x1_fire5/relu_squeeze1x1_0_split
I0418 17:00:13.306140 31445 net.cpp:157] Top shape: 32 32 28 28 (802816)
I0418 17:00:13.306145 31445 net.cpp:157] Top shape: 32 32 28 28 (802816)
I0418 17:00:13.306149 31445 net.cpp:165] Memory required for data: 729952128
I0418 17:00:13.306152 31445 layer_factory.hpp:77] Creating layer fire5/expand1x1
I0418 17:00:13.306164 31445 net.cpp:100] Creating Layer fire5/expand1x1
I0418 17:00:13.306170 31445 net.cpp:434] fire5/expand1x1 <- fire5/squeeze1x1_fire5/relu_squeeze1x1_0_split_0
I0418 17:00:13.306176 31445 net.cpp:408] fire5/expand1x1 -> fire5/expand1x1
I0418 17:00:13.307281 31445 net.cpp:150] Setting up fire5/expand1x1
I0418 17:00:13.307294 31445 net.cpp:157] Top shape: 32 128 28 28 (3211264)
I0418 17:00:13.307301 31445 net.cpp:165] Memory required for data: 742797184
I0418 17:00:13.307307 31445 layer_factory.hpp:77] Creating layer fire5/relu_expand1x1
I0418 17:00:13.307315 31445 net.cpp:100] Creating Layer fire5/relu_expand1x1
I0418 17:00:13.307333 31445 net.cpp:434] fire5/relu_expand1x1 <- fire5/expand1x1
I0418 17:00:13.307345 31445 net.cpp:395] fire5/relu_expand1x1 -> fire5/expand1x1 (in-place)
I0418 17:00:13.307744 31445 net.cpp:150] Setting up fire5/relu_expand1x1
I0418 17:00:13.307756 31445 net.cpp:157] Top shape: 32 128 28 28 (3211264)
I0418 17:00:13.307761 31445 net.cpp:165] Memory required for data: 755642240
I0418 17:00:13.307765 31445 layer_factory.hpp:77] Creating layer fire5/expand3x3
I0418 17:00:13.307776 31445 net.cpp:100] Creating Layer fire5/expand3x3
I0418 17:00:13.307781 31445 net.cpp:434] fire5/expand3x3 <- fire5/squeeze1x1_fire5/relu_squeeze1x1_0_split_1
I0418 17:00:13.307790 31445 net.cpp:408] fire5/expand3x3 -> fire5/expand3x3
I0418 17:00:13.309701 31445 net.cpp:150] Setting up fire5/expand3x3
I0418 17:00:13.309716 31445 net.cpp:157] Top shape: 32 128 28 28 (3211264)
I0418 17:00:13.309721 31445 net.cpp:165] Memory required for data: 768487296
I0418 17:00:13.309729 31445 layer_factory.hpp:77] Creating layer fire5/relu_expand3x3
I0418 17:00:13.309737 31445 net.cpp:100] Creating Layer fire5/relu_expand3x3
I0418 17:00:13.309742 31445 net.cpp:434] fire5/relu_expand3x3 <- fire5/expand3x3
I0418 17:00:13.309748 31445 net.cpp:395] fire5/relu_expand3x3 -> fire5/expand3x3 (in-place)
I0418 17:00:13.309950 31445 net.cpp:150] Setting up fire5/relu_expand3x3
I0418 17:00:13.309962 31445 net.cpp:157] Top shape: 32 128 28 28 (3211264)
I0418 17:00:13.309965 31445 net.cpp:165] Memory required for data: 781332352
I0418 17:00:13.309969 31445 layer_factory.hpp:77] Creating layer fire5/concat
I0418 17:00:13.309975 31445 net.cpp:100] Creating Layer fire5/concat
I0418 17:00:13.309981 31445 net.cpp:434] fire5/concat <- fire5/expand1x1
I0418 17:00:13.309986 31445 net.cpp:434] fire5/concat <- fire5/expand3x3
I0418 17:00:13.309994 31445 net.cpp:408] fire5/concat -> fire5/concat
I0418 17:00:13.310029 31445 net.cpp:150] Setting up fire5/concat
I0418 17:00:13.310039 31445 net.cpp:157] Top shape: 32 256 28 28 (6422528)
I0418 17:00:13.310044 31445 net.cpp:165] Memory required for data: 807022464
I0418 17:00:13.310047 31445 layer_factory.hpp:77] Creating layer pool5
I0418 17:00:13.310055 31445 net.cpp:100] Creating Layer pool5
I0418 17:00:13.310060 31445 net.cpp:434] pool5 <- fire5/concat
I0418 17:00:13.310065 31445 net.cpp:408] pool5 -> pool5
I0418 17:00:13.310117 31445 net.cpp:150] Setting up pool5
I0418 17:00:13.310127 31445 net.cpp:157] Top shape: 32 256 14 14 (1605632)
I0418 17:00:13.310132 31445 net.cpp:165] Memory required for data: 813444992
I0418 17:00:13.310135 31445 layer_factory.hpp:77] Creating layer fire6/squeeze1x1
I0418 17:00:13.310147 31445 net.cpp:100] Creating Layer fire6/squeeze1x1
I0418 17:00:13.310151 31445 net.cpp:434] fire6/squeeze1x1 <- pool5
I0418 17:00:13.310163 31445 net.cpp:408] fire6/squeeze1x1 -> fire6/squeeze1x1
I0418 17:00:13.311728 31445 net.cpp:150] Setting up fire6/squeeze1x1
I0418 17:00:13.311743 31445 net.cpp:157] Top shape: 32 48 14 14 (301056)
I0418 17:00:13.311745 31445 net.cpp:165] Memory required for data: 814649216
I0418 17:00:13.311753 31445 layer_factory.hpp:77] Creating layer fire6/relu_squeeze1x1
I0418 17:00:13.311765 31445 net.cpp:100] Creating Layer fire6/relu_squeeze1x1
I0418 17:00:13.311771 31445 net.cpp:434] fire6/relu_squeeze1x1 <- fire6/squeeze1x1
I0418 17:00:13.311779 31445 net.cpp:395] fire6/relu_squeeze1x1 -> fire6/squeeze1x1 (in-place)
I0418 17:00:13.312178 31445 net.cpp:150] Setting up fire6/relu_squeeze1x1
I0418 17:00:13.312191 31445 net.cpp:157] Top shape: 32 48 14 14 (301056)
I0418 17:00:13.312196 31445 net.cpp:165] Memory required for data: 815853440
I0418 17:00:13.312199 31445 layer_factory.hpp:77] Creating layer fire6/squeeze1x1_fire6/relu_squeeze1x1_0_split
I0418 17:00:13.312206 31445 net.cpp:100] Creating Layer fire6/squeeze1x1_fire6/relu_squeeze1x1_0_split
I0418 17:00:13.312211 31445 net.cpp:434] fire6/squeeze1x1_fire6/relu_squeeze1x1_0_split <- fire6/squeeze1x1
I0418 17:00:13.312219 31445 net.cpp:408] fire6/squeeze1x1_fire6/relu_squeeze1x1_0_split -> fire6/squeeze1x1_fire6/relu_squeeze1x1_0_split_0
I0418 17:00:13.312242 31445 net.cpp:408] fire6/squeeze1x1_fire6/relu_squeeze1x1_0_split -> fire6/squeeze1x1_fire6/relu_squeeze1x1_0_split_1
I0418 17:00:13.312299 31445 net.cpp:150] Setting up fire6/squeeze1x1_fire6/relu_squeeze1x1_0_split
I0418 17:00:13.312309 31445 net.cpp:157] Top shape: 32 48 14 14 (301056)
I0418 17:00:13.312314 31445 net.cpp:157] Top shape: 32 48 14 14 (301056)
I0418 17:00:13.312317 31445 net.cpp:165] Memory required for data: 818261888
I0418 17:00:13.312321 31445 layer_factory.hpp:77] Creating layer fire6/expand1x1
I0418 17:00:13.312331 31445 net.cpp:100] Creating Layer fire6/expand1x1
I0418 17:00:13.312337 31445 net.cpp:434] fire6/expand1x1 <- fire6/squeeze1x1_fire6/relu_squeeze1x1_0_split_0
I0418 17:00:13.312345 31445 net.cpp:408] fire6/expand1x1 -> fire6/expand1x1
I0418 17:00:13.313503 31445 net.cpp:150] Setting up fire6/expand1x1
I0418 17:00:13.313515 31445 net.cpp:157] Top shape: 32 192 14 14 (1204224)
I0418 17:00:13.313520 31445 net.cpp:165] Memory required for data: 823078784
I0418 17:00:13.313529 31445 layer_factory.hpp:77] Creating layer fire6/relu_expand1x1
I0418 17:00:13.313537 31445 net.cpp:100] Creating Layer fire6/relu_expand1x1
I0418 17:00:13.313544 31445 net.cpp:434] fire6/relu_expand1x1 <- fire6/expand1x1
I0418 17:00:13.313550 31445 net.cpp:395] fire6/relu_expand1x1 -> fire6/expand1x1 (in-place)
I0418 17:00:13.313946 31445 net.cpp:150] Setting up fire6/relu_expand1x1
I0418 17:00:13.313958 31445 net.cpp:157] Top shape: 32 192 14 14 (1204224)
I0418 17:00:13.313963 31445 net.cpp:165] Memory required for data: 827895680
I0418 17:00:13.313967 31445 layer_factory.hpp:77] Creating layer fire6/expand3x3
I0418 17:00:13.313978 31445 net.cpp:100] Creating Layer fire6/expand3x3
I0418 17:00:13.313984 31445 net.cpp:434] fire6/expand3x3 <- fire6/squeeze1x1_fire6/relu_squeeze1x1_0_split_1
I0418 17:00:13.313992 31445 net.cpp:408] fire6/expand3x3 -> fire6/expand3x3
I0418 17:00:13.316110 31445 net.cpp:150] Setting up fire6/expand3x3
I0418 17:00:13.316125 31445 net.cpp:157] Top shape: 32 192 14 14 (1204224)
I0418 17:00:13.316129 31445 net.cpp:165] Memory required for data: 832712576
I0418 17:00:13.316136 31445 layer_factory.hpp:77] Creating layer fire6/relu_expand3x3
I0418 17:00:13.316143 31445 net.cpp:100] Creating Layer fire6/relu_expand3x3
I0418 17:00:13.316148 31445 net.cpp:434] fire6/relu_expand3x3 <- fire6/expand3x3
I0418 17:00:13.316154 31445 net.cpp:395] fire6/relu_expand3x3 -> fire6/expand3x3 (in-place)
I0418 17:00:13.316355 31445 net.cpp:150] Setting up fire6/relu_expand3x3
I0418 17:00:13.316366 31445 net.cpp:157] Top shape: 32 192 14 14 (1204224)
I0418 17:00:13.316370 31445 net.cpp:165] Memory required for data: 837529472
I0418 17:00:13.316375 31445 layer_factory.hpp:77] Creating layer fire6/concat
I0418 17:00:13.316380 31445 net.cpp:100] Creating Layer fire6/concat
I0418 17:00:13.316385 31445 net.cpp:434] fire6/concat <- fire6/expand1x1
I0418 17:00:13.316390 31445 net.cpp:434] fire6/concat <- fire6/expand3x3
I0418 17:00:13.316396 31445 net.cpp:408] fire6/concat -> fire6/concat
I0418 17:00:13.316429 31445 net.cpp:150] Setting up fire6/concat
I0418 17:00:13.316440 31445 net.cpp:157] Top shape: 32 384 14 14 (2408448)
I0418 17:00:13.316444 31445 net.cpp:165] Memory required for data: 847163264
I0418 17:00:13.316447 31445 layer_factory.hpp:77] Creating layer fire7/squeeze1x1
I0418 17:00:13.316457 31445 net.cpp:100] Creating Layer fire7/squeeze1x1
I0418 17:00:13.316462 31445 net.cpp:434] fire7/squeeze1x1 <- fire6/concat
I0418 17:00:13.316468 31445 net.cpp:408] fire7/squeeze1x1 -> fire7/squeeze1x1
I0418 17:00:13.318073 31445 net.cpp:150] Setting up fire7/squeeze1x1
I0418 17:00:13.318085 31445 net.cpp:157] Top shape: 32 48 14 14 (301056)
I0418 17:00:13.318089 31445 net.cpp:165] Memory required for data: 848367488
I0418 17:00:13.318107 31445 layer_factory.hpp:77] Creating layer fire7/relu_squeeze1x1
I0418 17:00:13.318116 31445 net.cpp:100] Creating Layer fire7/relu_squeeze1x1
I0418 17:00:13.318121 31445 net.cpp:434] fire7/relu_squeeze1x1 <- fire7/squeeze1x1
I0418 17:00:13.318127 31445 net.cpp:395] fire7/relu_squeeze1x1 -> fire7/squeeze1x1 (in-place)
I0418 17:00:13.318534 31445 net.cpp:150] Setting up fire7/relu_squeeze1x1
I0418 17:00:13.318547 31445 net.cpp:157] Top shape: 32 48 14 14 (301056)
I0418 17:00:13.318552 31445 net.cpp:165] Memory required for data: 849571712
I0418 17:00:13.318555 31445 layer_factory.hpp:77] Creating layer fire7/squeeze1x1_fire7/relu_squeeze1x1_0_split
I0418 17:00:13.318565 31445 net.cpp:100] Creating Layer fire7/squeeze1x1_fire7/relu_squeeze1x1_0_split
I0418 17:00:13.318572 31445 net.cpp:434] fire7/squeeze1x1_fire7/relu_squeeze1x1_0_split <- fire7/squeeze1x1
I0418 17:00:13.318579 31445 net.cpp:408] fire7/squeeze1x1_fire7/relu_squeeze1x1_0_split -> fire7/squeeze1x1_fire7/relu_squeeze1x1_0_split_0
I0418 17:00:13.318596 31445 net.cpp:408] fire7/squeeze1x1_fire7/relu_squeeze1x1_0_split -> fire7/squeeze1x1_fire7/relu_squeeze1x1_0_split_1
I0418 17:00:13.318648 31445 net.cpp:150] Setting up fire7/squeeze1x1_fire7/relu_squeeze1x1_0_split
I0418 17:00:13.318660 31445 net.cpp:157] Top shape: 32 48 14 14 (301056)
I0418 17:00:13.318665 31445 net.cpp:157] Top shape: 32 48 14 14 (301056)
I0418 17:00:13.318667 31445 net.cpp:165] Memory required for data: 851980160
I0418 17:00:13.318670 31445 layer_factory.hpp:77] Creating layer fire7/expand1x1
I0418 17:00:13.318678 31445 net.cpp:100] Creating Layer fire7/expand1x1
I0418 17:00:13.318682 31445 net.cpp:434] fire7/expand1x1 <- fire7/squeeze1x1_fire7/relu_squeeze1x1_0_split_0
I0418 17:00:13.318691 31445 net.cpp:408] fire7/expand1x1 -> fire7/expand1x1
I0418 17:00:13.319841 31445 net.cpp:150] Setting up fire7/expand1x1
I0418 17:00:13.319856 31445 net.cpp:157] Top shape: 32 192 14 14 (1204224)
I0418 17:00:13.319861 31445 net.cpp:165] Memory required for data: 856797056
I0418 17:00:13.319869 31445 layer_factory.hpp:77] Creating layer fire7/relu_expand1x1
I0418 17:00:13.319876 31445 net.cpp:100] Creating Layer fire7/relu_expand1x1
I0418 17:00:13.319881 31445 net.cpp:434] fire7/relu_expand1x1 <- fire7/expand1x1
I0418 17:00:13.319887 31445 net.cpp:395] fire7/relu_expand1x1 -> fire7/expand1x1 (in-place)
I0418 17:00:13.320288 31445 net.cpp:150] Setting up fire7/relu_expand1x1
I0418 17:00:13.320302 31445 net.cpp:157] Top shape: 32 192 14 14 (1204224)
I0418 17:00:13.320307 31445 net.cpp:165] Memory required for data: 861613952
I0418 17:00:13.320312 31445 layer_factory.hpp:77] Creating layer fire7/expand3x3
I0418 17:00:13.320322 31445 net.cpp:100] Creating Layer fire7/expand3x3
I0418 17:00:13.320327 31445 net.cpp:434] fire7/expand3x3 <- fire7/squeeze1x1_fire7/relu_squeeze1x1_0_split_1
I0418 17:00:13.320335 31445 net.cpp:408] fire7/expand3x3 -> fire7/expand3x3
I0418 17:00:13.322875 31445 net.cpp:150] Setting up fire7/expand3x3
I0418 17:00:13.322890 31445 net.cpp:157] Top shape: 32 192 14 14 (1204224)
I0418 17:00:13.322895 31445 net.cpp:165] Memory required for data: 866430848
I0418 17:00:13.322903 31445 layer_factory.hpp:77] Creating layer fire7/relu_expand3x3
I0418 17:00:13.322912 31445 net.cpp:100] Creating Layer fire7/relu_expand3x3
I0418 17:00:13.322918 31445 net.cpp:434] fire7/relu_expand3x3 <- fire7/expand3x3
I0418 17:00:13.322924 31445 net.cpp:395] fire7/relu_expand3x3 -> fire7/expand3x3 (in-place)
I0418 17:00:13.323128 31445 net.cpp:150] Setting up fire7/relu_expand3x3
I0418 17:00:13.323141 31445 net.cpp:157] Top shape: 32 192 14 14 (1204224)
I0418 17:00:13.323145 31445 net.cpp:165] Memory required for data: 871247744
I0418 17:00:13.323149 31445 layer_factory.hpp:77] Creating layer fire7/concat
I0418 17:00:13.323158 31445 net.cpp:100] Creating Layer fire7/concat
I0418 17:00:13.323163 31445 net.cpp:434] fire7/concat <- fire7/expand1x1
I0418 17:00:13.323168 31445 net.cpp:434] fire7/concat <- fire7/expand3x3
I0418 17:00:13.323173 31445 net.cpp:408] fire7/concat -> fire7/concat
I0418 17:00:13.323210 31445 net.cpp:150] Setting up fire7/concat
I0418 17:00:13.323220 31445 net.cpp:157] Top shape: 32 384 14 14 (2408448)
I0418 17:00:13.323225 31445 net.cpp:165] Memory required for data: 880881536
I0418 17:00:13.323227 31445 layer_factory.hpp:77] Creating layer fire8/squeeze1x1
I0418 17:00:13.323252 31445 net.cpp:100] Creating Layer fire8/squeeze1x1
I0418 17:00:13.323258 31445 net.cpp:434] fire8/squeeze1x1 <- fire7/concat
I0418 17:00:13.323266 31445 net.cpp:408] fire8/squeeze1x1 -> fire8/squeeze1x1
I0418 17:00:13.324764 31445 net.cpp:150] Setting up fire8/squeeze1x1
I0418 17:00:13.324777 31445 net.cpp:157] Top shape: 32 64 14 14 (401408)
I0418 17:00:13.324781 31445 net.cpp:165] Memory required for data: 882487168
I0418 17:00:13.324790 31445 layer_factory.hpp:77] Creating layer fire8/relu_squeeze1x1
I0418 17:00:13.324797 31445 net.cpp:100] Creating Layer fire8/relu_squeeze1x1
I0418 17:00:13.324802 31445 net.cpp:434] fire8/relu_squeeze1x1 <- fire8/squeeze1x1
I0418 17:00:13.324810 31445 net.cpp:395] fire8/relu_squeeze1x1 -> fire8/squeeze1x1 (in-place)
I0418 17:00:13.325213 31445 net.cpp:150] Setting up fire8/relu_squeeze1x1
I0418 17:00:13.325227 31445 net.cpp:157] Top shape: 32 64 14 14 (401408)
I0418 17:00:13.325232 31445 net.cpp:165] Memory required for data: 884092800
I0418 17:00:13.325235 31445 layer_factory.hpp:77] Creating layer fire8/squeeze1x1_fire8/relu_squeeze1x1_0_split
I0418 17:00:13.325242 31445 net.cpp:100] Creating Layer fire8/squeeze1x1_fire8/relu_squeeze1x1_0_split
I0418 17:00:13.325248 31445 net.cpp:434] fire8/squeeze1x1_fire8/relu_squeeze1x1_0_split <- fire8/squeeze1x1
I0418 17:00:13.325255 31445 net.cpp:408] fire8/squeeze1x1_fire8/relu_squeeze1x1_0_split -> fire8/squeeze1x1_fire8/relu_squeeze1x1_0_split_0
I0418 17:00:13.325265 31445 net.cpp:408] fire8/squeeze1x1_fire8/relu_squeeze1x1_0_split -> fire8/squeeze1x1_fire8/relu_squeeze1x1_0_split_1
I0418 17:00:13.325321 31445 net.cpp:150] Setting up fire8/squeeze1x1_fire8/relu_squeeze1x1_0_split
I0418 17:00:13.325330 31445 net.cpp:157] Top shape: 32 64 14 14 (401408)
I0418 17:00:13.325336 31445 net.cpp:157] Top shape: 32 64 14 14 (401408)
I0418 17:00:13.325340 31445 net.cpp:165] Memory required for data: 887304064
I0418 17:00:13.325343 31445 layer_factory.hpp:77] Creating layer fire8/expand1x1
I0418 17:00:13.325353 31445 net.cpp:100] Creating Layer fire8/expand1x1
I0418 17:00:13.325359 31445 net.cpp:434] fire8/expand1x1 <- fire8/squeeze1x1_fire8/relu_squeeze1x1_0_split_0
I0418 17:00:13.325366 31445 net.cpp:408] fire8/expand1x1 -> fire8/expand1x1
I0418 17:00:13.326788 31445 net.cpp:150] Setting up fire8/expand1x1
I0418 17:00:13.326802 31445 net.cpp:157] Top shape: 32 256 14 14 (1605632)
I0418 17:00:13.326807 31445 net.cpp:165] Memory required for data: 893726592
I0418 17:00:13.326814 31445 layer_factory.hpp:77] Creating layer fire8/relu_expand1x1
I0418 17:00:13.326824 31445 net.cpp:100] Creating Layer fire8/relu_expand1x1
I0418 17:00:13.326830 31445 net.cpp:434] fire8/relu_expand1x1 <- fire8/expand1x1
I0418 17:00:13.326836 31445 net.cpp:395] fire8/relu_expand1x1 -> fire8/expand1x1 (in-place)
I0418 17:00:13.327240 31445 net.cpp:150] Setting up fire8/relu_expand1x1
I0418 17:00:13.327255 31445 net.cpp:157] Top shape: 32 256 14 14 (1605632)
I0418 17:00:13.327260 31445 net.cpp:165] Memory required for data: 900149120
I0418 17:00:13.327263 31445 layer_factory.hpp:77] Creating layer fire8/expand3x3
I0418 17:00:13.327272 31445 net.cpp:100] Creating Layer fire8/expand3x3
I0418 17:00:13.327278 31445 net.cpp:434] fire8/expand3x3 <- fire8/squeeze1x1_fire8/relu_squeeze1x1_0_split_1
I0418 17:00:13.327287 31445 net.cpp:408] fire8/expand3x3 -> fire8/expand3x3
I0418 17:00:13.329865 31445 net.cpp:150] Setting up fire8/expand3x3
I0418 17:00:13.329879 31445 net.cpp:157] Top shape: 32 256 14 14 (1605632)
I0418 17:00:13.329885 31445 net.cpp:165] Memory required for data: 906571648
I0418 17:00:13.329892 31445 layer_factory.hpp:77] Creating layer fire8/relu_expand3x3
I0418 17:00:13.329902 31445 net.cpp:100] Creating Layer fire8/relu_expand3x3
I0418 17:00:13.329907 31445 net.cpp:434] fire8/relu_expand3x3 <- fire8/expand3x3
I0418 17:00:13.329913 31445 net.cpp:395] fire8/relu_expand3x3 -> fire8/expand3x3 (in-place)
I0418 17:00:13.330121 31445 net.cpp:150] Setting up fire8/relu_expand3x3
I0418 17:00:13.330132 31445 net.cpp:157] Top shape: 32 256 14 14 (1605632)
I0418 17:00:13.330148 31445 net.cpp:165] Memory required for data: 912994176
I0418 17:00:13.330152 31445 layer_factory.hpp:77] Creating layer fire8/concat
I0418 17:00:13.330159 31445 net.cpp:100] Creating Layer fire8/concat
I0418 17:00:13.330164 31445 net.cpp:434] fire8/concat <- fire8/expand1x1
I0418 17:00:13.330169 31445 net.cpp:434] fire8/concat <- fire8/expand3x3
I0418 17:00:13.330178 31445 net.cpp:408] fire8/concat -> fire8/concat
I0418 17:00:13.330214 31445 net.cpp:150] Setting up fire8/concat
I0418 17:00:13.330222 31445 net.cpp:157] Top shape: 32 512 14 14 (3211264)
I0418 17:00:13.330227 31445 net.cpp:165] Memory required for data: 925839232
I0418 17:00:13.330231 31445 layer_factory.hpp:77] Creating layer fire9/squeeze1x1
I0418 17:00:13.330241 31445 net.cpp:100] Creating Layer fire9/squeeze1x1
I0418 17:00:13.330247 31445 net.cpp:434] fire9/squeeze1x1 <- fire8/concat
I0418 17:00:13.330255 31445 net.cpp:408] fire9/squeeze1x1 -> fire9/squeeze1x1
I0418 17:00:13.331837 31445 net.cpp:150] Setting up fire9/squeeze1x1
I0418 17:00:13.331851 31445 net.cpp:157] Top shape: 32 64 14 14 (401408)
I0418 17:00:13.331854 31445 net.cpp:165] Memory required for data: 927444864
I0418 17:00:13.331862 31445 layer_factory.hpp:77] Creating layer fire9/relu_squeeze1x1
I0418 17:00:13.331883 31445 net.cpp:100] Creating Layer fire9/relu_squeeze1x1
I0418 17:00:13.331889 31445 net.cpp:434] fire9/relu_squeeze1x1 <- fire9/squeeze1x1
I0418 17:00:13.331897 31445 net.cpp:395] fire9/relu_squeeze1x1 -> fire9/squeeze1x1 (in-place)
I0418 17:00:13.332296 31445 net.cpp:150] Setting up fire9/relu_squeeze1x1
I0418 17:00:13.332309 31445 net.cpp:157] Top shape: 32 64 14 14 (401408)
I0418 17:00:13.332314 31445 net.cpp:165] Memory required for data: 929050496
I0418 17:00:13.332319 31445 layer_factory.hpp:77] Creating layer fire9/squeeze1x1_fire9/relu_squeeze1x1_0_split
I0418 17:00:13.332325 31445 net.cpp:100] Creating Layer fire9/squeeze1x1_fire9/relu_squeeze1x1_0_split
I0418 17:00:13.332330 31445 net.cpp:434] fire9/squeeze1x1_fire9/relu_squeeze1x1_0_split <- fire9/squeeze1x1
I0418 17:00:13.332339 31445 net.cpp:408] fire9/squeeze1x1_fire9/relu_squeeze1x1_0_split -> fire9/squeeze1x1_fire9/relu_squeeze1x1_0_split_0
I0418 17:00:13.332348 31445 net.cpp:408] fire9/squeeze1x1_fire9/relu_squeeze1x1_0_split -> fire9/squeeze1x1_fire9/relu_squeeze1x1_0_split_1
I0418 17:00:13.332406 31445 net.cpp:150] Setting up fire9/squeeze1x1_fire9/relu_squeeze1x1_0_split
I0418 17:00:13.332415 31445 net.cpp:157] Top shape: 32 64 14 14 (401408)
I0418 17:00:13.332422 31445 net.cpp:157] Top shape: 32 64 14 14 (401408)
I0418 17:00:13.332424 31445 net.cpp:165] Memory required for data: 932261760
I0418 17:00:13.332428 31445 layer_factory.hpp:77] Creating layer fire9/expand1x1
I0418 17:00:13.332438 31445 net.cpp:100] Creating Layer fire9/expand1x1
I0418 17:00:13.332443 31445 net.cpp:434] fire9/expand1x1 <- fire9/squeeze1x1_fire9/relu_squeeze1x1_0_split_0
I0418 17:00:13.332450 31445 net.cpp:408] fire9/expand1x1 -> fire9/expand1x1
I0418 17:00:13.333686 31445 net.cpp:150] Setting up fire9/expand1x1
I0418 17:00:13.333700 31445 net.cpp:157] Top shape: 32 256 14 14 (1605632)
I0418 17:00:13.333704 31445 net.cpp:165] Memory required for data: 938684288
I0418 17:00:13.333712 31445 layer_factory.hpp:77] Creating layer fire9/relu_expand1x1
I0418 17:00:13.333721 31445 net.cpp:100] Creating Layer fire9/relu_expand1x1
I0418 17:00:13.333727 31445 net.cpp:434] fire9/relu_expand1x1 <- fire9/expand1x1
I0418 17:00:13.333734 31445 net.cpp:395] fire9/relu_expand1x1 -> fire9/expand1x1 (in-place)
I0418 17:00:13.334136 31445 net.cpp:150] Setting up fire9/relu_expand1x1
I0418 17:00:13.334147 31445 net.cpp:157] Top shape: 32 256 14 14 (1605632)
I0418 17:00:13.334151 31445 net.cpp:165] Memory required for data: 945106816
I0418 17:00:13.334156 31445 layer_factory.hpp:77] Creating layer fire9/expand3x3
I0418 17:00:13.334167 31445 net.cpp:100] Creating Layer fire9/expand3x3
I0418 17:00:13.334172 31445 net.cpp:434] fire9/expand3x3 <- fire9/squeeze1x1_fire9/relu_squeeze1x1_0_split_1
I0418 17:00:13.334179 31445 net.cpp:408] fire9/expand3x3 -> fire9/expand3x3
I0418 17:00:13.337236 31445 net.cpp:150] Setting up fire9/expand3x3
I0418 17:00:13.337250 31445 net.cpp:157] Top shape: 32 256 14 14 (1605632)
I0418 17:00:13.337255 31445 net.cpp:165] Memory required for data: 951529344
I0418 17:00:13.337263 31445 layer_factory.hpp:77] Creating layer fire9/relu_expand3x3
I0418 17:00:13.337271 31445 net.cpp:100] Creating Layer fire9/relu_expand3x3
I0418 17:00:13.337277 31445 net.cpp:434] fire9/relu_expand3x3 <- fire9/expand3x3
I0418 17:00:13.337285 31445 net.cpp:395] fire9/relu_expand3x3 -> fire9/expand3x3 (in-place)
I0418 17:00:13.337498 31445 net.cpp:150] Setting up fire9/relu_expand3x3
I0418 17:00:13.337509 31445 net.cpp:157] Top shape: 32 256 14 14 (1605632)
I0418 17:00:13.337514 31445 net.cpp:165] Memory required for data: 957951872
I0418 17:00:13.337518 31445 layer_factory.hpp:77] Creating layer fire9/concat
I0418 17:00:13.337524 31445 net.cpp:100] Creating Layer fire9/concat
I0418 17:00:13.337529 31445 net.cpp:434] fire9/concat <- fire9/expand1x1
I0418 17:00:13.337534 31445 net.cpp:434] fire9/concat <- fire9/expand3x3
I0418 17:00:13.337543 31445 net.cpp:408] fire9/concat -> fire9/concat
I0418 17:00:13.337581 31445 net.cpp:150] Setting up fire9/concat
I0418 17:00:13.337590 31445 net.cpp:157] Top shape: 32 512 14 14 (3211264)
I0418 17:00:13.337594 31445 net.cpp:165] Memory required for data: 970796928
I0418 17:00:13.337599 31445 layer_factory.hpp:77] Creating layer drop9
I0418 17:00:13.337606 31445 net.cpp:100] Creating Layer drop9
I0418 17:00:13.337611 31445 net.cpp:434] drop9 <- fire9/concat
I0418 17:00:13.337616 31445 net.cpp:395] drop9 -> fire9/concat (in-place)
I0418 17:00:13.337658 31445 net.cpp:150] Setting up drop9
I0418 17:00:13.337667 31445 net.cpp:157] Top shape: 32 512 14 14 (3211264)
I0418 17:00:13.337671 31445 net.cpp:165] Memory required for data: 983641984
I0418 17:00:13.337676 31445 layer_factory.hpp:77] Creating layer conv10-cylinders
I0418 17:00:13.337685 31445 net.cpp:100] Creating Layer conv10-cylinders
I0418 17:00:13.337690 31445 net.cpp:434] conv10-cylinders <- fire9/concat
I0418 17:00:13.337698 31445 net.cpp:408] conv10-cylinders -> conv10-cylinders
I0418 17:00:13.339082 31445 net.cpp:150] Setting up conv10-cylinders
I0418 17:00:13.339095 31445 net.cpp:157] Top shape: 32 3 14 14 (18816)
I0418 17:00:13.339100 31445 net.cpp:165] Memory required for data: 983717248
I0418 17:00:13.339107 31445 layer_factory.hpp:77] Creating layer relu_conv10
I0418 17:00:13.339115 31445 net.cpp:100] Creating Layer relu_conv10
I0418 17:00:13.339120 31445 net.cpp:434] relu_conv10 <- conv10-cylinders
I0418 17:00:13.339128 31445 net.cpp:395] relu_conv10 -> conv10-cylinders (in-place)
I0418 17:00:13.339534 31445 net.cpp:150] Setting up relu_conv10
I0418 17:00:13.339547 31445 net.cpp:157] Top shape: 32 3 14 14 (18816)
I0418 17:00:13.339551 31445 net.cpp:165] Memory required for data: 983792512
I0418 17:00:13.339556 31445 layer_factory.hpp:77] Creating layer pool10
I0418 17:00:13.339565 31445 net.cpp:100] Creating Layer pool10
I0418 17:00:13.339571 31445 net.cpp:434] pool10 <- conv10-cylinders
I0418 17:00:13.339577 31445 net.cpp:408] pool10 -> pool10
I0418 17:00:13.339814 31445 net.cpp:150] Setting up pool10
I0418 17:00:13.339825 31445 net.cpp:157] Top shape: 32 3 1 1 (96)
I0418 17:00:13.339830 31445 net.cpp:165] Memory required for data: 983792896
I0418 17:00:13.339834 31445 layer_factory.hpp:77] Creating layer pool10_pool10_0_split
I0418 17:00:13.339843 31445 net.cpp:100] Creating Layer pool10_pool10_0_split
I0418 17:00:13.339846 31445 net.cpp:434] pool10_pool10_0_split <- pool10
I0418 17:00:13.339854 31445 net.cpp:408] pool10_pool10_0_split -> pool10_pool10_0_split_0
I0418 17:00:13.339862 31445 net.cpp:408] pool10_pool10_0_split -> pool10_pool10_0_split_1
I0418 17:00:13.339869 31445 net.cpp:408] pool10_pool10_0_split -> pool10_pool10_0_split_2
I0418 17:00:13.339934 31445 net.cpp:150] Setting up pool10_pool10_0_split
I0418 17:00:13.339942 31445 net.cpp:157] Top shape: 32 3 1 1 (96)
I0418 17:00:13.339946 31445 net.cpp:157] Top shape: 32 3 1 1 (96)
I0418 17:00:13.339962 31445 net.cpp:157] Top shape: 32 3 1 1 (96)
I0418 17:00:13.339965 31445 net.cpp:165] Memory required for data: 983794048
I0418 17:00:13.339969 31445 layer_factory.hpp:77] Creating layer loss
I0418 17:00:13.339977 31445 net.cpp:100] Creating Layer loss
I0418 17:00:13.339982 31445 net.cpp:434] loss <- pool10_pool10_0_split_0
I0418 17:00:13.339987 31445 net.cpp:434] loss <- label_data_1_split_0
I0418 17:00:13.339993 31445 net.cpp:408] loss -> loss
…
I0418 17:00:13.341621 31445 solver.cpp:181] Creating test net (#0) specified by net file: /home/rui/ws/src/active_semantic_mapping/squeezenet/train_val.prototxt
I0418 17:00:13.341683 31445 net.cpp:322] The NetState phase (1) differed from the phase (0) specified by a rule in layer data
I0418 17:00:13.342020 31445 net.cpp:58] Initializing net from parameters: 
state {
  phase: TEST
}
layer {
  name: "data"
  type: "Data"
  top: "data"
  top: "label"
  include {
    phase: TEST
  }
  transform_param {
    crop_size: 227
    mean_file: "/home/rui/Cylinders/dataset_v3/mean.binaryproto"
  }
  data_param {
    source: "/home/rui/Cylinders/dataset_v3/validation_lmdb"
    batch_size: 25
    backend: LMDB
  }
}
layer {
  name: "conv1"
  type: "Convolution"
  bottom: "data"
  top: "conv1"
  convolution_param {
    num_output: 64
    kernel_size: 3
    stride: 2
    weight_filler {
      type: "xavier"
    }
  }
}
layer {
  name: "relu_conv1"
  type: "ReLU"
  bottom: "conv1"
  top: "conv1"
}
layer {
  name: "pool1"
  type: "Pooling"
  bottom: "conv1"
  top: "pool1"
  pooling_param {
    pool: MAX
    kernel_size: 3
    stride: 2
  }
}
layer {
  name: "fire2/squeeze1x1"
  type: "Convolution"
  bottom: "pool1"
  top: "fire2/squeeze1x1"
  convolution_param {
    num_output: 16
    kernel_size: 1
    weight_filler {
      type: "xavier"
    }
  }
}
layer {
  name: "fire2/relu_squeeze1x1"
  type: "ReLU"
  bottom: "fire2/squeeze1x1"
  top: "fire2/squeeze1x1"
}
layer {
  name: "fire2/expand1x1"
  type: "Convolution"
  bottom: "fire2/squeeze1x1"
  top: "fire2/expand1x1"
  convolution_param {
    num_output: 64
    kernel_size: 1
    weight_filler {
      type: "xavier"
    }
  }
}
layer {
  name: "fire2/relu_expand1x1"
  type: "ReLU"
  bottom: "fire2/expand1x1"
  top: "fire2/expand1x1"
}
layer {
  name: "fire2/expand3x3"
  type: "Convolution"
  bottom: "fire2/squeeze1x1"
  top: "fire2/expand3x3"
  convolution_param {
    num_output: 64
    pad: 1
    kernel_size: 3
    weight_filler {
      type: "xavier"
    }
  }
}
layer {
  name: "fire2/relu_expand3x3"
  type: "ReLU"
  bottom: "fire2/expand3x3"
  top: "fire2/expand3x3"
}
layer {
  name: "fire2/concat"
  type: "Concat"
  bottom: "fire2/expand1x1"
  bottom: "fire2/expand3x3"
  top: "fire2/concat"
}
layer {
  name: "fire3/squeeze1x1"
  type: "Convolution"
  bottom: "fire2/concat"
  top: "fire3/squeeze1x1"
  convolution_param {
    num_output: 16
    kernel_size: 1
    weight_filler {
      type: "xavier"
    }
  }
}
layer {
  name: "fire3/relu_squeeze1x1"
  type: "ReLU"
  bottom: "fire3/squeeze1x1"
  top: "fire3/squeeze1x1"
}
layer {
  name: "fire3/expand1x1"
  type: "Convolution"
  bottom: "fire3/squeeze1x1"
  top: "fire3/expand1x1"
  convolution_param {
    num_output: 64
    kernel_size: 1
    weight_filler {
      type: "xavier"
    }
  }
}
layer {
  name: "fire3/relu_expand1x1"
  type: "ReLU"
  bottom: "fire3/expand1x1"
  top: "fire3/expand1x1"
}
layer {
  name: "fire3/expand3x3"
  type: "Convolution"
  bottom: "fire3/squeeze1x1"
  top: "fire3/expand3x3"
  convolution_param {
    num_output: 64
    pad: 1
    kernel_size: 3
    weight_filler {
      type: "xavier"
    }
  }
}
layer {
  name: "fire3/relu_expand3x3"
  type: "ReLU"
  bottom: "fire3/expand3x3"
  top: "fire3/expand3x3"
}
layer {
  name: "fire3/concat"
  type: "Concat"
  bottom: "fire3/expand1x1"
  bottom: "fire3/expand3x3"
  top: "fire3/concat"
}
layer {
  name: "pool3"
  type: "Pooling"
  bottom: "fire3/concat"
  top: "pool3"
  pooling_param {
    pool: MAX
    kernel_size: 3
    stride: 2
  }
}
layer {
  name: "fire4/squeeze1x1"
  type: "Convolution"
  bottom: "pool3"
  top: "fire4/squeeze1x1"
  convolution_param {
    num_output: 32
    kernel_size: 1
    weight_filler {
      type: "xavier"
    }
  }
}
layer {
  name: "fire4/relu_squeeze1x1"
  type: "ReLU"
  bottom: "fire4/squeeze1x1"
  top: "fire4/squeeze1x1"
}
layer {
  name: "fire4/expand1x1"
  type: "Convolution"
  bottom: "fire4/squeeze1x1"
  top: "fire4/expand1x1"
  convolution_param {
    num_output: 128
    kernel_size: 1
    weight_filler {
      type: "xavier"
    }
  }
}
layer {
  name: "fire4/relu_expand1x1"
  type: "ReLU"
  bottom: "fire4/expand1x1"
  top: "fire4/expand1x1"
}
layer {
  name: "fire4/expand3x3"
  type: "Convolution"
  bottom: "fire4/squeeze1x1"
  top: "fire4/expand3x3"
  convolution_param {
    num_output: 128
    pad: 1
    kernel_size: 3
    weight_filler {
      type: "xavier"
    }
  }
}
layer {
  name: "fire4/relu_expand3x3"
  type: "ReLU"
  bottom: "fire4/expand3x3"
  top: "fire4/expand3x3"
}
layer {
  name: "fire4/concat"
  type: "Concat"
  bottom: "fire4/expand1x1"
  bottom: "fire4/expand3x3"
  top: "fire4/concat"
}
layer {
  name: "fire5/squeeze1x1"
  type: "Convolution"
  bottom: "fire4/concat"
  top: "fire5/squeeze1x1"
  convolution_param {
    num_output: 32
    kernel_size: 1
    weight_filler {
      type: "xavier"
    }
  }
}
layer {
  name: "fire5/relu_squeeze1x1"
  type: "ReLU"
  bottom: "fire5/squeeze1x1"
  top: "fire5/squeeze1x1"
}
layer {
  name: "fire5/expand1x1"
  type: "Convolution"
  bottom: "fire5/squeeze1x1"
  top: "fire5/expand1x1"
  convolution_param {
    num_output: 128
    kernel_size: 1
    weight_filler {
      type: "xavier"
    }
  }
}
layer {
  name: "fire5/relu_expand1x1"
  type: "ReLU"
  bottom: "fire5/expand1x1"
  top: "fire5/expand1x1"
}
layer {
  name: "fire5/expand3x3"
  type: "Convolution"
  bottom: "fire5/squeeze1x1"
  top: "fire5/expand3x3"
  convolution_param {
    num_output: 128
    pad: 1
    kernel_size: 3
    weight_filler {
      type: "xavier"
    }
  }
}
layer {
  name: "fire5/relu_expand3x3"
  type: "ReLU"
  bottom: "fire5/expand3x3"
  top: "fire5/expand3x3"
}
layer {
  name: "fire5/concat"
  type: "Concat"
  bottom: "fire5/expand1x1"
  bottom: "fire5/expand3x3"
  top: "fire5/concat"
}
layer {
  name: "pool5"
  type: "Pooling"
  bottom: "fire5/concat"
  top: "pool5"
  pooling_param {
    pool: MAX
    kernel_size: 3
    stride: 2
  }
}
layer {
  name: "fire6/squeeze1x1"
  type: "Convolution"
  bottom: "pool5"
  top: "fire6/squeeze1x1"
  convolution_param {
    num_output: 48
    kernel_size: 1
    weight_filler {
      type: "xavier"
    }
  }
}
layer {
  name: "fire6/relu_squeeze1x1"
  type: "ReLU"
  bottom: "fire6/squeeze1x1"
  top: "fire6/squeeze1x1"
}
layer {
  name: "fire6/expand1x1"
  type: "Convolution"
  bottom: "fire6/squeeze1x1"
  top: "fire6/expand1x1"
  convolution_param {
    num_output: 192
    kernel_size: 1
    weight_filler {
      type: "xavier"
    }
  }
}
layer {
  name: "fire6/relu_expand1x1"
  type: "ReLU"
  bottom: "fire6/expand1x1"
  top: "fire6/expand1x1"
}
layer {
  name: "fire6/expand3x3"
  type: "Convolution"
  bottom: "fire6/squeeze1x1"
  top: "fire6/expand3x3"
  convolution_param {
    num_output: 192
    pad: 1
    kernel_size: 3
    weight_filler {
      type: "xavier"
    }
  }
}
layer {
  name: "fire6/relu_expand3x3"
  type: "ReLU"
  bottom: "fire6/expand3x3"
  top: "fire6/expand3x3"
}
layer {
  name: "fire6/concat"
  type: "Concat"
  bottom: "fire6/expand1x1"
  bottom: "fire6/expand3x3"
  top: "fire6/concat"
}
layer {
  name: "fire7/squeeze1x1"
  type: "Convolution"
  bottom: "fire6/concat"
  top: "fire7/squeeze1x1"
  convolution_param {
    num_output: 48
    kernel_size: 1
    weight_filler {
      type: "xavier"
    }
  }
}
layer {
  name: "fire7/relu_squeeze1x1"
  type: "ReLU"
  bottom: "fire7/squeeze1x1"
  top: "fire7/squeeze1x1"
}
layer {
  name: "fire7/expand1x1"
  type: "Convolution"
  bottom: "fire7/squeeze1x1"
  top: "fire7/expand1x1"
  convolution_param {
    num_output: 192
    kernel_size: 1
    weight_filler {
      type: "xavier"
    }
  }
}
layer {
  name: "fire7/relu_expand1x1"
  type: "ReLU"
  bottom: "fire7/expand1x1"
  top: "fire7/expand1x1"
}
layer {
  name: "fire7/expand3x3"
  type: "Convolution"
  bottom: "fire7/squeeze1x1"
  top: "fire7/expand3x3"
  convolution_param {
    num_output: 192
    pad: 1
    kernel_size: 3
    weight_filler {
      type: "xavier"
    }
  }
}
layer {
  name: "fire7/relu_expand3x3"
  type: "ReLU"
  bottom: "fire7/expand3x3"
  top: "fire7/expand3x3"
}
layer {
  name: "fire7/concat"
  type: "Concat"
  bottom: "fire7/expand1x1"
  bottom: "fire7/expand3x3"
  top: "fire7/concat"
}
layer {
  name: "fire8/squeeze1x1"
  type: "Convolution"
  bottom: "fire7/concat"
  top: "fire8/squeeze1x1"
  convolution_param {
    num_output: 64
    kernel_size: 1
    weight_filler {
      type: "xavier"
    }
  }
}
layer {
  name: "fire8/relu_squeeze1x1"
  type: "ReLU"
  bottom: "fire8/squeeze1x1"
  top: "fire8/squeeze1x1"
}
layer {
  name: "fire8/expand1x1"
  type: "Convolution"
  bottom: "fire8/squeeze1x1"
  top: "fire8/expand1x1"
  convolution_param {
    num_output: 256
    kernel_size: 1
    weight_filler {
      type: "xavier"
    }
  }
}
layer {
  name: "fire8/relu_expand1x1"
  type: "ReLU"
  bottom: "fire8/expand1x1"
  top: "fire8/expand1x1"
}
layer {
  name: "fire8/expand3x3"
  type: "Convolution"
  bottom: "fire8/squeeze1x1"
  top: "fire8/expand3x3"
  convolution_param {
    num_output: 256
    pad: 1
    kernel_size: 3
    weight_filler {
      type: "xavier"
    }
  }
}
layer {
  name: "fire8/relu_expand3x3"
  type: "ReLU"
  bottom: "fire8/expand3x3"
  top: "fire8/expand3x3"
}
layer {
  name: "fire8/concat"
  type: "Concat"
  bottom: "fire8/expand1x1"
  bottom: "fire8/expand3x3"
  top: "fire8/concat"
}
layer {
  name: "fire9/squeeze1x1"
  type: "Convolution"
  bottom: "fire8/concat"
  top: "fire9/squeeze1x1"
  convolution_param {
    num_output: 64
    kernel_size: 1
    weight_filler {
      type: "xavier"
    }
  }
}
layer {
  name: "fire9/relu_squeeze1x1"
  type: "ReLU"
  bottom: "fire9/squeeze1x1"
  top: "fire9/squeeze1x1"
}
layer {
  name: "fire9/expand1x1"
  type: "Convolution"
  bottom: "fire9/squeeze1x1"
  top: "fire9/expand1x1"
  convolution_param {
    num_output: 256
    kernel_size: 1
    weight_filler {
      type: "xavier"
    }
  }
}
layer {
  name: "fire9/relu_expand1x1"
  type: "ReLU"
  bottom: "fire9/expand1x1"
  top: "fire9/expand1x1"
}
layer {
  name: "fire9/expand3x3"
  type: "Convolution"
  bottom: "fire9/squeeze1x1"
  top: "fire9/expand3x3"
  convolution_param {
    num_output: 256
    pad: 1
    kernel_size: 3
    weight_filler {
      type: "xavier"
    }
  }
}
layer {
  name: "fire9/relu_expand3x3"
  type: "ReLU"
  bottom: "fire9/expand3x3"
  top: "fire9/expand3x3"
}
layer {
  name: "fire9/concat"
  type: "Concat"
  bottom: "fire9/expand1x1"
  bottom: "fire9/expand3x3"
  top: "fire9/concat"
}
layer {
  name: "drop9"
  type: "Dropout"
  bottom: "fire9/concat"
  top: "fire9/concat"
  dropout_param {
    dropout_ratio: 0.5
  }
}
layer {
  name: "conv10-cylinders"
  type: "Convolution"
  bottom: "fire9/concat"
  top: "conv10-cylinders"
  convolution_param {
    num_output: 3
    kernel_size: 1
    weight_filler {
      type: "gaussian"
      mean: 0
      std: 0.01
    }
  }
}
layer {
  name: "relu_conv10"
  type: "ReLU"
  bottom: "conv10-cylinders"
  top: "conv10-cylinders"
}
layer {
  name: "pool10"
  type: "Pooling"
  bottom: "conv10-cylinders"
  top: "pool10"
  pooling_param {
    pool: AVE
    global_pooling: true
  }
}
layer {
  name: "loss"
  type: "SoftmaxWithLoss"
  bottom: "pool10"
  bottom: "label"
  top: "loss"
}
layer {
  name: "accuracy"
  type: "Accuracy"
  bottom: "pool10"
  bottom: "label"
  top: "accuracy"
}
layer {
  name: "accuracy_top5"
  type: "Accuracy"
  bottom: "pool10"
  bottom: "label"
  top: "accuracy_top5"
  accuracy_param {
    top_k: 3
  }
}
I0418 17:00:13.342300 31445 layer_factory.hpp:77] Creating layer data
I0418 17:00:13.342383 31445 net.cpp:100] Creating Layer data
I0418 17:00:13.342392 31445 net.cpp:408] data -> data
I0418 17:00:13.342402 31445 net.cpp:408] data -> label
I0418 17:00:13.342411 31445 data_transformer.cpp:25] Loading mean file from: /home/rui/Cylinders/dataset_v3/mean.binaryproto
I0418 17:00:13.343122 31452 db_lmdb.cpp:35] Opened lmdb /home/rui/Cylinders/dataset_v3/validation_lmdb
I0418 17:00:13.344321 31445 data_layer.cpp:41] output data size: 25,3,227,227
I0418 17:00:13.372413 31445 net.cpp:150] Setting up data
I0418 17:00:13.372448 31445 net.cpp:157] Top shape: 25 3 227 227 (3864675)
I0418 17:00:13.372454 31445 net.cpp:157] Top shape: 25 (25)
I0418 17:00:13.372457 31445 net.cpp:165] Memory required for data: 15458800
I0418 17:00:13.372465 31445 layer_factory.hpp:77] Creating layer label_data_1_split
I0418 17:00:13.372483 31445 net.cpp:100] Creating Layer label_data_1_split
I0418 17:00:13.372486 31445 net.cpp:434] label_data_1_split <- label
I0418 17:00:13.372495 31445 net.cpp:408] label_data_1_split -> label_data_1_split_0
I0418 17:00:13.372550 31445 net.cpp:408] label_data_1_split -> label_data_1_split_1
I0418 17:00:13.372557 31445 net.cpp:408] label_data_1_split -> label_data_1_split_2
I0418 17:00:13.372638 31445 net.cpp:150] Setting up label_data_1_split
I0418 17:00:13.372647 31445 net.cpp:157] Top shape: 25 (25)
I0418 17:00:13.372650 31445 net.cpp:157] Top shape: 25 (25)
I0418 17:00:13.372654 31445 net.cpp:157] Top shape: 25 (25)
I0418 17:00:13.372658 31445 net.cpp:165] Memory required for data: 15459100
I0418 17:00:13.372660 31445 layer_factory.hpp:77] Creating layer conv1
I0418 17:00:13.372674 31445 net.cpp:100] Creating Layer conv1
I0418 17:00:13.372678 31445 net.cpp:434] conv1 <- data
I0418 17:00:13.372684 31445 net.cpp:408] conv1 -> conv1
I0418 17:00:13.376396 31445 net.cpp:150] Setting up conv1
I0418 17:00:13.376411 31445 net.cpp:157] Top shape: 25 64 113 113 (20430400)
I0418 17:00:13.376415 31445 net.cpp:165] Memory required for data: 97180700
I0418 17:00:13.376428 31445 layer_factory.hpp:77] Creating layer relu_conv1
I0418 17:00:13.376436 31445 net.cpp:100] Creating Layer relu_conv1
I0418 17:00:13.376441 31445 net.cpp:434] relu_conv1 <- conv1
I0418 17:00:13.376446 31445 net.cpp:395] relu_conv1 -> conv1 (in-place)
I0418 17:00:13.376884 31445 net.cpp:150] Setting up relu_conv1
I0418 17:00:13.376895 31445 net.cpp:157] Top shape: 25 64 113 113 (20430400)
I0418 17:00:13.376899 31445 net.cpp:165] Memory required for data: 178902300
I0418 17:00:13.376904 31445 layer_factory.hpp:77] Creating layer pool1
I0418 17:00:13.376912 31445 net.cpp:100] Creating Layer pool1
I0418 17:00:13.376916 31445 net.cpp:434] pool1 <- conv1
I0418 17:00:13.376924 31445 net.cpp:408] pool1 -> pool1
I0418 17:00:13.376983 31445 net.cpp:150] Setting up pool1
I0418 17:00:13.376991 31445 net.cpp:157] Top shape: 25 64 56 56 (5017600)
I0418 17:00:13.376994 31445 net.cpp:165] Memory required for data: 198972700
I0418 17:00:13.376997 31445 layer_factory.hpp:77] Creating layer fire2/squeeze1x1
I0418 17:00:13.377007 31445 net.cpp:100] Creating Layer fire2/squeeze1x1
I0418 17:00:13.377012 31445 net.cpp:434] fire2/squeeze1x1 <- pool1
I0418 17:00:13.377017 31445 net.cpp:408] fire2/squeeze1x1 -> fire2/squeeze1x1
I0418 17:00:13.378666 31445 net.cpp:150] Setting up fire2/squeeze1x1
I0418 17:00:13.378690 31445 net.cpp:157] Top shape: 25 16 56 56 (1254400)
I0418 17:00:13.378695 31445 net.cpp:165] Memory required for data: 203990300
I0418 17:00:13.378711 31445 layer_factory.hpp:77] Creating layer fire2/relu_squeeze1x1
I0418 17:00:13.378723 31445 net.cpp:100] Creating Layer fire2/relu_squeeze1x1
I0418 17:00:13.378727 31445 net.cpp:434] fire2/relu_squeeze1x1 <- fire2/squeeze1x1
I0418 17:00:13.378756 31445 net.cpp:395] fire2/relu_squeeze1x1 -> fire2/squeeze1x1 (in-place)
I0418 17:00:13.378980 31445 net.cpp:150] Setting up fire2/relu_squeeze1x1
I0418 17:00:13.378989 31445 net.cpp:157] Top shape: 25 16 56 56 (1254400)
I0418 17:00:13.378993 31445 net.cpp:165] Memory required for data: 209007900
I0418 17:00:13.378998 31445 layer_factory.hpp:77] Creating layer fire2/squeeze1x1_fire2/relu_squeeze1x1_0_split
I0418 17:00:13.379004 31445 net.cpp:100] Creating Layer fire2/squeeze1x1_fire2/relu_squeeze1x1_0_split
I0418 17:00:13.379009 31445 net.cpp:434] fire2/squeeze1x1_fire2/relu_squeeze1x1_0_split <- fire2/squeeze1x1
I0418 17:00:13.379014 31445 net.cpp:408] fire2/squeeze1x1_fire2/relu_squeeze1x1_0_split -> fire2/squeeze1x1_fire2/relu_squeeze1x1_0_split_0
I0418 17:00:13.379025 31445 net.cpp:408] fire2/squeeze1x1_fire2/relu_squeeze1x1_0_split -> fire2/squeeze1x1_fire2/relu_squeeze1x1_0_split_1
I0418 17:00:13.379081 31445 net.cpp:150] Setting up fire2/squeeze1x1_fire2/relu_squeeze1x1_0_split
I0418 17:00:13.379088 31445 net.cpp:157] Top shape: 25 16 56 56 (1254400)
I0418 17:00:13.379092 31445 net.cpp:157] Top shape: 25 16 56 56 (1254400)
I0418 17:00:13.379096 31445 net.cpp:165] Memory required for data: 219043100
I0418 17:00:13.379099 31445 layer_factory.hpp:77] Creating layer fire2/expand1x1
I0418 17:00:13.379113 31445 net.cpp:100] Creating Layer fire2/expand1x1
I0418 17:00:13.379118 31445 net.cpp:434] fire2/expand1x1 <- fire2/squeeze1x1_fire2/relu_squeeze1x1_0_split_0
I0418 17:00:13.379125 31445 net.cpp:408] fire2/expand1x1 -> fire2/expand1x1
I0418 17:00:13.380586 31445 net.cpp:150] Setting up fire2/expand1x1
I0418 17:00:13.380606 31445 net.cpp:157] Top shape: 25 64 56 56 (5017600)
I0418 17:00:13.380610 31445 net.cpp:165] Memory required for data: 239113500
I0418 17:00:13.380626 31445 layer_factory.hpp:77] Creating layer fire2/relu_expand1x1
I0418 17:00:13.380636 31445 net.cpp:100] Creating Layer fire2/relu_expand1x1
I0418 17:00:13.380641 31445 net.cpp:434] fire2/relu_expand1x1 <- fire2/expand1x1
I0418 17:00:13.380650 31445 net.cpp:395] fire2/relu_expand1x1 -> fire2/expand1x1 (in-place)
I0418 17:00:13.385792 31445 net.cpp:150] Setting up fire2/relu_expand1x1
I0418 17:00:13.385809 31445 net.cpp:157] Top shape: 25 64 56 56 (5017600)
I0418 17:00:13.385813 31445 net.cpp:165] Memory required for data: 259183900
I0418 17:00:13.385818 31445 layer_factory.hpp:77] Creating layer fire2/expand3x3
I0418 17:00:13.385833 31445 net.cpp:100] Creating Layer fire2/expand3x3
I0418 17:00:13.385838 31445 net.cpp:434] fire2/expand3x3 <- fire2/squeeze1x1_fire2/relu_squeeze1x1_0_split_1
I0418 17:00:13.385845 31445 net.cpp:408] fire2/expand3x3 -> fire2/expand3x3
I0418 17:00:13.387357 31445 net.cpp:150] Setting up fire2/expand3x3
I0418 17:00:13.387385 31445 net.cpp:157] Top shape: 25 64 56 56 (5017600)
I0418 17:00:13.387389 31445 net.cpp:165] Memory required for data: 279254300
I0418 17:00:13.387400 31445 layer_factory.hpp:77] Creating layer fire2/relu_expand3x3
I0418 17:00:13.387411 31445 net.cpp:100] Creating Layer fire2/relu_expand3x3
I0418 17:00:13.387416 31445 net.cpp:434] fire2/relu_expand3x3 <- fire2/expand3x3
I0418 17:00:13.387425 31445 net.cpp:395] fire2/relu_expand3x3 -> fire2/expand3x3 (in-place)
I0418 17:00:13.387833 31445 net.cpp:150] Setting up fire2/relu_expand3x3
I0418 17:00:13.387846 31445 net.cpp:157] Top shape: 25 64 56 56 (5017600)
I0418 17:00:13.387850 31445 net.cpp:165] Memory required for data: 299324700
I0418 17:00:13.387854 31445 layer_factory.hpp:77] Creating layer fire2/concat
I0418 17:00:13.387861 31445 net.cpp:100] Creating Layer fire2/concat
I0418 17:00:13.387866 31445 net.cpp:434] fire2/concat <- fire2/expand1x1
I0418 17:00:13.387871 31445 net.cpp:434] fire2/concat <- fire2/expand3x3
I0418 17:00:13.387876 31445 net.cpp:408] fire2/concat -> fire2/concat
I0418 17:00:13.387915 31445 net.cpp:150] Setting up fire2/concat
I0418 17:00:13.387925 31445 net.cpp:157] Top shape: 25 128 56 56 (10035200)
I0418 17:00:13.387928 31445 net.cpp:165] Memory required for data: 339465500
I0418 17:00:13.387931 31445 layer_factory.hpp:77] Creating layer fire3/squeeze1x1
I0418 17:00:13.387965 31445 net.cpp:100] Creating Layer fire3/squeeze1x1
I0418 17:00:13.387970 31445 net.cpp:434] fire3/squeeze1x1 <- fire2/concat
I0418 17:00:13.387976 31445 net.cpp:408] fire3/squeeze1x1 -> fire3/squeeze1x1
I0418 17:00:13.389390 31445 net.cpp:150] Setting up fire3/squeeze1x1
I0418 17:00:13.389415 31445 net.cpp:157] Top shape: 25 16 56 56 (1254400)
I0418 17:00:13.389418 31445 net.cpp:165] Memory required for data: 344483100
I0418 17:00:13.389436 31445 layer_factory.hpp:77] Creating layer fire3/relu_squeeze1x1
I0418 17:00:13.389447 31445 net.cpp:100] Creating Layer fire3/relu_squeeze1x1
I0418 17:00:13.389451 31445 net.cpp:434] fire3/relu_squeeze1x1 <- fire3/squeeze1x1
I0418 17:00:13.389458 31445 net.cpp:395] fire3/relu_squeeze1x1 -> fire3/squeeze1x1 (in-place)
I0418 17:00:13.389660 31445 net.cpp:150] Setting up fire3/relu_squeeze1x1
I0418 17:00:13.389672 31445 net.cpp:157] Top shape: 25 16 56 56 (1254400)
I0418 17:00:13.389675 31445 net.cpp:165] Memory required for data: 349500700
I0418 17:00:13.389679 31445 layer_factory.hpp:77] Creating layer fire3/squeeze1x1_fire3/relu_squeeze1x1_0_split
I0418 17:00:13.389688 31445 net.cpp:100] Creating Layer fire3/squeeze1x1_fire3/relu_squeeze1x1_0_split
I0418 17:00:13.389690 31445 net.cpp:434] fire3/squeeze1x1_fire3/relu_squeeze1x1_0_split <- fire3/squeeze1x1
I0418 17:00:13.389698 31445 net.cpp:408] fire3/squeeze1x1_fire3/relu_squeeze1x1_0_split -> fire3/squeeze1x1_fire3/relu_squeeze1x1_0_split_0
I0418 17:00:13.389705 31445 net.cpp:408] fire3/squeeze1x1_fire3/relu_squeeze1x1_0_split -> fire3/squeeze1x1_fire3/relu_squeeze1x1_0_split_1
I0418 17:00:13.389757 31445 net.cpp:150] Setting up fire3/squeeze1x1_fire3/relu_squeeze1x1_0_split
I0418 17:00:13.389766 31445 net.cpp:157] Top shape: 25 16 56 56 (1254400)
I0418 17:00:13.389770 31445 net.cpp:157] Top shape: 25 16 56 56 (1254400)
I0418 17:00:13.389773 31445 net.cpp:165] Memory required for data: 359535900
I0418 17:00:13.389777 31445 layer_factory.hpp:77] Creating layer fire3/expand1x1
I0418 17:00:13.389792 31445 net.cpp:100] Creating Layer fire3/expand1x1
I0418 17:00:13.389797 31445 net.cpp:434] fire3/expand1x1 <- fire3/squeeze1x1_fire3/relu_squeeze1x1_0_split_0
I0418 17:00:13.389803 31445 net.cpp:408] fire3/expand1x1 -> fire3/expand1x1
I0418 17:00:13.395750 31445 net.cpp:150] Setting up fire3/expand1x1
I0418 17:00:13.395773 31445 net.cpp:157] Top shape: 25 64 56 56 (5017600)
I0418 17:00:13.395777 31445 net.cpp:165] Memory required for data: 379606300
I0418 17:00:13.395787 31445 layer_factory.hpp:77] Creating layer fire3/relu_expand1x1
I0418 17:00:13.395797 31445 net.cpp:100] Creating Layer fire3/relu_expand1x1
I0418 17:00:13.395802 31445 net.cpp:434] fire3/relu_expand1x1 <- fire3/expand1x1
I0418 17:00:13.395808 31445 net.cpp:395] fire3/relu_expand1x1 -> fire3/expand1x1 (in-place)
I0418 17:00:13.396245 31445 net.cpp:150] Setting up fire3/relu_expand1x1
I0418 17:00:13.396256 31445 net.cpp:157] Top shape: 25 64 56 56 (5017600)
I0418 17:00:13.396260 31445 net.cpp:165] Memory required for data: 399676700
I0418 17:00:13.396263 31445 layer_factory.hpp:77] Creating layer fire3/expand3x3
I0418 17:00:13.396275 31445 net.cpp:100] Creating Layer fire3/expand3x3
I0418 17:00:13.396281 31445 net.cpp:434] fire3/expand3x3 <- fire3/squeeze1x1_fire3/relu_squeeze1x1_0_split_1
I0418 17:00:13.396287 31445 net.cpp:408] fire3/expand3x3 -> fire3/expand3x3
I0418 17:00:13.397604 31445 net.cpp:150] Setting up fire3/expand3x3
I0418 17:00:13.397626 31445 net.cpp:157] Top shape: 25 64 56 56 (5017600)
I0418 17:00:13.397629 31445 net.cpp:165] Memory required for data: 419747100
I0418 17:00:13.397639 31445 layer_factory.hpp:77] Creating layer fire3/relu_expand3x3
I0418 17:00:13.397650 31445 net.cpp:100] Creating Layer fire3/relu_expand3x3
I0418 17:00:13.397653 31445 net.cpp:434] fire3/relu_expand3x3 <- fire3/expand3x3
I0418 17:00:13.397660 31445 net.cpp:395] fire3/relu_expand3x3 -> fire3/expand3x3 (in-place)
I0418 17:00:13.398079 31445 net.cpp:150] Setting up fire3/relu_expand3x3
I0418 17:00:13.398090 31445 net.cpp:157] Top shape: 25 64 56 56 (5017600)
I0418 17:00:13.398125 31445 net.cpp:165] Memory required for data: 439817500
I0418 17:00:13.398130 31445 layer_factory.hpp:77] Creating layer fire3/concat
I0418 17:00:13.398139 31445 net.cpp:100] Creating Layer fire3/concat
I0418 17:00:13.398144 31445 net.cpp:434] fire3/concat <- fire3/expand1x1
I0418 17:00:13.398149 31445 net.cpp:434] fire3/concat <- fire3/expand3x3
I0418 17:00:13.398154 31445 net.cpp:408] fire3/concat -> fire3/concat
I0418 17:00:13.398197 31445 net.cpp:150] Setting up fire3/concat
I0418 17:00:13.398205 31445 net.cpp:157] Top shape: 25 128 56 56 (10035200)
I0418 17:00:13.398208 31445 net.cpp:165] Memory required for data: 479958300
I0418 17:00:13.398211 31445 layer_factory.hpp:77] Creating layer pool3
I0418 17:00:13.398218 31445 net.cpp:100] Creating Layer pool3
I0418 17:00:13.398222 31445 net.cpp:434] pool3 <- fire3/concat
I0418 17:00:13.398228 31445 net.cpp:408] pool3 -> pool3
I0418 17:00:13.398283 31445 net.cpp:150] Setting up pool3
I0418 17:00:13.398289 31445 net.cpp:157] Top shape: 25 128 28 28 (2508800)
I0418 17:00:13.398293 31445 net.cpp:165] Memory required for data: 489993500
I0418 17:00:13.398295 31445 layer_factory.hpp:77] Creating layer fire4/squeeze1x1
I0418 17:00:13.398306 31445 net.cpp:100] Creating Layer fire4/squeeze1x1
I0418 17:00:13.398310 31445 net.cpp:434] fire4/squeeze1x1 <- pool3
I0418 17:00:13.398316 31445 net.cpp:408] fire4/squeeze1x1 -> fire4/squeeze1x1
I0418 17:00:13.399981 31445 net.cpp:150] Setting up fire4/squeeze1x1
I0418 17:00:13.400007 31445 net.cpp:157] Top shape: 25 32 28 28 (627200)
I0418 17:00:13.400010 31445 net.cpp:165] Memory required for data: 492502300
I0418 17:00:13.400020 31445 layer_factory.hpp:77] Creating layer fire4/relu_squeeze1x1
I0418 17:00:13.400032 31445 net.cpp:100] Creating Layer fire4/relu_squeeze1x1
I0418 17:00:13.400037 31445 net.cpp:434] fire4/relu_squeeze1x1 <- fire4/squeeze1x1
I0418 17:00:13.400043 31445 net.cpp:395] fire4/relu_squeeze1x1 -> fire4/squeeze1x1 (in-place)
I0418 17:00:13.400265 31445 net.cpp:150] Setting up fire4/relu_squeeze1x1
I0418 17:00:13.400274 31445 net.cpp:157] Top shape: 25 32 28 28 (627200)
I0418 17:00:13.400277 31445 net.cpp:165] Memory required for data: 495011100
I0418 17:00:13.400281 31445 layer_factory.hpp:77] Creating layer fire4/squeeze1x1_fire4/relu_squeeze1x1_0_split
I0418 17:00:13.400290 31445 net.cpp:100] Creating Layer fire4/squeeze1x1_fire4/relu_squeeze1x1_0_split
I0418 17:00:13.400293 31445 net.cpp:434] fire4/squeeze1x1_fire4/relu_squeeze1x1_0_split <- fire4/squeeze1x1
I0418 17:00:13.400302 31445 net.cpp:408] fire4/squeeze1x1_fire4/relu_squeeze1x1_0_split -> fire4/squeeze1x1_fire4/relu_squeeze1x1_0_split_0
I0418 17:00:13.400311 31445 net.cpp:408] fire4/squeeze1x1_fire4/relu_squeeze1x1_0_split -> fire4/squeeze1x1_fire4/relu_squeeze1x1_0_split_1
I0418 17:00:13.400369 31445 net.cpp:150] Setting up fire4/squeeze1x1_fire4/relu_squeeze1x1_0_split
I0418 17:00:13.400377 31445 net.cpp:157] Top shape: 25 32 28 28 (627200)
I0418 17:00:13.400382 31445 net.cpp:157] Top shape: 25 32 28 28 (627200)
I0418 17:00:13.400384 31445 net.cpp:165] Memory required for data: 500028700
I0418 17:00:13.400388 31445 layer_factory.hpp:77] Creating layer fire4/expand1x1
I0418 17:00:13.400399 31445 net.cpp:100] Creating Layer fire4/expand1x1
I0418 17:00:13.400404 31445 net.cpp:434] fire4/expand1x1 <- fire4/squeeze1x1_fire4/relu_squeeze1x1_0_split_0
I0418 17:00:13.400410 31445 net.cpp:408] fire4/expand1x1 -> fire4/expand1x1
I0418 17:00:13.403445 31445 net.cpp:150] Setting up fire4/expand1x1
I0418 17:00:13.403457 31445 net.cpp:157] Top shape: 25 128 28 28 (2508800)
I0418 17:00:13.403460 31445 net.cpp:165] Memory required for data: 510063900
I0418 17:00:13.403477 31445 layer_factory.hpp:77] Creating layer fire4/relu_expand1x1
I0418 17:00:13.403486 31445 net.cpp:100] Creating Layer fire4/relu_expand1x1
I0418 17:00:13.403491 31445 net.cpp:434] fire4/relu_expand1x1 <- fire4/expand1x1
I0418 17:00:13.403496 31445 net.cpp:395] fire4/relu_expand1x1 -> fire4/expand1x1 (in-place)
I0418 17:00:13.403911 31445 net.cpp:150] Setting up fire4/relu_expand1x1
I0418 17:00:13.403946 31445 net.cpp:157] Top shape: 25 128 28 28 (2508800)
I0418 17:00:13.403949 31445 net.cpp:165] Memory required for data: 520099100
I0418 17:00:13.403954 31445 layer_factory.hpp:77] Creating layer fire4/expand3x3
I0418 17:00:13.403966 31445 net.cpp:100] Creating Layer fire4/expand3x3
I0418 17:00:13.403971 31445 net.cpp:434] fire4/expand3x3 <- fire4/squeeze1x1_fire4/relu_squeeze1x1_0_split_1
I0418 17:00:13.403978 31445 net.cpp:408] fire4/expand3x3 -> fire4/expand3x3
I0418 17:00:13.405632 31445 net.cpp:150] Setting up fire4/expand3x3
I0418 17:00:13.405643 31445 net.cpp:157] Top shape: 25 128 28 28 (2508800)
I0418 17:00:13.405647 31445 net.cpp:165] Memory required for data: 530134300
I0418 17:00:13.405654 31445 layer_factory.hpp:77] Creating layer fire4/relu_expand3x3
I0418 17:00:13.405663 31445 net.cpp:100] Creating Layer fire4/relu_expand3x3
I0418 17:00:13.405666 31445 net.cpp:434] fire4/relu_expand3x3 <- fire4/expand3x3
I0418 17:00:13.405673 31445 net.cpp:395] fire4/relu_expand3x3 -> fire4/expand3x3 (in-place)
I0418 17:00:13.406080 31445 net.cpp:150] Setting up fire4/relu_expand3x3
I0418 17:00:13.406090 31445 net.cpp:157] Top shape: 25 128 28 28 (2508800)
I0418 17:00:13.406092 31445 net.cpp:165] Memory required for data: 540169500
I0418 17:00:13.406096 31445 layer_factory.hpp:77] Creating layer fire4/concat
I0418 17:00:13.406105 31445 net.cpp:100] Creating Layer fire4/concat
I0418 17:00:13.406108 31445 net.cpp:434] fire4/concat <- fire4/expand1x1
I0418 17:00:13.406113 31445 net.cpp:434] fire4/concat <- fire4/expand3x3
I0418 17:00:13.406119 31445 net.cpp:408] fire4/concat -> fire4/concat
I0418 17:00:13.406160 31445 net.cpp:150] Setting up fire4/concat
I0418 17:00:13.406168 31445 net.cpp:157] Top shape: 25 256 28 28 (5017600)
I0418 17:00:13.406172 31445 net.cpp:165] Memory required for data: 560239900
I0418 17:00:13.406175 31445 layer_factory.hpp:77] Creating layer fire5/squeeze1x1
I0418 17:00:13.406185 31445 net.cpp:100] Creating Layer fire5/squeeze1x1
I0418 17:00:13.406189 31445 net.cpp:434] fire5/squeeze1x1 <- fire4/concat
I0418 17:00:13.406198 31445 net.cpp:408] fire5/squeeze1x1 -> fire5/squeeze1x1
I0418 17:00:13.407662 31445 net.cpp:150] Setting up fire5/squeeze1x1
I0418 17:00:13.407673 31445 net.cpp:157] Top shape: 25 32 28 28 (627200)
I0418 17:00:13.407677 31445 net.cpp:165] Memory required for data: 562748700
I0418 17:00:13.407685 31445 layer_factory.hpp:77] Creating layer fire5/relu_squeeze1x1
I0418 17:00:13.407693 31445 net.cpp:100] Creating Layer fire5/relu_squeeze1x1
I0418 17:00:13.407698 31445 net.cpp:434] fire5/relu_squeeze1x1 <- fire5/squeeze1x1
I0418 17:00:13.407706 31445 net.cpp:395] fire5/relu_squeeze1x1 -> fire5/squeeze1x1 (in-place)
I0418 17:00:13.407917 31445 net.cpp:150] Setting up fire5/relu_squeeze1x1
I0418 17:00:13.407925 31445 net.cpp:157] Top shape: 25 32 28 28 (627200)
I0418 17:00:13.407928 31445 net.cpp:165] Memory required for data: 565257500
I0418 17:00:13.407932 31445 layer_factory.hpp:77] Creating layer fire5/squeeze1x1_fire5/relu_squeeze1x1_0_split
I0418 17:00:13.407949 31445 net.cpp:100] Creating Layer fire5/squeeze1x1_fire5/relu_squeeze1x1_0_split
I0418 17:00:13.407953 31445 net.cpp:434] fire5/squeeze1x1_fire5/relu_squeeze1x1_0_split <- fire5/squeeze1x1
I0418 17:00:13.407959 31445 net.cpp:408] fire5/squeeze1x1_fire5/relu_squeeze1x1_0_split -> fire5/squeeze1x1_fire5/relu_squeeze1x1_0_split_0
I0418 17:00:13.407969 31445 net.cpp:408] fire5/squeeze1x1_fire5/relu_squeeze1x1_0_split -> fire5/squeeze1x1_fire5/relu_squeeze1x1_0_split_1
I0418 17:00:13.408025 31445 net.cpp:150] Setting up fire5/squeeze1x1_fire5/relu_squeeze1x1_0_split
I0418 17:00:13.408033 31445 net.cpp:157] Top shape: 25 32 28 28 (627200)
I0418 17:00:13.408038 31445 net.cpp:157] Top shape: 25 32 28 28 (627200)
I0418 17:00:13.408041 31445 net.cpp:165] Memory required for data: 570275100
I0418 17:00:13.408044 31445 layer_factory.hpp:77] Creating layer fire5/expand1x1
I0418 17:00:13.408054 31445 net.cpp:100] Creating Layer fire5/expand1x1
I0418 17:00:13.408058 31445 net.cpp:434] fire5/expand1x1 <- fire5/squeeze1x1_fire5/relu_squeeze1x1_0_split_0
I0418 17:00:13.408077 31445 net.cpp:408] fire5/expand1x1 -> fire5/expand1x1
I0418 17:00:13.409495 31445 net.cpp:150] Setting up fire5/expand1x1
I0418 17:00:13.409505 31445 net.cpp:157] Top shape: 25 128 28 28 (2508800)
I0418 17:00:13.409509 31445 net.cpp:165] Memory required for data: 580310300
I0418 17:00:13.409517 31445 layer_factory.hpp:77] Creating layer fire5/relu_expand1x1
I0418 17:00:13.409524 31445 net.cpp:100] Creating Layer fire5/relu_expand1x1
I0418 17:00:13.409529 31445 net.cpp:434] fire5/relu_expand1x1 <- fire5/expand1x1
I0418 17:00:13.409534 31445 net.cpp:395] fire5/relu_expand1x1 -> fire5/expand1x1 (in-place)
I0418 17:00:13.409950 31445 net.cpp:150] Setting up fire5/relu_expand1x1
I0418 17:00:13.409960 31445 net.cpp:157] Top shape: 25 128 28 28 (2508800)
I0418 17:00:13.409963 31445 net.cpp:165] Memory required for data: 590345500
I0418 17:00:13.409967 31445 layer_factory.hpp:77] Creating layer fire5/expand3x3
I0418 17:00:13.409978 31445 net.cpp:100] Creating Layer fire5/expand3x3
I0418 17:00:13.409982 31445 net.cpp:434] fire5/expand3x3 <- fire5/squeeze1x1_fire5/relu_squeeze1x1_0_split_1
I0418 17:00:13.409991 31445 net.cpp:408] fire5/expand3x3 -> fire5/expand3x3
I0418 17:00:13.411682 31445 net.cpp:150] Setting up fire5/expand3x3
I0418 17:00:13.411694 31445 net.cpp:157] Top shape: 25 128 28 28 (2508800)
I0418 17:00:13.411697 31445 net.cpp:165] Memory required for data: 600380700
I0418 17:00:13.411705 31445 layer_factory.hpp:77] Creating layer fire5/relu_expand3x3
I0418 17:00:13.411711 31445 net.cpp:100] Creating Layer fire5/relu_expand3x3
I0418 17:00:13.411715 31445 net.cpp:434] fire5/relu_expand3x3 <- fire5/expand3x3
I0418 17:00:13.411723 31445 net.cpp:395] fire5/relu_expand3x3 -> fire5/expand3x3 (in-place)
I0418 17:00:13.412135 31445 net.cpp:150] Setting up fire5/relu_expand3x3
I0418 17:00:13.412145 31445 net.cpp:157] Top shape: 25 128 28 28 (2508800)
I0418 17:00:13.412148 31445 net.cpp:165] Memory required for data: 610415900
I0418 17:00:13.412153 31445 layer_factory.hpp:77] Creating layer fire5/concat
I0418 17:00:13.412159 31445 net.cpp:100] Creating Layer fire5/concat
I0418 17:00:13.412163 31445 net.cpp:434] fire5/concat <- fire5/expand1x1
I0418 17:00:13.412168 31445 net.cpp:434] fire5/concat <- fire5/expand3x3
I0418 17:00:13.412175 31445 net.cpp:408] fire5/concat -> fire5/concat
I0418 17:00:13.412215 31445 net.cpp:150] Setting up fire5/concat
I0418 17:00:13.412223 31445 net.cpp:157] Top shape: 25 256 28 28 (5017600)
I0418 17:00:13.412226 31445 net.cpp:165] Memory required for data: 630486300
I0418 17:00:13.412230 31445 layer_factory.hpp:77] Creating layer pool5
I0418 17:00:13.412237 31445 net.cpp:100] Creating Layer pool5
I0418 17:00:13.412241 31445 net.cpp:434] pool5 <- fire5/concat
I0418 17:00:13.412248 31445 net.cpp:408] pool5 -> pool5
I0418 17:00:13.412313 31445 net.cpp:150] Setting up pool5
I0418 17:00:13.412323 31445 net.cpp:157] Top shape: 25 256 14 14 (1254400)
I0418 17:00:13.412327 31445 net.cpp:165] Memory required for data: 635503900
I0418 17:00:13.412329 31445 layer_factory.hpp:77] Creating layer fire6/squeeze1x1
I0418 17:00:13.412338 31445 net.cpp:100] Creating Layer fire6/squeeze1x1
I0418 17:00:13.412343 31445 net.cpp:434] fire6/squeeze1x1 <- pool5
I0418 17:00:13.412350 31445 net.cpp:408] fire6/squeeze1x1 -> fire6/squeeze1x1
I0418 17:00:13.413864 31445 net.cpp:150] Setting up fire6/squeeze1x1
I0418 17:00:13.413878 31445 net.cpp:157] Top shape: 25 48 14 14 (235200)
I0418 17:00:13.413882 31445 net.cpp:165] Memory required for data: 636444700
I0418 17:00:13.413888 31445 layer_factory.hpp:77] Creating layer fire6/relu_squeeze1x1
I0418 17:00:13.413897 31445 net.cpp:100] Creating Layer fire6/relu_squeeze1x1
I0418 17:00:13.413902 31445 net.cpp:434] fire6/relu_squeeze1x1 <- fire6/squeeze1x1
I0418 17:00:13.413908 31445 net.cpp:395] fire6/relu_squeeze1x1 -> fire6/squeeze1x1 (in-place)
I0418 17:00:13.414114 31445 net.cpp:150] Setting up fire6/relu_squeeze1x1
I0418 17:00:13.414125 31445 net.cpp:157] Top shape: 25 48 14 14 (235200)
I0418 17:00:13.414140 31445 net.cpp:165] Memory required for data: 637385500
I0418 17:00:13.414145 31445 layer_factory.hpp:77] Creating layer fire6/squeeze1x1_fire6/relu_squeeze1x1_0_split
I0418 17:00:13.414155 31445 net.cpp:100] Creating Layer fire6/squeeze1x1_fire6/relu_squeeze1x1_0_split
I0418 17:00:13.414158 31445 net.cpp:434] fire6/squeeze1x1_fire6/relu_squeeze1x1_0_split <- fire6/squeeze1x1
I0418 17:00:13.414166 31445 net.cpp:408] fire6/squeeze1x1_fire6/relu_squeeze1x1_0_split -> fire6/squeeze1x1_fire6/relu_squeeze1x1_0_split_0
I0418 17:00:13.414175 31445 net.cpp:408] fire6/squeeze1x1_fire6/relu_squeeze1x1_0_split -> fire6/squeeze1x1_fire6/relu_squeeze1x1_0_split_1
I0418 17:00:13.414242 31445 net.cpp:150] Setting up fire6/squeeze1x1_fire6/relu_squeeze1x1_0_split
I0418 17:00:13.414254 31445 net.cpp:157] Top shape: 25 48 14 14 (235200)
I0418 17:00:13.414258 31445 net.cpp:157] Top shape: 25 48 14 14 (235200)
I0418 17:00:13.414263 31445 net.cpp:165] Memory required for data: 639267100
I0418 17:00:13.414265 31445 layer_factory.hpp:77] Creating layer fire6/expand1x1
I0418 17:00:13.414274 31445 net.cpp:100] Creating Layer fire6/expand1x1
I0418 17:00:13.414278 31445 net.cpp:434] fire6/expand1x1 <- fire6/squeeze1x1_fire6/relu_squeeze1x1_0_split_0
I0418 17:00:13.414288 31445 net.cpp:408] fire6/expand1x1 -> fire6/expand1x1
I0418 17:00:13.415777 31445 net.cpp:150] Setting up fire6/expand1x1
I0418 17:00:13.415791 31445 net.cpp:157] Top shape: 25 192 14 14 (940800)
I0418 17:00:13.415794 31445 net.cpp:165] Memory required for data: 643030300
I0418 17:00:13.415802 31445 layer_factory.hpp:77] Creating layer fire6/relu_expand1x1
I0418 17:00:13.415808 31445 net.cpp:100] Creating Layer fire6/relu_expand1x1
I0418 17:00:13.415813 31445 net.cpp:434] fire6/relu_expand1x1 <- fire6/expand1x1
I0418 17:00:13.415820 31445 net.cpp:395] fire6/relu_expand1x1 -> fire6/expand1x1 (in-place)
I0418 17:00:13.416441 31445 net.cpp:150] Setting up fire6/relu_expand1x1
I0418 17:00:13.416453 31445 net.cpp:157] Top shape: 25 192 14 14 (940800)
I0418 17:00:13.416456 31445 net.cpp:165] Memory required for data: 646793500
I0418 17:00:13.416460 31445 layer_factory.hpp:77] Creating layer fire6/expand3x3
I0418 17:00:13.416471 31445 net.cpp:100] Creating Layer fire6/expand3x3
I0418 17:00:13.416476 31445 net.cpp:434] fire6/expand3x3 <- fire6/squeeze1x1_fire6/relu_squeeze1x1_0_split_1
I0418 17:00:13.416486 31445 net.cpp:408] fire6/expand3x3 -> fire6/expand3x3
I0418 17:00:13.418540 31445 net.cpp:150] Setting up fire6/expand3x3
I0418 17:00:13.418550 31445 net.cpp:157] Top shape: 25 192 14 14 (940800)
I0418 17:00:13.418555 31445 net.cpp:165] Memory required for data: 650556700
I0418 17:00:13.418561 31445 layer_factory.hpp:77] Creating layer fire6/relu_expand3x3
I0418 17:00:13.418571 31445 net.cpp:100] Creating Layer fire6/relu_expand3x3
I0418 17:00:13.418576 31445 net.cpp:434] fire6/relu_expand3x3 <- fire6/expand3x3
I0418 17:00:13.418586 31445 net.cpp:395] fire6/relu_expand3x3 -> fire6/expand3x3 (in-place)
I0418 17:00:13.418992 31445 net.cpp:150] Setting up fire6/relu_expand3x3
I0418 17:00:13.419003 31445 net.cpp:157] Top shape: 25 192 14 14 (940800)
I0418 17:00:13.419006 31445 net.cpp:165] Memory required for data: 654319900
I0418 17:00:13.419010 31445 layer_factory.hpp:77] Creating layer fire6/concat
I0418 17:00:13.419016 31445 net.cpp:100] Creating Layer fire6/concat
I0418 17:00:13.419020 31445 net.cpp:434] fire6/concat <- fire6/expand1x1
I0418 17:00:13.419025 31445 net.cpp:434] fire6/concat <- fire6/expand3x3
I0418 17:00:13.419034 31445 net.cpp:408] fire6/concat -> fire6/concat
I0418 17:00:13.419075 31445 net.cpp:150] Setting up fire6/concat
I0418 17:00:13.419082 31445 net.cpp:157] Top shape: 25 384 14 14 (1881600)
I0418 17:00:13.419085 31445 net.cpp:165] Memory required for data: 661846300
I0418 17:00:13.419090 31445 layer_factory.hpp:77] Creating layer fire7/squeeze1x1
I0418 17:00:13.419100 31445 net.cpp:100] Creating Layer fire7/squeeze1x1
I0418 17:00:13.419103 31445 net.cpp:434] fire7/squeeze1x1 <- fire6/concat
I0418 17:00:13.419109 31445 net.cpp:408] fire7/squeeze1x1 -> fire7/squeeze1x1
I0418 17:00:13.420683 31445 net.cpp:150] Setting up fire7/squeeze1x1
I0418 17:00:13.420694 31445 net.cpp:157] Top shape: 25 48 14 14 (235200)
I0418 17:00:13.420697 31445 net.cpp:165] Memory required for data: 662787100
I0418 17:00:13.420711 31445 layer_factory.hpp:77] Creating layer fire7/relu_squeeze1x1
I0418 17:00:13.420719 31445 net.cpp:100] Creating Layer fire7/relu_squeeze1x1
I0418 17:00:13.420723 31445 net.cpp:434] fire7/relu_squeeze1x1 <- fire7/squeeze1x1
I0418 17:00:13.420732 31445 net.cpp:395] fire7/relu_squeeze1x1 -> fire7/squeeze1x1 (in-place)
I0418 17:00:13.420939 31445 net.cpp:150] Setting up fire7/relu_squeeze1x1
I0418 17:00:13.420949 31445 net.cpp:157] Top shape: 25 48 14 14 (235200)
I0418 17:00:13.420953 31445 net.cpp:165] Memory required for data: 663727900
I0418 17:00:13.420956 31445 layer_factory.hpp:77] Creating layer fire7/squeeze1x1_fire7/relu_squeeze1x1_0_split
I0418 17:00:13.420964 31445 net.cpp:100] Creating Layer fire7/squeeze1x1_fire7/relu_squeeze1x1_0_split
I0418 17:00:13.420966 31445 net.cpp:434] fire7/squeeze1x1_fire7/relu_squeeze1x1_0_split <- fire7/squeeze1x1
I0418 17:00:13.420974 31445 net.cpp:408] fire7/squeeze1x1_fire7/relu_squeeze1x1_0_split -> fire7/squeeze1x1_fire7/relu_squeeze1x1_0_split_0
I0418 17:00:13.420982 31445 net.cpp:408] fire7/squeeze1x1_fire7/relu_squeeze1x1_0_split -> fire7/squeeze1x1_fire7/relu_squeeze1x1_0_split_1
I0418 17:00:13.421043 31445 net.cpp:150] Setting up fire7/squeeze1x1_fire7/relu_squeeze1x1_0_split
I0418 17:00:13.421051 31445 net.cpp:157] Top shape: 25 48 14 14 (235200)
I0418 17:00:13.421056 31445 net.cpp:157] Top shape: 25 48 14 14 (235200)
I0418 17:00:13.421058 31445 net.cpp:165] Memory required for data: 665609500
I0418 17:00:13.421061 31445 layer_factory.hpp:77] Creating layer fire7/expand1x1
I0418 17:00:13.421070 31445 net.cpp:100] Creating Layer fire7/expand1x1
I0418 17:00:13.421075 31445 net.cpp:434] fire7/expand1x1 <- fire7/squeeze1x1_fire7/relu_squeeze1x1_0_split_0
I0418 17:00:13.421082 31445 net.cpp:408] fire7/expand1x1 -> fire7/expand1x1
I0418 17:00:13.422564 31445 net.cpp:150] Setting up fire7/expand1x1
I0418 17:00:13.422574 31445 net.cpp:157] Top shape: 25 192 14 14 (940800)
I0418 17:00:13.422579 31445 net.cpp:165] Memory required for data: 669372700
I0418 17:00:13.422592 31445 layer_factory.hpp:77] Creating layer fire7/relu_expand1x1
I0418 17:00:13.422600 31445 net.cpp:100] Creating Layer fire7/relu_expand1x1
I0418 17:00:13.422605 31445 net.cpp:434] fire7/relu_expand1x1 <- fire7/expand1x1
I0418 17:00:13.422611 31445 net.cpp:395] fire7/relu_expand1x1 -> fire7/expand1x1 (in-place)
I0418 17:00:13.423027 31445 net.cpp:150] Setting up fire7/relu_expand1x1
I0418 17:00:13.423038 31445 net.cpp:157] Top shape: 25 192 14 14 (940800)
I0418 17:00:13.423040 31445 net.cpp:165] Memory required for data: 673135900
I0418 17:00:13.423044 31445 layer_factory.hpp:77] Creating layer fire7/expand3x3
I0418 17:00:13.423055 31445 net.cpp:100] Creating Layer fire7/expand3x3
I0418 17:00:13.423059 31445 net.cpp:434] fire7/expand3x3 <- fire7/squeeze1x1_fire7/relu_squeeze1x1_0_split_1
I0418 17:00:13.423066 31445 net.cpp:408] fire7/expand3x3 -> fire7/expand3x3
I0418 17:00:13.425104 31445 net.cpp:150] Setting up fire7/expand3x3
I0418 17:00:13.425115 31445 net.cpp:157] Top shape: 25 192 14 14 (940800)
I0418 17:00:13.425118 31445 net.cpp:165] Memory required for data: 676899100
I0418 17:00:13.425127 31445 layer_factory.hpp:77] Creating layer fire7/relu_expand3x3
I0418 17:00:13.425132 31445 net.cpp:100] Creating Layer fire7/relu_expand3x3
I0418 17:00:13.425137 31445 net.cpp:434] fire7/relu_expand3x3 <- fire7/expand3x3
I0418 17:00:13.425146 31445 net.cpp:395] fire7/relu_expand3x3 -> fire7/expand3x3 (in-place)
I0418 17:00:13.425551 31445 net.cpp:150] Setting up fire7/relu_expand3x3
I0418 17:00:13.425562 31445 net.cpp:157] Top shape: 25 192 14 14 (940800)
I0418 17:00:13.425565 31445 net.cpp:165] Memory required for data: 680662300
I0418 17:00:13.425570 31445 layer_factory.hpp:77] Creating layer fire7/concat
I0418 17:00:13.425577 31445 net.cpp:100] Creating Layer fire7/concat
I0418 17:00:13.425595 31445 net.cpp:434] fire7/concat <- fire7/expand1x1
I0418 17:00:13.425601 31445 net.cpp:434] fire7/concat <- fire7/expand3x3
I0418 17:00:13.425607 31445 net.cpp:408] fire7/concat -> fire7/concat
I0418 17:00:13.425649 31445 net.cpp:150] Setting up fire7/concat
I0418 17:00:13.425657 31445 net.cpp:157] Top shape: 25 384 14 14 (1881600)
I0418 17:00:13.425660 31445 net.cpp:165] Memory required for data: 688188700
I0418 17:00:13.425664 31445 layer_factory.hpp:77] Creating layer fire8/squeeze1x1
I0418 17:00:13.425675 31445 net.cpp:100] Creating Layer fire8/squeeze1x1
I0418 17:00:13.425679 31445 net.cpp:434] fire8/squeeze1x1 <- fire7/concat
I0418 17:00:13.425688 31445 net.cpp:408] fire8/squeeze1x1 -> fire8/squeeze1x1
I0418 17:00:13.427769 31445 net.cpp:150] Setting up fire8/squeeze1x1
I0418 17:00:13.427781 31445 net.cpp:157] Top shape: 25 64 14 14 (313600)
I0418 17:00:13.427785 31445 net.cpp:165] Memory required for data: 689443100
I0418 17:00:13.427793 31445 layer_factory.hpp:77] Creating layer fire8/relu_squeeze1x1
I0418 17:00:13.427801 31445 net.cpp:100] Creating Layer fire8/relu_squeeze1x1
I0418 17:00:13.427805 31445 net.cpp:434] fire8/relu_squeeze1x1 <- fire8/squeeze1x1
I0418 17:00:13.427811 31445 net.cpp:395] fire8/relu_squeeze1x1 -> fire8/squeeze1x1 (in-place)
I0418 17:00:13.428023 31445 net.cpp:150] Setting up fire8/relu_squeeze1x1
I0418 17:00:13.428032 31445 net.cpp:157] Top shape: 25 64 14 14 (313600)
I0418 17:00:13.428035 31445 net.cpp:165] Memory required for data: 690697500
I0418 17:00:13.428040 31445 layer_factory.hpp:77] Creating layer fire8/squeeze1x1_fire8/relu_squeeze1x1_0_split
I0418 17:00:13.428047 31445 net.cpp:100] Creating Layer fire8/squeeze1x1_fire8/relu_squeeze1x1_0_split
I0418 17:00:13.428051 31445 net.cpp:434] fire8/squeeze1x1_fire8/relu_squeeze1x1_0_split <- fire8/squeeze1x1
I0418 17:00:13.428059 31445 net.cpp:408] fire8/squeeze1x1_fire8/relu_squeeze1x1_0_split -> fire8/squeeze1x1_fire8/relu_squeeze1x1_0_split_0
I0418 17:00:13.428067 31445 net.cpp:408] fire8/squeeze1x1_fire8/relu_squeeze1x1_0_split -> fire8/squeeze1x1_fire8/relu_squeeze1x1_0_split_1
I0418 17:00:13.428128 31445 net.cpp:150] Setting up fire8/squeeze1x1_fire8/relu_squeeze1x1_0_split
I0418 17:00:13.428136 31445 net.cpp:157] Top shape: 25 64 14 14 (313600)
I0418 17:00:13.428141 31445 net.cpp:157] Top shape: 25 64 14 14 (313600)
I0418 17:00:13.428144 31445 net.cpp:165] Memory required for data: 693206300
I0418 17:00:13.428148 31445 layer_factory.hpp:77] Creating layer fire8/expand1x1
I0418 17:00:13.428155 31445 net.cpp:100] Creating Layer fire8/expand1x1
I0418 17:00:13.428160 31445 net.cpp:434] fire8/expand1x1 <- fire8/squeeze1x1_fire8/relu_squeeze1x1_0_split_0
I0418 17:00:13.428167 31445 net.cpp:408] fire8/expand1x1 -> fire8/expand1x1
I0418 17:00:13.429709 31445 net.cpp:150] Setting up fire8/expand1x1
I0418 17:00:13.429720 31445 net.cpp:157] Top shape: 25 256 14 14 (1254400)
I0418 17:00:13.429724 31445 net.cpp:165] Memory required for data: 698223900
I0418 17:00:13.429731 31445 layer_factory.hpp:77] Creating layer fire8/relu_expand1x1
I0418 17:00:13.429738 31445 net.cpp:100] Creating Layer fire8/relu_expand1x1
I0418 17:00:13.429743 31445 net.cpp:434] fire8/relu_expand1x1 <- fire8/expand1x1
I0418 17:00:13.429750 31445 net.cpp:395] fire8/relu_expand1x1 -> fire8/expand1x1 (in-place)
I0418 17:00:13.430168 31445 net.cpp:150] Setting up fire8/relu_expand1x1
I0418 17:00:13.430178 31445 net.cpp:157] Top shape: 25 256 14 14 (1254400)
I0418 17:00:13.430181 31445 net.cpp:165] Memory required for data: 703241500
I0418 17:00:13.430186 31445 layer_factory.hpp:77] Creating layer fire8/expand3x3
I0418 17:00:13.430197 31445 net.cpp:100] Creating Layer fire8/expand3x3
I0418 17:00:13.430200 31445 net.cpp:434] fire8/expand3x3 <- fire8/squeeze1x1_fire8/relu_squeeze1x1_0_split_1
I0418 17:00:13.430209 31445 net.cpp:408] fire8/expand3x3 -> fire8/expand3x3
I0418 17:00:13.433146 31445 net.cpp:150] Setting up fire8/expand3x3
I0418 17:00:13.433158 31445 net.cpp:157] Top shape: 25 256 14 14 (1254400)
I0418 17:00:13.433176 31445 net.cpp:165] Memory required for data: 708259100
I0418 17:00:13.433184 31445 layer_factory.hpp:77] Creating layer fire8/relu_expand3x3
I0418 17:00:13.433192 31445 net.cpp:100] Creating Layer fire8/relu_expand3x3
I0418 17:00:13.433195 31445 net.cpp:434] fire8/relu_expand3x3 <- fire8/expand3x3
I0418 17:00:13.433203 31445 net.cpp:395] fire8/relu_expand3x3 -> fire8/expand3x3 (in-place)
I0418 17:00:13.433614 31445 net.cpp:150] Setting up fire8/relu_expand3x3
I0418 17:00:13.433624 31445 net.cpp:157] Top shape: 25 256 14 14 (1254400)
I0418 17:00:13.433629 31445 net.cpp:165] Memory required for data: 713276700
I0418 17:00:13.433632 31445 layer_factory.hpp:77] Creating layer fire8/concat
I0418 17:00:13.433639 31445 net.cpp:100] Creating Layer fire8/concat
I0418 17:00:13.433642 31445 net.cpp:434] fire8/concat <- fire8/expand1x1
I0418 17:00:13.433647 31445 net.cpp:434] fire8/concat <- fire8/expand3x3
I0418 17:00:13.433653 31445 net.cpp:408] fire8/concat -> fire8/concat
I0418 17:00:13.433696 31445 net.cpp:150] Setting up fire8/concat
I0418 17:00:13.433704 31445 net.cpp:157] Top shape: 25 512 14 14 (2508800)
I0418 17:00:13.433707 31445 net.cpp:165] Memory required for data: 723311900
I0418 17:00:13.433712 31445 layer_factory.hpp:77] Creating layer fire9/squeeze1x1
I0418 17:00:13.433720 31445 net.cpp:100] Creating Layer fire9/squeeze1x1
I0418 17:00:13.433725 31445 net.cpp:434] fire9/squeeze1x1 <- fire8/concat
I0418 17:00:13.433732 31445 net.cpp:408] fire9/squeeze1x1 -> fire9/squeeze1x1
I0418 17:00:13.435441 31445 net.cpp:150] Setting up fire9/squeeze1x1
I0418 17:00:13.435451 31445 net.cpp:157] Top shape: 25 64 14 14 (313600)
I0418 17:00:13.435456 31445 net.cpp:165] Memory required for data: 724566300
I0418 17:00:13.435462 31445 layer_factory.hpp:77] Creating layer fire9/relu_squeeze1x1
I0418 17:00:13.435480 31445 net.cpp:100] Creating Layer fire9/relu_squeeze1x1
I0418 17:00:13.435485 31445 net.cpp:434] fire9/relu_squeeze1x1 <- fire9/squeeze1x1
I0418 17:00:13.435492 31445 net.cpp:395] fire9/relu_squeeze1x1 -> fire9/squeeze1x1 (in-place)
I0418 17:00:13.435907 31445 net.cpp:150] Setting up fire9/relu_squeeze1x1
I0418 17:00:13.435917 31445 net.cpp:157] Top shape: 25 64 14 14 (313600)
I0418 17:00:13.435921 31445 net.cpp:165] Memory required for data: 725820700
I0418 17:00:13.435925 31445 layer_factory.hpp:77] Creating layer fire9/squeeze1x1_fire9/relu_squeeze1x1_0_split
I0418 17:00:13.435935 31445 net.cpp:100] Creating Layer fire9/squeeze1x1_fire9/relu_squeeze1x1_0_split
I0418 17:00:13.435938 31445 net.cpp:434] fire9/squeeze1x1_fire9/relu_squeeze1x1_0_split <- fire9/squeeze1x1
I0418 17:00:13.435945 31445 net.cpp:408] fire9/squeeze1x1_fire9/relu_squeeze1x1_0_split -> fire9/squeeze1x1_fire9/relu_squeeze1x1_0_split_0
I0418 17:00:13.435953 31445 net.cpp:408] fire9/squeeze1x1_fire9/relu_squeeze1x1_0_split -> fire9/squeeze1x1_fire9/relu_squeeze1x1_0_split_1
I0418 17:00:13.436017 31445 net.cpp:150] Setting up fire9/squeeze1x1_fire9/relu_squeeze1x1_0_split
I0418 17:00:13.436025 31445 net.cpp:157] Top shape: 25 64 14 14 (313600)
I0418 17:00:13.436029 31445 net.cpp:157] Top shape: 25 64 14 14 (313600)
I0418 17:00:13.436033 31445 net.cpp:165] Memory required for data: 728329500
I0418 17:00:13.436036 31445 layer_factory.hpp:77] Creating layer fire9/expand1x1
I0418 17:00:13.436044 31445 net.cpp:100] Creating Layer fire9/expand1x1
I0418 17:00:13.436048 31445 net.cpp:434] fire9/expand1x1 <- fire9/squeeze1x1_fire9/relu_squeeze1x1_0_split_0
I0418 17:00:13.436056 31445 net.cpp:408] fire9/expand1x1 -> fire9/expand1x1
I0418 17:00:13.437621 31445 net.cpp:150] Setting up fire9/expand1x1
I0418 17:00:13.437633 31445 net.cpp:157] Top shape: 25 256 14 14 (1254400)
I0418 17:00:13.437636 31445 net.cpp:165] Memory required for data: 733347100
I0418 17:00:13.437644 31445 layer_factory.hpp:77] Creating layer fire9/relu_expand1x1
I0418 17:00:13.437650 31445 net.cpp:100] Creating Layer fire9/relu_expand1x1
I0418 17:00:13.437654 31445 net.cpp:434] fire9/relu_expand1x1 <- fire9/expand1x1
I0418 17:00:13.437661 31445 net.cpp:395] fire9/relu_expand1x1 -> fire9/expand1x1 (in-place)
I0418 17:00:13.438092 31445 net.cpp:150] Setting up fire9/relu_expand1x1
I0418 17:00:13.438103 31445 net.cpp:157] Top shape: 25 256 14 14 (1254400)
I0418 17:00:13.438107 31445 net.cpp:165] Memory required for data: 738364700
I0418 17:00:13.438110 31445 layer_factory.hpp:77] Creating layer fire9/expand3x3
I0418 17:00:13.438122 31445 net.cpp:100] Creating Layer fire9/expand3x3
I0418 17:00:13.438125 31445 net.cpp:434] fire9/expand3x3 <- fire9/squeeze1x1_fire9/relu_squeeze1x1_0_split_1
I0418 17:00:13.438134 31445 net.cpp:408] fire9/expand3x3 -> fire9/expand3x3
I0418 17:00:13.441072 31445 net.cpp:150] Setting up fire9/expand3x3
I0418 17:00:13.441085 31445 net.cpp:157] Top shape: 25 256 14 14 (1254400)
I0418 17:00:13.441089 31445 net.cpp:165] Memory required for data: 743382300
I0418 17:00:13.441097 31445 layer_factory.hpp:77] Creating layer fire9/relu_expand3x3
I0418 17:00:13.441104 31445 net.cpp:100] Creating Layer fire9/relu_expand3x3
I0418 17:00:13.441108 31445 net.cpp:434] fire9/relu_expand3x3 <- fire9/expand3x3
I0418 17:00:13.441113 31445 net.cpp:395] fire9/relu_expand3x3 -> fire9/expand3x3 (in-place)
I0418 17:00:13.441524 31445 net.cpp:150] Setting up fire9/relu_expand3x3
I0418 17:00:13.441536 31445 net.cpp:157] Top shape: 25 256 14 14 (1254400)
I0418 17:00:13.441540 31445 net.cpp:165] Memory required for data: 748399900
I0418 17:00:13.441543 31445 layer_factory.hpp:77] Creating layer fire9/concat
I0418 17:00:13.441550 31445 net.cpp:100] Creating Layer fire9/concat
I0418 17:00:13.441555 31445 net.cpp:434] fire9/concat <- fire9/expand1x1
I0418 17:00:13.441560 31445 net.cpp:434] fire9/concat <- fire9/expand3x3
I0418 17:00:13.441565 31445 net.cpp:408] fire9/concat -> fire9/concat
I0418 17:00:13.441607 31445 net.cpp:150] Setting up fire9/concat
I0418 17:00:13.441615 31445 net.cpp:157] Top shape: 25 512 14 14 (2508800)
I0418 17:00:13.441618 31445 net.cpp:165] Memory required for data: 758435100
I0418 17:00:13.441622 31445 layer_factory.hpp:77] Creating layer drop9
I0418 17:00:13.441629 31445 net.cpp:100] Creating Layer drop9
I0418 17:00:13.441633 31445 net.cpp:434] drop9 <- fire9/concat
I0418 17:00:13.441640 31445 net.cpp:395] drop9 -> fire9/concat (in-place)
I0418 17:00:13.441679 31445 net.cpp:150] Setting up drop9
I0418 17:00:13.441685 31445 net.cpp:157] Top shape: 25 512 14 14 (2508800)
I0418 17:00:13.441689 31445 net.cpp:165] Memory required for data: 768470300
I0418 17:00:13.441691 31445 layer_factory.hpp:77] Creating layer conv10-cylinders
I0418 17:00:13.441702 31445 net.cpp:100] Creating Layer conv10-cylinders
I0418 17:00:13.441706 31445 net.cpp:434] conv10-cylinders <- fire9/concat
I0418 17:00:13.441714 31445 net.cpp:408] conv10-cylinders -> conv10-cylinders
I0418 17:00:13.444077 31445 net.cpp:150] Setting up conv10-cylinders
I0418 17:00:13.444088 31445 net.cpp:157] Top shape: 25 3 14 14 (14700)
I0418 17:00:13.444092 31445 net.cpp:165] Memory required for data: 768529100
I0418 17:00:13.444099 31445 layer_factory.hpp:77] Creating layer relu_conv10
I0418 17:00:13.444106 31445 net.cpp:100] Creating Layer relu_conv10
I0418 17:00:13.444110 31445 net.cpp:434] relu_conv10 <- conv10-cylinders
I0418 17:00:13.444116 31445 net.cpp:395] relu_conv10 -> conv10-cylinders (in-place)
I0418 17:00:13.444329 31445 net.cpp:150] Setting up relu_conv10
I0418 17:00:13.444339 31445 net.cpp:157] Top shape: 25 3 14 14 (14700)
I0418 17:00:13.444341 31445 net.cpp:165] Memory required for data: 768587900
I0418 17:00:13.444345 31445 layer_factory.hpp:77] Creating layer pool10
I0418 17:00:13.444353 31445 net.cpp:100] Creating Layer pool10
I0418 17:00:13.444357 31445 net.cpp:434] pool10 <- conv10-cylinders
I0418 17:00:13.444365 31445 net.cpp:408] pool10 -> pool10
I0418 17:00:13.444816 31445 net.cpp:150] Setting up pool10
I0418 17:00:13.444826 31445 net.cpp:157] Top shape: 25 3 1 1 (75)
I0418 17:00:13.444829 31445 net.cpp:165] Memory required for data: 768588200
I0418 17:00:13.444833 31445 layer_factory.hpp:77] Creating layer pool10_pool10_0_split
I0418 17:00:13.444840 31445 net.cpp:100] Creating Layer pool10_pool10_0_split
I0418 17:00:13.444857 31445 net.cpp:434] pool10_pool10_0_split <- pool10
I0418 17:00:13.444866 31445 net.cpp:408] pool10_pool10_0_split -> pool10_pool10_0_split_0
I0418 17:00:13.444875 31445 net.cpp:408] pool10_pool10_0_split -> pool10_pool10_0_split_1
I0418 17:00:13.444883 31445 net.cpp:408] pool10_pool10_0_split -> pool10_pool10_0_split_2
I0418 17:00:13.444962 31445 net.cpp:150] Setting up pool10_pool10_0_split
I0418 17:00:13.444970 31445 net.cpp:157] Top shape: 25 3 1 1 (75)
I0418 17:00:13.444974 31445 net.cpp:157] Top shape: 25 3 1 1 (75)
I0418 17:00:13.444978 31445 net.cpp:157] Top shape: 25 3 1 1 (75)
I0418 17:00:13.444981 31445 net.cpp:165] Memory required for data: 768589100
I0418 17:00:13.444984 31445 layer_factory.hpp:77] Creating layer loss
I0418 17:00:13.444990 31445 net.cpp:100] Creating Layer loss
I0418 17:00:13.444994 31445 net.cpp:434] loss <- pool10_pool10_0_split_0
I0418 17:00:13.444999 31445 net.cpp:434] loss <- label_data_1_split_0
I0418 17:00:13.445006 31445 net.cpp:408] loss -> loss
…
